networks/vae_precoder_beta0.05_epoch70_latent_dim10_from_train_py.pt (torch, 341843 bytes, 64 tensors)

encoder.0.0.weight f4 [32, 32]
0	0xbf09b84d	-0.53796846
1	0x3e230410	0.15919518
2	0x3eac2a4d	0.33626023
3	0xbc2439f7	-0.0100235855
4	0xbd38b1cd	-0.04509144
5	0x3dfb9b14	0.12285438
6	0xbdf90a4a	-0.121601656
7	0xbe5bbbd3	-0.21458368
8	0xbe443b27	-0.1916319
9	0x3e4a8407	0.19776927
10	0x3e9132fc	0.2835921
11	0xbe3e1ced	-0.18565722
12	0x3dfa3fc3	0.12219193
13	0x3df57f63	0.11987188
14	0xbdf461bf	-0.11932706
15	0xbe7000c1	-0.23437788
16	0xbe6f8aae	-0.23392746
17	0x3ec6a761	0.38799575
18	0x3ef162a5	0.47145572
19	0xbe0d773f	-0.1381502
20	0x3c33afb8	0.010967188
21	0xbe0ddefa	-0.1385459
22	0x3cf9f035	0.030510047
23	0xbe9a076a	-0.3008378
24	0xbd4973a9	-0.049182568
25	0x3e86b88e	0.2631268
26	0x3e46c649	0.19411577
27	0xbe8d3d82	-0.2758599
28	0xbdf19400	-0.11795807
29	0x3ec9ba53	0.39399967
30	0x3e725af8	0.23667514
31	0xbeb0d5fd	-0.3453826
32	0x3e21d521	0.15803958
33	0x3d58e3cb	0.052951615
34	0xbe917e36	-0.28416604
35	0x3d37623c	0.044771418
36	0xbe0ecb6e	-0.1394479
37	0x3d4d55a2	0.050130494
38	0xbdc9053d	-0.09815452
39	0x3e887f5d	0.2665967
40	0x3eda8fdd	0.42687884
41	0x3e176cc9	0.14787592
42	0xbe55471d	-0.20827909
43	0xbe59b4bf	-0.21260355
44	0xbe639767	-0.22225724
45	0xbe3a3a74	-0.1818636
46	0xbecd0ef9	-0.40050486
47	0x3d3db842	0.0463183
48	0x3e2f6a59	0.17130412
49	0xbd5663f2	-0.05234141
50	0x3e2c37c0	0.16818142
51	0xbde01ada	-0.109426215
52	0xbe840996	-0.25788563
53	0xbe21fb1d	-0.15818448
54	0xbea3c088	-0.31982827
55	0x3f17523d	0.5910986
56	0x3ee595af	0.44840762
57	0xbdeaf592	-0.1147262
58	0xbeec735f	-0.4618177
59	0x3e54ceef	0.20782064
60	0x3ea3ef9e	0.3201875
61	0x3e373bfd	0.17893977
62	0xbe42e899	-0.19034041
63	0xbe4dfa29	-0.2011496
64	0x3c34d0d4	0.011036117
65	0xbe5a9a7e	-0.21347997
66	0xbcbf73d9	-0.02337067
67	0x3e8914dc	0.26773727
68	0x3ca7ec48	0.02049841
69	0xbdda2f74	-0.10653582
70	0xbe482b4f	-0.19547771
71	0x3e325609	0.17415632
72	0x3d6477f7	0.05577847
73	0xbe5905cd	-0.21193619
74	0xbef52ba9	-0.47884873
75	0x3e1b88d1	0.1518891
76	0x3e8e0e0a	0.27745086
77	0x3eb08308	0.3447497
78	0x3e7a00eb	0.24414413
79	0xbc7e634a	-0.015526602
80	0x3e6c8b81	0.23100092
81	0x3d8b1bfe	0.067924485
82	0x3e5fa08d	0.21838589
83	0xbeb886df	-0.36040398
84	0xbea80858	-0.32818866
85	0xbea63b3a	-0.3246706
86	0xbed6014f	-0.41797873
87	0x3f35ec70	0.710639
88	0x3eab2f11	0.33434346
89	0xbd999732	-0.07499541
90	0x3d400496	0.046879373
91	0xbdc66673	-0.096875094
92	0xbdb2243e	-0.08698319
93	0x3d42cf22	0.04756082
94	0x3e5fa458	0.21840036
95	0x3e79dece	0.244014
96	0xba800121	-0.0009765961
97	0x3de72672	0.1128663
98	0x3e819dae	0.25315613
99	0x3e4e3aae	0.20139572
100	0x3eb4598e	0.35224575
101	0xbe41a87f	-0.18911932
102	0x3bbef418	0.005827438
103	0xbeef0c63	-0.46689138
104	0xbef143a4	-0.47121918
105	0xbc6906d5	-0.01422282
106	0xbe31ce8e	-0.1736395
107	0x3eddabb0	0.4329505
108	0x3d9c27e2	0.076247945
109	0x3d273bda	0.040828563
110	0xbd9acd20	-0.07558656
111	0x3d308a1f	0.043100473
112	0xbd9a31b2	-0.0752901
113	0x3ec8a4a1	0.39188102
114	0x3d4e4999	0.050363157
115	0x3e3d99ce	0.18515703
116	0x3ec1511d	0.37757197
117	0x3de9b7eb	0.11412033
118	0xbd9a6d2a	-0.07540353
119	0xbe83acda	-0.25717813
120	0xbe70be7e	-0.23510167
121	0x3e748b34	0.23881227
122	0x3e7f9610	0.24959588
123	0x3dcf45ec	0.101207584
124	0xbe8d7c67	-0.27633974
125	0xbef45507	-0.4772112
126	0x3e6de5d2	0.232322
127	0x3eb8c7e2	0.36089998
128	0x3eaba4ce	0.33524173
129	0xbed71e25	-0.42015186
130	0xbf0f761c	-0.56039596
131	0xbd3aee19	-0.045637224
132	0x3e0701ca	0.13184276
133	0x3eaa2148	0.33228517
134	0x3eb7499b	0.35798344
135	0x3ea88329	0.32912567
136	0x3dfbf354	0.123022705
137	0xbeaa0084	-0.33203518
138	0xbda87318	-0.082250774
139	0x3ea998e0	0.33124447
140	0x3e6882ed	0.22706194
141	0xbd071baf	-0.032985386
142	0xbe3b18dd	-0.18271203
143	0x3e2a86fe	0.16653058
144	0x3d6db4c9	0.05803374
145	0xbeb49080	-0.35266495
146	0xbeef61a0	-0.4675417
147	0x3d8d4c32	0.06899299
148	0x3dfb6497	0.12275045
149	0x3ea622ce	0.3244843
150	0x3d045b60	0.032313704
151	0x3e75107f	0.23932074
152	0x3dc345ed	0.09534822
153	0xbe8466a9	-0.25859573
154	0xbde17308	-0.110082686
155	0xbdc3256a	-0.095286205
156	0x3d7464da	0.059666492
157	0xbe5c2b7d	-0.21500964
158	0xbe7d8aef	-0.2476003
159	0x3e3ead33	0.18620758
160	0xbea923f0	-0.3303523
161	0xbe078449	-0.13234057
162	0x3def0447	0.11670738
163	0x3ea6d316	0.3258292
164	0x3e42e756	0.1903356
165	0xbe8fe22f	-0.28102252
166	0x3e092d34	0.1339615
167	0xbd71e56e	-0.05905669
168	0x3d8f3e2c	0.0699428
169	0xbecd6adb	-0.40120587
170	0xbe84317d	-0.25819007
171	0x3e3c87dd	0.18411203
172	0xbc8befb4	-0.017082073
173	0x3e18573c	0.14877027
174	0x3d3c4f2d	0.045973945
175	0x3c9a041a	0.018800784
176	0xbec4d83b	-0.3844622
177	0xbeb52cdf	-0.35385796
178	0xbdfba7dd	-0.12287877
179	0x3f4061d8	0.751493
180	0x3e7ac7c4	0.24490267
181	0xbe9a9715	-0.3019339
182	0x3cce3aa6	0.02517445
183	0xbd8d2a78	-0.06892866
184	0x3d8c656f	0.068552844
185	0xbe8798c0	-0.26483727
186	0xbeb43d66	-0.35203093
187	0x3e936f65	0.28795925
188	0x3e859fe2	0.26098543
189	0x3c8aee22	0.016959254
190	0x3d2e8705	0.042609233
191	0xbe84de39	-0.25950792
192	0x3e7ab224	0.24482018
193	0x3e4153ab	0.18879573
194	0x3c225b88	0.009909518
195	0xbeffd013	-0.49963436
196	0xbdca155a	-0.09867354
197	0x3eb5ead4	0.35530722
198	0x3d9434f6	0.07236664
199	0xbe1f40e8	-0.15552104
200	0x3d8e48ce	0.0694748
201	0x3de2bcdb	0.110711776
202	0x3e94ba5a	0.29048425
203	0xbe254ee3	-0.16143374
204	0xbc243afc	-0.010023829
205	0xbd7d4fe0	-0.061843753
206	0x3df2f5a4	0.118632585
207	0x3e36b153	0.17841081
208	0x3e362028	0.17785704
209	0x3e09c791	0.13455035
210	0x3e951036	0.2911393
211	0xbf0f8577	-0.56063026
212	0xbea0995f	-0.31367013
213	0x3e7fccca	0.24980465
214	0xbd553a35	-0.052057464
215	0xbe3093f1	-0.17243935
216	0xbd005303	-0.031329166
217	0x3ee72559	0.45145682
218	0x3e8490dc	0.2589177
219	0xbe958aa8	-0.2920735
220	0xbf023176	-0.5085672
221	0x3d3107ba	0.04322026
222	0x3d2faed9	0.042891357
223	0x3da31f85	0.07964996
224	0xbeb708ff	-0.3574905
225	0xbe764c8a	-0.24052635
226	0xbec265d8	-0.37968326
227	0x3e8375ca	0.25675803
228	0x3ed5484a	0.41656715
229	0x3e19c142	0.15015128
230	0xbe250062	-0.16113427
231	0xbe3e51b3	-0.18585853
232	0xbdedce75	-0.11611644
233	0x3ec2346f	0.3793063
234	0x3ea7da06	0.32783526
235	0x3daa527f	0.08316516
236	0x3e0cc069	0.13745274
237	0xbec233c8	-0.3793013
238	0xbebff2a8	-0.3748982
239	0xbc065c67	-0.008200741
240	0x3d382dc3	0.044965517
241	0xbc949a72	-0.018140052
242	0xbe136081	-0.14392282
243	0x3e341913	0.1758769
244	0x3ed3fe55	0.41404977
245	0x3d8ec63b	0.06971403
246	0xbe4f3567	-0.20235215
247	0x3cb2f962	0.02184743
248	0x3ec8bd1c	0.3920678
249	0x3ea0a649	0.31376866
250	0xbdaa03da	-0.08301516
251	0xbe10bb14	-0.14133865
252	0x3e7430d3	0.2384675
253	0x3e51947b	0.20466797
254	0xbdce5e70	-0.10076606
255	0xbe97b6b6	-0.29631585

encoder.0.0.bias f4 [32]
0	0x3eac1fed	0.33618107
1	0x3bec30ae	0.0072079515
2	0x3d82161a	0.06351872
3	0xbead3874	-0.33832133
4	0x3dda4367	0.10657387
5	0xbe5511f8	-0.20807636
6	0xbe2a9ab3	-0.16660576
7	0xbe4e906b	-0.20172279
8	0x3e907bea	0.2821954
9	0x3e00f57d	0.12593646
10	0x3c71c676	0.014756789
11	0xbe444676	-0.19167504
12	0x3cb238ee	0.021755662
13	0x3e609d9f	0.21935128
14	0x3e80c8c5	0.25153175
15	0xbcf8f8e6	-0.030392122
16	0xbe41dcea	-0.18931928
17	0xbe842174	-0.25806773
18	0xbd684cde	-0.05671393
19	0xbe8a3a75	-0.26997724
20	0xbc04529d	-0.008076337
21	0xbef7d69d	-0.48405924
22	0xbe144fdb	-0.14483587
23	0xbdc72739	-0.09724278
24	0x3ce4fbbc	0.027952068
25	0xbd9c071a	-0.07618542
26	0x3e1a8c30	0.1509254
27	0xbd774e8f	-0.060377654
28	0x3e03c54d	0.12868233
29	0xbf1d9431	-0.6155425
30	0xba3b93ed	-0.00071555265
31	0xbe934d7a	-0.28770047

encoder.0.1.weight f4 [32]
0	0x3f4c66b5	0.7984422
1	0x3f48241e	0.7818011
2	0x3f63827f	0.88870996
3	0x3f4a0adc	0.7892282
4	0x3f4a1b8f	0.789483
5	0x3f4fac67	0.8112244
6	0x3f7ce2ab	0.9878337
7	0x3f24b09d	0.6433199
8	0x3f2afb71	0.6678992
9	0x3f4a406b	0.79004544
10	0x3f6c9f2f	0.92430395
11	0x3f4e7b82	0.8065721
12	0x3f6210a6	0.88306653
13	0x3f29e014	0.6635754
14	0x3f13cefc	0.5773771
15	0x3f19057d	0.59774
16	0x3f4ae9f9	0.79263264
17	0x3f2628c0	0.6490593
18	0x3f37f1ba	0.7185322
19	0x3f76a168	0.96340036
20	0x3f470ad5	0.77750903
21	0x3f69be48	0.9130597
22	0x3f429698	0.7601104
23	0x3f3551e8	0.70828104
24	0x3f11b516	0.5691694
25	0x3f39cf7e	0.7258223
26	0x3f0448d5	0.5167363
27	0x3f78e6cd	0.97227174
28	0x3f5ac003	0.85449237
29	0x3f3ea1da	0.74465716
30	0x3f384f42	0.7199594
31	0x3f2d9ae9	0.678145

encoder.0.1.bias f4 [32]
0	0x3e448b4e	0.19193766
1	0x3e065832	0.13119581
2	0x3dee1c24	0.11626461
3	0x3e877a62	0.26460558
4	0x3eb94cf5	0.36191526
5	0x3e6ef1f2	0.23334482
6	0x3e8755d4	0.2643267
7	0x3e7da678	0.24770534
8	0x3f4ca520	0.7993946
9	0x3ed5839b	0.4170197
10	0x3e956cf8	0.291847
11	0xbdb06174	-0.08612338
12	0x3d826fbc	0.06368968
13	0x3eb43b8d	0.35201684
14	0x3e64c659	0.22341289
15	0x3d94ab7a	0.07259269
16	0x3ec615a5	0.38688388
17	0x3ef5b0a6	0.47986335
18	0xbe2a9c29	-0.16661133
19	0x3e00ce31	0.12578656
20	0x3ebc3ee7	0.3676674
21	0x3e89e6b1	0.26933816
22	0x3ec00e83	0.37511072
23	0x3f1e4b86	0.6183399
24	0x3fb2806e	1.3945444
25	0x3df08fbf	0.117461674
26	0x3f258ad6	0.6466497
27	0xbdcac4de	-0.09900831
28	0x3e9f007d	0.3105506
29	0x3ed190bb	0.40930733
30	0x3cbc1d1a	0.022963095
31	0x3f66f86a	0.902228

encoder.0.1.running_mean f4 [32]
0	0x3ee56658	0.44804645
1	0x3a15b930	0.0005711494
2	0x3c807ac7	0.015683545
3	0xbebb6966	-0.3660385
4	0x3c7caa47	0.015421457
5	0xbeab48dd	-0.33454028
6	0xbd10d8a1	-0.035362843
7	0xbe375303	-0.1790276
8	0x3e778945	0.24173458
9	0x3de397dc	0.11112949
10	0xbcee25ad	-0.0290707
11	0xbe110139	-0.14160623
12	0x3d679d08	0.05654624
13	0x3e5efc94	0.21776038
14	0x3e4c7f91	0.19970538
15	0x3d44dbfd	0.04806136
16	0xbe79b02c	-0.2438361
17	0xbe684aa3	-0.22684722
18	0x3d44eff8	0.048080415
19	0xbec279d1	-0.37983564
20	0xbd985d82	-0.0743971
21	0xbec4d1e2	-0.38441378
22	0xbe47302b	-0.19451968
23	0xbe372887	-0.17886554
24	0xbd4c5315	-0.04988392
25	0xbdecfaf6	-0.115713045
26	0x3dbe829b	0.09302255
27	0xbb242153	-0.0025044277
28	0x3e38e207	0.18054973
29	0xbf0d22fa	-0.55131495
30	0x3d2a9519	0.041646097
31	0xbe8d98b0	-0.27655554

encoder.0.1.running_var f4 [32]
0	0x3e090159	0.1337942
1	0x3e1dac3a	0.1539773
2	0x3e282f77	0.16424356
3	0x3e0d46fb	0.13796608
4	0x3e4040eb	0.18774764
5	0x3e53518e	0.2063658
6	0x3e55b7c6	0.20870885
7	0x3e2e72b5	0.17035945
8	0x3e0a82cd	0.13526459
9	0x3e376669	0.1791016
10	0x3e661d59	0.22472133
11	0x3e235869	0.15951695
12	0x3e24c30d	0.16090031
13	0x3dfc1d6d	0.123103
14	0x3db9ac79	0.090661
15	0x3dc17158	0.09445447
16	0x3e753d49	0.2394916
17	0x3e01f89e	0.12692496
18	0x3dc86371	0.09784592
19	0x3e431b35	0.19053347
20	0x3e00a0b4	0.12561303
21	0x3e6e4f4c	0.23272437
22	0x3e366e3d	0.1781549
23	0x3e670b62	0.22562936
24	0x3ddad6f7	0.106855325
25	0x3e394538	0.18092811
26	0x3dd4dad6	0.10393302
27	0x3e1a8d5d	0.15092988
28	0x3e0d6d78	0.1381129
29	0x3e105830	0.14096141
30	0x3e0aaf4b	0.13543431
31	0x3dfb4924	0.1226981

encoder.1.0.weight f4 [64, 32]
0	0xbd858f0f	-0.06521427
1	0xbe2a3c3b	-0.16624539
2	0x3e723fe3	0.23657183
3	0xbe421ae2	-0.18955567
4	0xbd6e0aaf	-0.058115657
5	0xbc42925b	-0.011875714
6	0x3ed0ec93	0.40805492
7	0xbee06445	-0.438265
8	0x3d921806	0.07133488
9	0xbcf3eec0	-0.02977693
10	0xbc14f1a0	-0.009090811
11	0x3de74fcc	0.11294517
12	0xbe56d71b	-0.20980494
13	0x3e87f488	0.2655375
14	0x3c73aa32	0.014872121
15	0x3c9e3779	0.01931356
16	0xbca907e3	-0.020633643
17	0xbe55ea9d	-0.20890279
18	0xbe3a1a92	-0.18174198
19	0x3dc3ae83	0.0955477
20	0xbf226d58	-0.63448095
21	0xbec8a1b1	-0.3918586
22	0x3ea3eee6	0.32018203
23	0xbcf54973	-0.02994225
24	0xbefec887	-0.49762365
25	0xbd4172ac	-0.0472285
26	0xbe344436	-0.17604145
27	0xba805090	-0.0009789634
28	0xbe317352	-0.17329147
29	0xbd298f3b	-0.04139636
30	0xbd765cdd	-0.060147155
31	0x3ed25bd9	0.410857
32	0x3cb5dd88	0.02220036
33	0x3e8540ae	0.2602591
34	0x3c8bbfb8	0.017059192
35	0x3cca4db7	0.02469526
36	0xbe93c915	-0.2886435
37	0xbd2614f7	-0.040547337
38	0xbe550457	-0.20802437
39	0x3e42c802	0.1902161
40	0xbe7c284a	-0.24624744
41	0xbe2c0bf0	-0.16801429
42	0x3ec0fbd9	0.37692145
43	0xbc9c1000	-0.019050598
44	0xbcfa7d21	-0.030577244
45	0xbc09c6a1	-0.008409173
46	0x3e9655e3	0.293624
47	0xbf2f6b83	-0.68523425
48	0xbcb17af6	-0.021665078
49	0xbef89eef	-0.48558757
50	0xbed36747	-0.41289732
51	0x3e8b58fd	0.2721633
52	0xbe2ae7a8	-0.16689932
53	0xbeaa06be	-0.3320827
54	0x3d8f5196	0.06997983
55	0x3e33dcb7	0.17564665
56	0xbebc4f9b	-0.36779484
57	0x3efcd2c6	0.49379557
58	0x3eabe20b	0.33570895
59	0xbdbcfdc4	-0.092280895
60	0x3e084ca6	0.13310489
61	0xbe5ffb74	-0.21873266
62	0x3e74b767	0.23898087
63	0xbd911025	-0.070831574
64	0x3d2ae484	0.041721836
65	0x3e5d9986	0.21640596
66	0x3e39f318	0.18159139
67	0xbb1f7349	-0.002433019
68	0xbf13674b	-0.5757949
69	0xbe813426	-0.252351
70	0x3dbac4b2	0.09119548
71	0xbea5eae6	-0.32405776
72	0x3ef0f5de	0.47062582
73	0xbc1ae380	-0.009453654
74	0xbda818b5	-0.082078375
75	0xbe889232	-0.26674038
76	0xbd67debe	-0.056608908
77	0xbdb5ecf8	-0.08883089
78	0xbe1fcf66	-0.1560646
79	0x3d363b19	0.044489954
80	0x3df3646c	0.11884388
81	0xbde1817f	-0.110110275
82	0xbf25cc53	-0.647649
83	0x3e7529b7	0.23941694
84	0xbe977a9e	-0.29585737
85	0xbf11fc58	-0.5702567
86	0x3e472f1e	0.19451568
87	0xbde65a74	-0.11247721
88	0x3d30f541	0.043202642
89	0xbe1c603d	-0.15271087
90	0x3d61a10e	0.055085234
91	0xbed11a22	-0.4084025
92	0xbe22fc82	-0.15916637
93	0x3d41d8c4	0.047325864
94	0x3e896416	0.26834172
95	0x3dd59052	0.104279175
96	0x3df46435	0.119331755
97	0x3e03bded	0.1286542
98	0xbec0a032	-0.3762222
99	0xbd6b901d	-0.057510484
100	0xbc9556bb	-0.018229833
101	0x3ec4c43f	0.38430974
102	0xbe8f4edc	-0.27989852
103	0x3e487da4	0.19579178
104	0x3df74a92	0.1207477
105	0x3e5c15f1	0.21492745
106	0xbeaa5dbf	-0.33274648
107	0x3e868dea	0.26280147
108	0xbe246bf8	-0.16056812
109	0xbe3cca7b	-0.18436615
110	0x3ebca761	0.3684645
111	0x3ce05cfb	0.027388087
112	0x3dabb740	0.083845615
113	0x3daa0588	0.08301836
114	0x3e401609	0.18758406
115	0xbf10c8c4	-0.56556344
116	0x3e5e1fc8	0.21691811
117	0x3e45b809	0.19308485
118	0xbc49d9ee	-0.012320025
119	0xbebc23e0	-0.3674612
120	0xbdbb036f	-0.09131514
121	0x3c819b11	0.015821012
122	0xbd88224b	-0.06647166
123	0xbd887537	-0.06662982
124	0x3e9c825f	0.30568215
125	0x3f0b6a59	0.5445915
126	0x3de4ab8e	0.11165534
127	0x3dfd770d	0.12376223
128	0x3eb11268	0.34584355
129	0xbd9105e6	-0.07081203
130	0xbe9136a5	-0.28362003
131	0x3e743d51	0.23851515
132	0xbe5eb718	-0.21749532
133	0xbe6280b2	-0.22119406
134	0x3d09d410	0.033649504
135	0x3e5e4cf5	0.21709044
136	0x3f0712ff	0.5276336
137	0x3d4f9010	0.050674498
138	0x3e2bf85d	0.16793962
139	0xbe396614	-0.18105346
140	0xbe9e57c8	-0.30926347
141	0x3d140e8c	0.036146685
142	0xbe867f3b	-0.26268944
143	0x3e8c7d4d	0.27439347
144	0xbd98ac09	-0.07454688
145	0x3db1439d	0.08655474
146	0x3b9c4593	0.004769036
147	0xbee24598	-0.4419372
148	0xbe22d6c3	-0.15902238
149	0xbe84ecea	-0.25962
150	0x3e463649	0.19356646
151	0x3e5fb589	0.21846594
152	0x3e7937fc	0.24337763
153	0x3e20e066	0.15710601
154	0x3d0b261d	0.033971895
155	0xbd974c3a	-0.07387586
156	0xbde84be3	-0.11342599
157	0xbef4b1c5	-0.47791877
158	0xbe6a31af	-0.22870515
159	0x3e90894a	0.28229743
160	0x3e337de2	0.17528489
161	0xbdebdf22	-0.115171686
162	0xbe1d6935	-0.15372165
163	0xbe759a4d	-0.23984642
164	0x3e9c5fad	0.30541745
165	0xbe3df85b	-0.18551771
166	0x3dcc70e8	0.09982473
167	0x3d9ccdcb	0.076564394
168	0x3e72dfdb	0.23718207
169	0xbe3925fc	-0.18080896
170	0x3d2d935a	0.042376854
171	0x3e040400	0.12892151
172	0xbe07ba73	-0.13254718
173	0x3efdb2d4	0.49550498
174	0x3e67b0e0	0.22626066
175	0x3ed70ea3	0.42003354
176	0xbe884127	-0.26612207
177	0x3d97c51f	0.07410645
178	0x3f07fbab	0.5311839
179	0x3e4601f9	0.1933669
180	0x3eb437e1	0.35198882
181	0xbcd701af	-0.02624592
182	0xbe06a6d7	-0.13149582
183	0xbee34204	-0.44386303
184	0xbde5423b	-0.11194273
185	0xbeaed8e9	-0.34149864
186	0x3d201bfa	0.03908918
187	0xbe2a6641	-0.1664057
188	0x3b2600c9	0.0025330058
189	0x3e04d0c6	0.12970266
190	0xbcc6861f	-0.024233876
191	0x3ea12d58	0.31479907
192	0x3e41cb54	0.1892522
193	0xbe976a6f	-0.2957339
194	0xbd2f102f	-0.042740043
195	0x3e9b286e	0.30304283
196	0x3dc2433b	0.094854794
197	0x3e542edb	0.20720999
198	0xbdd9597f	-0.10612773
199	0xbe975146	-0.29554194
200	0xbd6900aa	-0.0568854
201	0xbf4e8219	-0.80667263
202	0xbf13ef70	-0.5778723
203	0x3e9fbe3b	0.31199822
204	0xbeaae358	-0.33376575
205	0x3e05245c	0.13002151
206	0x3e3b72ba	0.18305483
207	0x3e4e4020	0.20141649
208	0x3dc3df56	0.09564082
209	0x3e286db3	0.16448097
210	0xbe70e2f3	-0.23524074
211	0xbe7d5817	-0.24740635
212	0xbe2bda44	-0.1678248
213	0xbd0aafcf	-0.03385907
214	0x3d9020e9	0.07037527
215	0xbd805ff0	-0.062682986
216	0xbde1397f	-0.10997295
217	0xbe0f5d15	-0.14000352
218	0x3eaad62e	0.3336653
219	0xbefdbdfe	-0.49559015
220	0x3e01f47d	0.12690921
221	0x3df52aad	0.119710304
222	0xbe1a552c	-0.15071553
223	0xbef024ad	-0.4690298
224	0x3f03fc2c	0.5155666
225	0x3e291a33	0.165139
226	0xbe4cbcf4	-0.19993955
227	0x3e0ca7b2	0.13735846
228	0xbe011241	-0.1260462
229	0x3e17b810	0.14816308
230	0xbe58913e	-0.21149155
231	0x3ee334b2	0.4437614
232	0x3ec6bf06	0.38817614
233	0x3d17c60d	0.03705411
234	0xbd6abbe6	-0.0573081
235	0x3c934f1b	0.017982056
236	0xbe63af42	-0.22234824
237	0xbea81c32	-0.3283401
238	0xbe3e2731	-0.18569638
239	0xbe1063c3	-0.14100556
240	0x3d67c9f7	0.056589093
241	0x3e83896c	0.25690782
242	0x3e42ba18	0.19016302
243	0x3e35f681	0.17769815
244	0xbe28f55e	-0.1649985
245	0xbd198956	-0.03748449
246	0x3da5bbf2	0.08092488
247	0x3ea3349c	0.31876075
248	0xbe87d1ff	-0.26527402
249	0x3d557ea0	0.052122712
250	0x3e7176b6	0.23580441
251	0xbe9dc42a	-0.30813724
252	0x3e6d6077	0.2318133
253	0xbf148138	-0.5800967
254	0x3e8086d0	0.25102854
255	0xbe1c3c0d	-0.15257283

encoder.1.0.bias f4 [64]
0	0x3e511bae	0.20420715
1	0x3d813955	0.06309763
2	0x3eaa8334	0.33303225
3	0xbe1a1b56	-0.1504949
4	0xbdbe60a2	-0.09295775
5	0xbd0db035	-0.034591872
6	0x3dd3df6f	0.10345351
7	0x3ebce8ac	0.36896265
8	0xbe27e946	-0.1639758
9	0x3e71f5ba	0.23628893
10	0x3d755727	0.059897568
11	0xbe3191f6	-0.17340836
12	0x3dc474b8	0.09592575
13	0x3e0e5152	0.13898209
14	0x3df293b9	0.11844582
15	0xbe494518	-0.19655263
16	0xbb01df77	-0.0019817033
17	0xbddf314c	-0.108980745
18	0x3d68f569	0.056874666
19	0xbe30013f	-0.17187975
20	0xbeaf28a1	-0.34210685
21	0x3ddff714	0.10935798
22	0xbd240892	-0.040047236
23	0xbea24983	-0.3169671
24	0x3e81c654	0.25346625
25	0xbc83e818	-0.016101882
26	0xbe5f9e17	-0.2183765
27	0xbea2632f	-0.31716296
28	0x3e8ed847	0.27899382
29	0x3ee1be4e	0.44090503
30	0xbdd650fa	-0.10464664
31	0x3db6dd05	0.08928875
32	0xbc22ed8e	-0.009944333
33	0xbbb34838	-0.0054712556
34	0x3e136282	0.14393046
35	0x3e072275	0.13196738
36	0x3bc779ed	0.0060875327
37	0xbdb0b14d	-0.086275674
38	0xbf044f1f	-0.5168323
39	0xbeca9716	-0.39568394
40	0x3ea62d19	0.32456282
41	0xbeae2127	-0.34009668
42	0x3e2d6f39	0.1693696
43	0xbe5e9a79	-0.21738614
44	0xbd23a633	-0.03995342
45	0x3c0ee069	0.008720496
46	0x3e586319	0.21131553
47	0x3d40d3c7	0.047076967
48	0xbe543913	-0.20724897
49	0x3d7d09fa	0.061777093
50	0xbdd1afc9	-0.102386065
51	0x3d3a3d5e	0.04546868
52	0xbe9315b2	-0.2872749
53	0xbe0d3164	-0.13788372
54	0x3c57c0b4	0.013168503
55	0x3d411de5	0.04714765
56	0x3e9f4419	0.31106642
57	0x3ef21aa4	0.4728595
58	0x3deaddc0	0.11468077
59	0x3e842a98	0.25813746
60	0x3ec25950	0.37958765
61	0x3eb8b5fb	0.3607634
62	0x3e3fc61d	0.18727918
63	0x3e6f2710	0.23354745

encoder.1.1.weight f4 [64]
0	0x3f817224	1.0112958
1	0x3f458012	0.77148545
2	0x3f8577b9	1.0427161
3	0x3f8c7693	1.0973686
4	0x3f973d99	1.1815673
5	0x3f6c3b76	0.9227823
6	0x3fbf3a20	1.4939613
7	0x3f51abd3	0.8190281
8	0x3f99b904	1.2009587
9	0x3f635da6	0.8881477
10	0x3f7c2f05	0.98509246
11	0x3f7d9162	0.9904996
12	0x3f5ca558	0.86189795
13	0x3f5efba2	0.8710271
14	0x3f6b2038	0.91846037
15	0x3f5de3a5	0.86675483
16	0x3f3eae98	0.7448516
17	0x3f705250	0.938756
18	0x3f5bc9c0	0.8585472
19	0x3f6d7fe3	0.92773265
20	0x3f847b27	1.0350083
21	0x3f61f480	0.882637
22	0x3f6044c1	0.8760491
23	0x3f9b2a86	1.2122352
24	0x3f61f690	0.8826685
25	0x3f626c23	0.88446254
26	0x3f6f670e	0.93516624
27	0x3f7a9edc	0.9789865
28	0x3f8037bb	1.0017008
29	0x3f944071	1.1582166
30	0x3f847a80	1.0349884
31	0x3f526034	0.82178044
32	0x3f39e97a	0.7262188
33	0x3f8969c6	1.0735404
34	0x3f60b55d	0.8777674
35	0x3f5d4861	0.86438566
36	0x3f7f1160	0.9963589
37	0x3f5d3cce	0.86420906
38	0x3f747ec4	0.9550593
39	0x3f64a0c8	0.8930783
40	0x3f6410ed	0.89088327
41	0x3f910d01	1.1332093
42	0x3f822095	1.0166193
43	0x3f881c37	1.063361
44	0x3f89f78f	1.0778674
45	0x3f6cc987	0.92495006
46	0x3f61bfcb	0.8818328
47	0x3f6e0bf6	0.92987
48	0x3f77f05e	0.96851146
49	0x3f88b5e2	1.0680506
50	0x3f755381	0.9583054
51	0x3f46c84c	0.7764938
52	0x3f34cd2b	0.7062556
53	0x3f82ca2c	1.0217948
54	0x3f850693	1.0392631
55	0x3f5105c4	0.8164942
56	0x3f57bc41	0.8427163
57	0x3f6a483e	0.9151648
58	0x3f94381f	1.1579627
59	0x3f7723d5	0.9653905
60	0x3f4e4ec3	0.8058893
61	0x3f60180c	0.8753669
62	0x3f7485c2	0.955166
63	0x3f9aea64	1.210278

encoder.1.1.bias f4 [64]
0	0x3d3c52e3	0.045977484
1	0x3e3b6a83	0.1830235
2	0xbd6b341f	-0.057422753
3	0xbd563363	-0.0522951
4	0xbf2d2167	-0.6762909
5	0x3e0a237e	0.13490102
6	0x3c80e112	0.015732322
7	0x3ab2e273	0.0013647809
8	0xbe323493	-0.17402868
9	0xbdeef061	-0.116669424
10	0xbe4b5634	-0.19857103
11	0xbb7872b5	-0.0037910168
12	0x3d92f308	0.07175261
13	0x3decf983	0.11571028
14	0xbd2af74a	-0.04173974
15	0x3c9a56fd	0.018840307
16	0xbd9ead30	-0.07747877
17	0xbdd95221	-0.10611368
18	0xbd10c848	-0.035347253
19	0xbe191c7d	-0.14952274
20	0x3e4b00a9	0.1982447
21	0x3d05772c	0.032584354
22	0xbe39c127	-0.18140088
23	0x3e176700	0.14785385
24	0xbe35a47a	-0.17738524
25	0x3e3c468f	0.18386291
26	0xbd1f8ff1	-0.038955633
27	0x3ea8d107	0.32971975
28	0xbcf1d946	-0.02952255
29	0xbe264965	-0.16238935
30	0x3eabbfcc	0.33544767
31	0xbcb3970d	-0.021922613
32	0x3d97afbf	0.07406568
33	0xbe8ef14b	-0.27918467
34	0x3e961b0f	0.2931752
35	0x3c979dbd	0.018507833
36	0x3ddccd1e	0.107813105
37	0x3ea33f11	0.31884053
38	0xbdf8f301	-0.12155724
39	0x3e30ad0f	0.17253517
40	0x3e000c5b	0.12504713
41	0xbb9b7e19	-0.0047452566
42	0xbcbe43a2	-0.02322561
43	0xbe374acb	-0.17899625
44	0x3dd22019	0.102600284
45	0x3bbfd5f3	0.005854362
46	0xbde0fe7a	-0.109860376
47	0x3e04ac6c	0.12956399
48	0xbe016d8b	-0.12639444
49	0x3d28de2c	0.041227505
50	0x3ca42fea	0.020042378
51	0x3e1e8f2d	0.15484305
52	0xbd421d90	-0.047391474
53	0x3e0cc3ac	0.13746518
54	0x3cfd3d1c	0.030912928
55	0xbdb5a176	-0.08868687
56	0xbe9d292f	-0.30695483
57	0x3e0db798	0.13839567
58	0xbe4c8278	-0.19971645
59	0xbe9a6dc7	-0.30161878
60	0x3e159fcb	0.14611737
61	0x3e446f3a	0.19183055
62	0x3e2c1d17	0.16807972
63	0xbdf2848a	-0.11841686

encoder.1.1.running_mean f4 [64]
0	0xbf21c46a	-0.6319033
1	0xbf278b24	-0.65446687
2	0xbc463ed9	-0.012099945
3	0x3d9c5711	0.07633794
4	0x3ed909d6	0.42390317
5	0x3e9c92bf	0.30580708
6	0xbf6a60e2	-0.9155408
7	0x3eebe88d	0.4607586
8	0x3edaef70	0.427608
9	0x3f85f43b	1.0465158
10	0x3f5b7eec	0.8574054
11	0xbfe03ad7	-1.7517956
12	0xbf721fff	-0.9458007
13	0xbd87351a	-0.06601925
14	0x3ed84c21	0.42245582
15	0xbf2b5b2b	-0.66935986
16	0xbe7076a5	-0.2348276
17	0x3e8cc12f	0.27491137
18	0xbf3698f9	-0.7132717
19	0x3ec78cc7	0.38974592
20	0x3f3e0478	0.7422557
21	0x3f4e758e	0.80648124
22	0xbe000287	-0.12500964
23	0xbf17f854	-0.59363294
24	0xbd269169	-0.040666018
25	0xbe255e97	-0.16149364
26	0xbe84f5df	-0.25968835
27	0xbe6a4614	-0.22878295
28	0xbf51f557	-0.82014984
29	0x3e9ccb11	0.30623677
30	0xbf59a25e	-0.8501338
31	0x3f08135b	0.53154534
32	0xbf484849	-0.782353
33	0xbe32d9bb	-0.1746587
34	0xbf697bfd	-0.91204816
35	0xbf632ca8	-0.88740015
36	0x3f20ae79	0.62766224
37	0x3f1970c4	0.5993769
38	0x3eacbf57	0.3373973
39	0xbea1c7e2	-0.3159781
40	0x3f2f7e26	0.6855186
41	0xbfab4193	-1.3379387
42	0x3f091b96	0.5355772
43	0x3dd60957	0.10451
44	0xbf24c7b7	-0.6436724
45	0x3e34b00b	0.1764528
46	0x3e83bef9	0.25731638
47	0x3eacba50	0.33735895
48	0x3ece7c27	0.40329096
49	0xbf87dd6e	-1.061445
50	0x3f252837	0.6451449
51	0x3f312a95	0.692056
52	0x3f8331ec	1.024961
53	0xbf1ba837	-0.6080355
54	0xbf4cc7c0	-0.79992294
55	0x3ed2275b	0.4104565
56	0x3f17e38e	0.59331596
57	0x3fa4a94f	1.2864169
58	0x3eb354ba	0.3502558
59	0x3f4308d1	0.7618533
60	0xbec23142	-0.37928206
61	0xbef834e0	-0.4847784
62	0x3e91525d	0.2838315
63	0xbe21aecf	-0.1578934

encoder.1.1.running_var f4 [64]
0	0x3f601133	0.87526244
1	0x3f69800c	0.9121101
2	0x3faa9f8d	1.3329941
3	0x3f951841	1.1648027
4	0x3f7858f3	0.97010726
5	0x3f1bc1ad	0.608424
6	0x3fda32a6	1.7046707
7	0x3f139e77	0.57663673
8	0x3f24cfe0	0.6437969
9	0x3f1e3623	0.61801356
10	0x3ff5a45f	1.9190787
11	0x3f9505f0	1.1642437
12	0x3f7758e2	0.9662
13	0x3f1f6f24	0.6227896
14	0x3f88602f	1.0654353
15	0x3f65c0ca	0.897473
16	0x3f02e69d	0.5113314
17	0x3f370bb1	0.71502215
18	0x3f551282	0.83231366
19	0x3f7309ac	0.94936633
20	0x3fa2b77f	1.2712249
21	0x3ff3fd5c	1.9061694
22	0x3f0ca352	0.5493671
23	0x3fd04ea8	1.6274004
24	0x3f002a83	0.5006487
25	0x3f53ce37	0.82736534
26	0x3f76a260	0.96341515
27	0x3f897c2f	1.0741023
28	0x3f2beb30	0.6715574
29	0x3fdb119a	1.7114747
30	0x3fbb2dc5	1.4623343
31	0x3f2e413e	0.680683
32	0x3f1fc1c9	0.6240507
33	0x3f0f379f	0.55944246
34	0x3f11b1d4	0.5691197
35	0x3f3bcfeb	0.7336413
36	0x3fd41a28	1.6570482
37	0x3f561814	0.8363049
38	0x3f27410e	0.6533364
39	0x3fb4ddd4	1.4130197
40	0x3f49cd36	0.7882875
41	0x3f7f12c9	0.9963804
42	0x3fad4beb	1.3538793
43	0x3f6a41da	0.9150673
44	0x3fb8eb43	1.4446796
45	0x3f58dd91	0.84713084
46	0x3f4a959e	0.7913455
47	0x3f708aa2	0.93961537
48	0x3f2251d4	0.6340611
49	0x3f7d3bb4	0.98919225
50	0x3fb7d532	1.4361937
51	0x3f275b76	0.65373933
52	0x3ea1e1cc	0.31617582
53	0x3fc5ec47	1.5462731
54	0x3fbc5aa6	1.4715164
55	0x3ee8407d	0.453617
56	0x3f270827	0.65246814
57	0x3f9f9288	1.2466593
58	0x3f9d0138	1.2265997
59	0x3eef9bf0	0.46798658
60	0x3f4140e4	0.7548964
61	0x3f69ecc1	0.9137688
62	0x3f8234ac	1.0172324
63	0x3fa285ec	1.269712

encoder.2.0.weight f4 [128, 64]
0	0xbd3500fd	-0.044190396
1	0xbd4d477e	-0.05011701
2	0x3e0d8116	0.13818774
3	0xbe27aabd	-0.16373725
4	0xbddd9225	-0.108188905
5	0xbe60db54	-0.21958667
6	0x3d268074	0.040649846
7	0x3e2e4816	0.17019686
8	0xbd29a809	-0.041420016
9	0x3c4e6108	0.012596376
10	0x3d5b5fe5	0.05355825
11	0xbe3e0b0a	-0.18558899
12	0xbe117014	-0.1420291
13	0x3e9f894c	0.31159437
14	0x3c07cc60	0.008288473
15	0x3db7d8af	0.08976876
16	0x3e46b9cd	0.19406815
17	0x3f070964	0.52748704
18	0x3e44ae3c	0.1920709
19	0xbea3db49	-0.3200324
20	0x3e10093c	0.14066023
21	0xbe288c28	-0.16459715
22	0x3e5b2d20	0.21403933
23	0x3e9a69b0	0.30158758
24	0xbe147f99	-0.145018
25	0xbdef1509	-0.11673934
26	0x3b4e8d1a	0.0031517209
27	0xbe805bd4	-0.2507006
28	0x3e146863	0.14492945
29	0xbf33c5f4	-0.7022393
30	0x3caf2114	0.021378078
31	0x3e037152	0.12836197
32	0x3bb78c1e	0.00560142
33	0xbe6ac4c6	-0.22926626
34	0x3e8170d8	0.25281405
35	0x3ebc389a	0.36761934
36	0xbe41746f	-0.18892072
37	0xbdb79fa5	-0.08965997
38	0xbc883346	-0.016626012
39	0x3ecd2c49	0.4007285
40	0xbee304aa	-0.44339496
41	0x3d446c16	0.04795464
42	0x3dde3b1c	0.10851118
43	0x3dfe1cda	0.12407847
44	0xbc5cf4b7	-0.013486079
45	0x3e7ed395	0.248854
46	0x3c15c4fb	0.009141202
47	0x3f133df7	0.57516426
48	0xbede01e3	-0.43360814
49	0x3e22d047	0.15899764
50	0xbd95d39c	-0.07315752
51	0x3de136b0	0.10996759
52	0xbe6e7ae6	-0.2328907
53	0xbd63e781	-0.0556407
54	0x3dcb7a6c	0.099354595
55	0x3da94d2f	0.08266675
56	0x3e2ca6cf	0.16860507
57	0xbd6476c7	-0.055777337
58	0xbd872c85	-0.06600288
59	0xbe108c43	-0.14116006
60	0xbce953b8	-0.028482303
61	0xbe1475f7	-0.14498125
62	0x3e480a7a	0.19535246
63	0xbf3c559a	-0.7356812
64	0x3d0dcab1	0.03461713
65	0x3c8bd429	0.01706894
66	0xbcb18ebe	-0.02167451
67	0x3e00e820	0.12588549
68	0x3e732978	0.23746288
69	0xbd6f61b8	-0.0584428
70	0xbee3c4be	-0.4448604
71	0xbe5bc6b3	-0.21462516
72	0x3e304660	0.17214346
73	0xbb8efff1	-0.0043640067
74	0x3eeafd07	0.4589617
75	0x3d0882b2	0.033327766
76	0x3d94ed1d	0.07271788
77	0xbdeaa60a	-0.11457451
78	0xbd523ae1	-0.051325683
79	0x3e8d4d65	0.2759811
80	0xbde76e65	-0.11300353
81	0xbedd7e02	-0.432602
82	0x3ed4d4f0	0.41568708
83	0xbee89f9c	-0.45434272
84	0xbdb196a1	-0.08671308
85	0x3e5fc62e	0.21852943
86	0x3dd59cfc	0.10430333
87	0x3ec9d041	0.39416698
88	0xbe600dc1	-0.21880247
89	0xbd951fea	-0.07281478
90	0x3f1c0a95	0.60953647
91	0x3e14c4a9	0.14528145
92	0x3dac7726	0.08421163
93	0xbe3e703e	-0.18597504
94	0xbd3da171	-0.04629654
95	0x3e486c91	0.19572665
96	0xbe4a52c9	-0.19758143
97	0x3e1f51d2	0.15558556
98	0x3e0c8e71	0.13726212
99	0x3d6b13d8	0.05739197
100	0x3d4647a5	0.04840817
101	0xbec5da46	-0.38643092
102	0x3d1f3056	0.038864456
103	0xbce89137	-0.028389556
104	0x3e9415ce	0.28922886
105	0xbdf4ad0b	-0.11947068
106	0x3eb1d165	0.34730068
107	0x3c5c0a65	0.013430213
108	0x3ecd5f73	0.40111884
109	0xbed1d90f	-0.40985915
110	0xbf12f9b8	-0.5741229
111	0x3e063613	0.13106565
112	0x3dd12bea	0.10213454
113	0xbe3c1c77	-0.18370233
114	0xbc02bff0	-0.007980332
115	0x3e65bbdf	0.22434948
116	0xbe533d4e	-0.20628855
117	0x3ebd5d68	0.36985326
118	0x3e33b3aa	0.17549005
119	0x3e93280e	0.28741497
120	0x3d4fe8bf	0.050759073
121	0xbdb46b92	-0.0880958
122	0x3e84fa8d	0.25972405
123	0xbec14a31	-0.37751916
124	0xbd34781a	-0.04405985
125	0xbe7f6194	-0.24939567
126	0x3d3b9005	0.045791645
127	0xbcc47486	-0.023981344
128	0x3e850089	0.2597697
129	0xbdfb3cd8	-0.122674644
130	0x3edcbe8f	0.43114135
131	0xbf08ae7b	-0.53391236
132	0xbcb3a758	-0.021930382
133	0x3e9c74e2	0.30557925
134	0x3d676c4f	0.056499775
135	0x3df1f420	0.11814141
136	0x3d43f6a2	0.04784263
137	0xbe0d485d	-0.13797136
138	0xbd9c1bb0	-0.076224685
139	0xbef6397c	-0.48090732
140	0xbe9b6d8b	-0.30357012
141	0x3df952d6	0.12174003
142	0xbe1045bb	-0.140891
143	0xbe686e13	-0.2269824
144	0x3ebe43ad	0.37161008
145	0xbd5871a1	-0.05284274
146	0xbdaf692a	-0.0856498
147	0x3e0c5e63	0.1370788
148	0xbdf749c3	-0.12074616
149	0xbf03643a	-0.5132481
150	0xbe522281	-0.20520975
151	0xbe7e470f	-0.24831794
152	0xbda0a05a	-0.07843085
153	0x3db5243c	0.08844802
154	0xbd71cea1	-0.059034947
155	0xbb55ddd0	-0.0032633431
156	0xbf0b4bdc	-0.5441263
157	0x3da43d99	0.08019561
158	0xbc18924e	-0.0093122255
159	0x3d4a8103	0.04943944
160	0x3e6eea7c	0.23331636
161	0xbf0e7c75	-0.55658656
162	0x3dff0cce	0.12453614
163	0xbd9b0fee	-0.07571398
164	0xbbafb2ae	-0.0053618765
165	0x3c97e8bd	0.018543595
166	0xbe55dca1	-0.20884944
167	0x3e0362a8	0.12830603
168	0x3e9f0f51	0.31066373
169	0x3ec3fefb	0.38280472
170	0x3df1a3ca	0.117988184
171	0xbe57003c	-0.20996183
172	0x3df41e6d	0.11919866
173	0x3dd2cd87	0.102931075
174	0x3c7e3b1a	0.015517021
175	0x3e7decd9	0.24797381
176	0xbe89d374	-0.26919138
177	0xbec17e1b	-0.37791523
178	0xbd8d07a8	-0.06886226
179	0xbe96f9a3	-0.29487333
180	0x3e2b43bc	0.16725057
181	0x3e5c2b6c	0.21500939
182	0xbdd43207	-0.103611045
183	0x3ea4cb40	0.32186317
184	0x3e6316b9	0.22176637
185	0x3ecbb3e0	0.3978567
186	0xbe8d4703	-0.2759324
187	0xbe021e01	-0.12706758
188	0xbe04754f	-0.12935375
189	0xbefdc5cd	-0.49564973
190	0xbd5cd0bc	-0.053910002
191	0x3cdaf941	0.026730182
192	0x3da096e0	0.07841277
193	0x3e25b998	0.1618408
194	0xbc86bfaa	-0.016448814
195	0x3e39d62d	0.18148108
196	0xbe26b9d8	-0.16281831
197	0x3e912435	0.28347936
198	0xbed3fc62	-0.4140349
199	0x3dabb9ef	0.083850734
200	0x3e4449d2	0.19168785
201	0x3f013f1d	0.5048693
202	0x3dfa3b8b	0.12218388
203	0x3e3dbd9f	0.18529366
204	0xbe81f8a1	-0.25385
205	0x3cd2b036	0.02571879
206	0x3d60ae77	0.054853883
207	0xbe61b96f	-0.22043394
208	0x3de9df0e	0.114194974
209	0x3de67332	0.112524405
210	0xbd454216	-0.048158728
211	0xbbd9db63	-0.0066484674
212	0xbe078eb0	-0.13238025
213	0x3e8dcd71	0.27695802
214	0x3e6b3513	0.22969465
215	0x3eb7e90c	0.35919988
216	0xbedb90b1	-0.42883828
217	0x3e88316d	0.2660021
218	0x3cbdc5d1	0.023165615
219	0xbe59ce4d	-0.21270104
220	0x3d32483d	0.043525923
221	0xbecdfa35	-0.40229955
222	0xbb893f8a	-0.0041884826
223	0x3e993091	0.29919866
224	0xbdde9399	-0.10867996
225	0x3e8d5b93	0.27608928
226	0x3e8bea31	0.2732711
227	0x3eb617c7	0.35565016
228	0x3e696bbe	0.22795007
229	0x3dbf12b7	0.093297414
230	0xbda44a03	-0.08021929
231	0x3dfaf6ad	0.12254081
232	0x3e8b72c8	0.2723601
233	0xbf37e674	-0.7183602
234	0xbded98af	-0.11601388
235	0xbe11c1e4	-0.1423412
236	0x3d54bfa2	0.051940568
237	0xbebd7b45	-0.3700811
238	0xbf3049c5	-0.68862563
239	0x3bec08fe	0.0072032204
240	0xbd7baaaa	-0.061442055
241	0xbeaec4e0	-0.3413458
242	0xbde7f8a6	-0.11326723
243	0x3d9e7f6f	0.0773915
244	0x3e3d87ee	0.18508884
245	0xbd5fa41e	-0.054599874
246	0x3cb6693e	0.02226698
247	0xbe083808	-0.13302624
248	0xbdc245fd	-0.094860055
249	0xbdaf5b91	-0.08562387
250	0xbd180731	-0.037116233
251	0x3e83bafd	0.25728598
252	0x3d87d640	0.06632662
253	0x3f004207	0.5010075
254	0x3d85b9df	0.06529593
255	0x3d59338e	0.053027682

encoder.2.0.bias f4 [128]
0	0xbda10be2	-0.078635946
1	0xbde6bd01	-0.112665184
2	0x3e716fa9	0.23577751
3	0xbe17b0c8	-0.1481353
4	0xbbc43bbf	-0.0059885676
5	0xbe69df12	-0.22839001
6	0x3dbc745d	0.09201882
7	0x3e3bce9d	0.18340535
8	0xbe1b3e86	-0.1516057
9	0x3e583d88	0.21117222
10	0x3e7fc5bb	0.24977772
11	0x3dd2256e	0.102610454
12	0xbdaff960	-0.085924864
13	0xbc849422	-0.016183916
14	0x3ddcea25	0.10786847
15	0x3dcc3b24	0.09972218
16	0x3e5eb74c	0.2174961
17	0x3db1ba65	0.0867813
18	0xbe8030a6	-0.25037116
19	0xbc971365	-0.018441865
20	0x3e0fa49b	0.14027636
21	0x3dad657f	0.084666245
22	0x3df6ba0c	0.120472044
23	0x3e037641	0.12838079
24	0x3d8e21e1	0.06940056
25	0x3eaa5549	0.33268192
26	0xbd905909	-0.07048232
27	0xbdc45218	-0.09585971
28	0x3de6a3d6	0.11261718
29	0x3d44bbc2	0.048030622
30	0xbd2989b1	-0.04139108
31	0x3e692552	0.22768143
32	0xbea4ec6f	-0.32211635
33	0xbd9ae41e	-0.07563041
34	0xbe93351a	-0.2875145
35	0xbe10ec62	-0.14152673
36	0xbd5412f9	-0.051775906
37	0xbd967ddd	-0.07348225
38	0xbd445f7a	-0.047942616
39	0x3e66615e	0.2249808
40	0x3ca8b1b1	0.020592542
41	0xbdd9f0ae	-0.10641609
42	0x3de6b2ae	0.11264549
43	0x3d866771	0.06562699
44	0x3d365397	0.04451331
45	0xbd02c922	-0.031930096
46	0x3e6bcf39	0.23028268
47	0xbdd4dcd8	-0.10393685
48	0xbe804866	-0.25055236
49	0xbea42b54	-0.32064307
50	0xbd08d55e	-0.033406608
51	0xbeb1f1b5	-0.3475472
52	0xbd03f351	-0.032214466
53	0xbe98d2f3	-0.2984844
54	0xbde67524	-0.112528116
55	0x3e63b9fb	0.22238915
56	0xbca69a69	-0.0203373
57	0x3cff86eb	0.031192264
58	0xbd9b617f	-0.07586955
59	0x3e9f99f9	0.3117216
60	0xbe65404f	-0.22387813
61	0xbbf44ecc	-0.0074556824
62	0xbdde1e88	-0.10845667
63	0xbddd85c5	-0.1081653
64	0xbc7e715b	-0.015529956
65	0xbdc535b9	-0.096293874
66	0xbb651c31	-0.003495943
67	0xbc98d76c	-0.018657409
68	0x3cae36e1	0.021266403
69	0xbcd1b639	-0.025599586
70	0x3e22b01e	0.15887496
71	0xbe3c6fa4	-0.18401963
72	0x3d509022	0.050918706
73	0x3d109360	0.035296798
74	0x3bfd3ee8	0.0077284463
75	0x3d0cbb2f	0.0343582
76	0x3c028aaa	0.00796763
77	0xbddba23a	-0.10724302
78	0xbd025848	-0.031822473
79	0x3d67fff6	0.056640588
80	0x3d469c9c	0.048489198
81	0x3e872576	0.26395768
82	0x3d1c129e	0.038103692
83	0xbdef740c	-0.11692056
84	0xbdba6499	-0.09101219
85	0x3e19b6dc	0.15011162
86	0x3e0ceea0	0.13762903
87	0xbdbffe52	-0.093746796
88	0xbdbf5a8d	-0.09343443
89	0xbbeb7187	-0.0071851644
90	0xbe25e97b	-0.16202347
91	0x3e696e08	0.2279588
92	0xbe6653fb	-0.22492974
93	0xba8f413f	-0.0010929479
94	0xbda24ef6	-0.07925217
95	0x3e14b7ed	0.14523287
96	0xbdac36b4	-0.08408871
97	0xbe536023	-0.20642142
98	0x3a0f25ac	0.00054606306
99	0x3dad6663	0.08466794
100	0x3e075e53	0.13219576
101	0xbd7ba09c	-0.061432466
102	0xbe1e2e14	-0.15447265
103	0x3e1c86b5	0.15285762
104	0xbd4013fe	-0.046894066
105	0x3de7c444	0.113167316
106	0xbe480a37	-0.19535147
107	0xbdfb5076	-0.12271206
108	0x3e4d9787	0.20077334
109	0x3e08ec55	0.13371404
110	0x3dbafe76	0.09130566
111	0xbd8dcb13	-0.06923499
112	0xbdf17193	-0.11789241
113	0x3e48184a	0.19540516
114	0x3c533185	0.012890224
115	0xbdc53142	-0.09628536
116	0x3d729503	0.05922414
117	0x3e0c806f	0.13720869
118	0x3e5623c8	0.20912087
119	0x3dfc0713	0.12306037
120	0xbd9306f5	-0.07179061
121	0xbdd6a5ac	-0.10480818
122	0xbe070242	-0.13184455
123	0x3deead05	0.116540946
124	0x3e662a0e	0.2247698
125	0x3b45555b	0.003011069
126	0xbe2697ea	-0.16268888
127	0x3e3d65cd	0.18495865

encoder.2.1.weight f4 [128]
0	0x3f9b2fc5	1.2123953
1	0x3f7285ed	0.94735605
2	0x3f919f31	1.1376706
3	0x3f8b1f22	1.0868876
4	0x3f9a0539	1.2032844
5	0x3f766560	0.96248436
6	0x3f8debb7	1.108756
7	0x3f9fca72	1.2483656
8	0x3f790348	0.9727063
9	0x3f9e5c84	1.2371984
10	0x3f87af0e	1.0600297
11	0x3f8b33b8	1.0875158
12	0x3f807033	1.003424
13	0x3f8bb0ed	1.0913368
14	0x3f957744	1.1677022
15	0x3f909b80	1.1297455
16	0x3fa04460	1.2520866
17	0x3f99fe5d	1.203075
18	0x3fac0aa5	1.3440748
19	0x3fa7056f	1.3048533
20	0x3fadd11d	1.3579441
21	0x3fad3b3e	1.3533704
22	0x3f8c2c28	1.0950975
23	0x3fa0ea0f	1.2571429
24	0x3f7fe894	0.9996426
25	0x3fa2a17e	1.2705534
26	0x3f890187	1.0703591
27	0x3f9fd6a1	1.2487375
28	0x3fa8085d	1.3127552
29	0x3f889168	1.0669374
30	0x3f9393b9	1.1529456
31	0x3fa5a794	1.2941766
32	0x3f9265d9	1.1437331
33	0x3f62992f	0.8851499
34	0x3f802bae	1.001333
35	0x3f924de1	1.1430017
36	0x3fa17d0d	1.2616287
37	0x3faf06bf	1.3673934
38	0x3f9096b4	1.1295991
39	0x3f9f353c	1.2438121
40	0x3f7e3880	0.9930496
41	0x3f895e62	1.0731928
42	0x3f9740d1	1.1816655
43	0x3f97fc23	1.1873821
44	0x3f8f3734	1.1188722
45	0x3f88b7fd	1.0681149
46	0x3f8c778a	1.097398
47	0x3faebefd	1.3652035
48	0x3f7bf41e	0.9841937
49	0x3f98ada2	1.1927989
50	0x3f9708e8	1.1799593
51	0x3f74ce2d	0.956271
52	0x3f8db099	1.1069518
53	0x3f96288d	1.1731125
54	0x3f8263aa	1.0186665
55	0x3f8e922f	1.1138362
56	0x3f807c06	1.0037849
57	0x3f8df668	1.1090822
58	0x3f743fa4	0.9540961
59	0x3fb7d439	1.436164
60	0x3f5efbee	0.87103164
61	0x3fac2b18	1.3450651
62	0x3f6f1506	0.93391454
63	0x3faca5f5	1.3488146
64	0x3fb27665	1.3942381
65	0x3fb77fff	1.4335936
66	0x3f6a7a2b	0.91592664
67	0x3f7d9856	0.9906057
68	0x3f8a9db6	1.082938
69	0x3f8864c7	1.0655755
70	0x3fb1f754	1.3903604
71	0x3f9f6c06	1.2454841
72	0x3f8eee07	1.116639
73	0x3f950b1e	1.1644018
74	0x3fa72c87	1.3060464
75	0x3f9a6698	1.2062559
76	0x3f9e3c4b	1.236215
77	0x3f8700d1	1.0547124
78	0x3f67bec1	0.9052544
79	0x3f83538b	1.025987
80	0x3fe6c6c4	1.8029408
81	0x3f9ad35f	1.2095755
82	0x3f86029c	1.0469546
83	0x3f898d1c	1.0746188
84	0x3f5ae4a8	0.8550515
85	0x3f9cd910	1.2253742
86	0x3f9322f4	1.1495042
87	0x3f781ff0	0.9692373
88	0x3fa30b1e	1.2737768
89	0x3f9ca7f8	1.223876
90	0x3f950433	1.1641906
91	0x3fb1cce7	1.3890656
92	0x3fa8da4c	1.3191619
93	0x3f9aa603	1.2081913
94	0x3fad56ad	1.3542076
95	0x3f8a20e2	1.0791285
96	0x3f8ece6b	1.1156744
97	0x3f9e73b1	1.2379056
98	0x3fa47b16	1.2850063
99	0x3f91063b	1.1330026
100	0x3f73834e	0.9512223
101	0x3f8b3ff2	1.087889
102	0x3f969c23	1.1766399
103	0x3f818be6	1.0120819
104	0x3f9fbf88	1.2480326
105	0x3f8686dd	1.0509907
106	0x3fa942de	1.3223531
107	0x3f954563	1.16618
108	0x3f8844af	1.064596
109	0x3f7aa220	0.97903633
110	0x3f80b038	1.0053778
111	0x3faf7a0c	1.3709121
112	0x3f8b7bde	1.0897176
113	0x3f6595af	0.89681524
114	0x3f8ddba1	1.108265
115	0x3f9a0f93	1.2036003
116	0x3f949c88	1.161027
117	0x3f6a6a68	0.91568613
118	0x3f9de908	1.233674
119	0x3f9c603f	1.2216872
120	0x3fa59e9b	1.2939028
121	0x3f89d820	1.0769081
122	0x3f8ffe6d	1.124952
123	0x3f85fdd5	1.0468088
124	0x3f7ca19c	0.98684096
125	0x3fbf64ba	1.4952614
126	0x3fa0fa5f	1.2576407
127	0x3fd2864b	1.6447233

encoder.2.1.bias f4 [128]
0	0xbe294e44	-0.16533762
1	0xbd7b2007	-0.06130984
2	0xbe24fcf3	-0.16112117
3	0x3d160ad2	0.036631413
4	0xbd0d7c8c	-0.034542605
5	0xbefacfed	-0.4898676
6	0xbe1b438d	-0.15162487
7	0xbf2a52dc	-0.66532683
8	0xbea4c153	-0.32178745
9	0xbe34637a	-0.17616072
10	0xbee3e37f	-0.44509503
11	0xbf15336e	-0.582816
12	0xbd202723	-0.039099824
13	0xbdfae244	-0.12250188
14	0xbe5d9be1	-0.21641494
15	0xbe93998f	-0.28828093
16	0xbf200419	-0.6250625
17	0xbd6c680b	-0.05771641
18	0x3db8f750	0.09031546
19	0xbd64cb69	-0.05585805
20	0xbf18e29d	-0.59720784
21	0xbe939e27	-0.28831598
22	0xbf24a34c	-0.6431167
23	0xbe62de1f	-0.22155045
24	0xbe898a49	-0.26863316
25	0xbd6d8ff6	-0.05799862
26	0xbed326ca	-0.4124053
27	0xbe414db7	-0.18877302
28	0xbf948467	-1.1602906
29	0xbebb34dd	-0.3656377
30	0xbe947d3c	-0.29001796
31	0xbe5d0d8b	-0.21587197
32	0xbf117503	-0.5681917
33	0xbea18307	-0.31545278
34	0xbe1edc9c	-0.15513843
35	0xbf47e08c	-0.78077006
36	0xbed88924	-0.4229213
37	0xbef5f824	-0.4804088
38	0xbe770492	-0.24122837
39	0x3d3158dd	0.043297637
40	0xbe946bd3	-0.28988513
41	0xbdc7ab38	-0.09749454
42	0xbeb96508	-0.36209893
43	0xbd96f7ca	-0.07371481
44	0xbebe5542	-0.37174422
45	0xbec041ef	-0.37550303
46	0x3dbed121	0.09317232
47	0xbedbade1	-0.42906097
48	0xbf2bd7cc	-0.67126155
49	0xbea5b63a	-0.3236559
50	0xbe2db579	-0.16963758
51	0xbeb76173	-0.35816535
52	0x3d23a864	0.03995551
53	0x3d10954f	0.03529864
54	0xbdcabbcc	-0.09899101
55	0xbddd56e5	-0.108075894
56	0xbebab788	-0.36468148
57	0x3e89e87e	0.2693519
58	0xbda59d77	-0.08086675
59	0xbe5054a0	-0.20344782
60	0xbdfee57f	-0.12446117
61	0xbb9c6e3f	-0.0047738845
62	0xbf0b40bb	-0.54395646
63	0xbf706f16	-0.93919504
64	0xbe79e016	-0.24401888
65	0xbf6a264c	-0.91464686
66	0xbe9d363e	-0.30705446
67	0xbe00382b	-0.12521426
68	0xbe4009b1	-0.18753697
69	0xbed2a9da	-0.4114521
70	0xbf5df862	-0.8670713
71	0xbed4a775	-0.4153401
72	0xbe64dd5c	-0.22350067
73	0xbdb60eae	-0.08889519
74	0xbeaef173	-0.34168586
75	0xbe4eed60	-0.20207739
76	0xbe03a151	-0.12854506
77	0xbea5e56e	-0.32401603
78	0xbe0f8af0	-0.14017844
79	0x3c4c10c2	0.012455167
80	0xbf754b4b	-0.9581801
81	0xbea9424b	-0.3305839
82	0xbeed8dd7	-0.46397278
83	0xbf13c08b	-0.5771567
84	0xbea2472c	-0.31694925
85	0xbeb47ef2	-0.35253102
86	0xbec38061	-0.38183883
87	0xbe1996eb	-0.14998977
88	0xbe23a3f7	-0.15980516
89	0xbf099e21	-0.5375691
90	0x3de60610	0.11231625
91	0xbe8f601d	-0.28003016
92	0xbe8e53c5	-0.27798286
93	0xbda86bc3	-0.08223679
94	0xbf1592e7	-0.5842728
95	0xbe34d45b	-0.17659132
96	0xbea196ab	-0.31560263
97	0xbd4cb3f0	-0.04997629
98	0xbecf8d05	-0.40537277
99	0xbed99fb8	-0.42504668
100	0xbd17e889	-0.037086997
101	0xbddb39e9	-0.10704405
102	0xbebe3d78	-0.37156272
103	0xbe7f47f1	-0.24929787
104	0xbef0d6b5	-0.47038808
105	0x3e0bcdf0	0.13652778
106	0xbea4d059	-0.32190207
107	0xbddba3b3	-0.107245825
108	0x3d2c4543	0.04205824
109	0x3e61a6c1	0.22036268
110	0xbd9632a5	-0.073338784
111	0xbedaeae9	-0.42757347
112	0xbc9d128c	-0.019173883
113	0xbf02e009	-0.511231
114	0xbebd9294	-0.37025893
115	0xbf430458	-0.76178503
116	0x3e3ece29	0.18633331
117	0xbf311bd5	-0.69183093
118	0xbd907df7	-0.07055276
119	0xbdc4ce93	-0.096097134
120	0xbf60e0f6	-0.87843263
121	0xbde7fed5	-0.11327902
122	0xbed9312b	-0.42420325
123	0x3dfe4d31	0.12417067
124	0xbc292fa2	-0.010326298
125	0xbe661953	-0.22470598
126	0xbeb6fbd4	-0.35739005
127	0xbe784c9b	-0.24247973

encoder.2.1.running_mean f4 [128]
0	0xbd8973b2	-0.0671152
1	0x3ea2a0bb	0.31763253
2	0xbe98d126	-0.29847068
3	0x3e05c2ec	0.13062638
4	0x3f861574	1.0475297
5	0x3ec5286a	0.38507396
6	0x3f22a990	0.6353998
7	0x3c881307	0.016610635
8	0x3e4e2753	0.20132188
9	0xbddbbc62	-0.107292905
10	0xbe54024e	-0.20704004
11	0xbeb6c572	-0.35697514
12	0xbd9de0f7	-0.07708924
13	0x3f247088	0.6423421
14	0xbe161f63	-0.1466041
15	0x3ed3234e	0.41237873
16	0xbebbb8b7	-0.36664364
17	0xbefaf43a	-0.49014455
18	0x3f28cfa5	0.6594184
19	0x3f801177	1.000533
20	0x3f1ad505	0.6048129
21	0x3f1a9adc	0.60392547
22	0x3ded8453	0.115975045
23	0x3f533762	0.8250638
24	0x3f85956f	1.0436229
25	0x3f067ce6	0.5253433
26	0xbc210bad	-0.009829444
27	0xbf691d0c	-0.91059947
28	0x3d95fe22	0.073238626
29	0x3e6532ab	0.2238261
30	0xbd1e5b21	-0.038661126
31	0x3e8eb2b5	0.27870718
32	0x3dae8117	0.08520716
33	0xbea97b00	-0.33101654
34	0xbe305be0	-0.17222548
35	0x3efc0cdf	0.4922857
36	0xbf7a6fc4	-0.9782679
37	0x3eba71a1	0.36414817
38	0x3eec63c2	0.4616986
39	0x3f2943ad	0.6611889
40	0xbeaf1afe	-0.3420028
41	0x3f2128cf	0.62952894
42	0xbf102cc2	-0.56318295
43	0x3ee894fc	0.45426166
44	0x3da886d9	0.08228845
45	0xbfaa7fb9	-1.3320228
46	0x3ed5e81f	0.41778657
47	0xbd175027	-0.036941674
48	0x3f87096a	1.0549748
49	0xbdcb6d95	-0.099330105
50	0x3efac8f2	0.48981434
51	0xbe2c84df	-0.16847561
52	0xbf94c544	-1.1622701
53	0xbe080ca7	-0.13286076
54	0xbf34ac70	-0.7057562
55	0xbeae8b7b	-0.3409079
56	0xbf7439aa	-0.9540049
57	0x3eaae114	0.33374846
58	0x3f898237	1.0742863
59	0x3fd49ae6	1.6609771
60	0xbed36180	-0.41285324
61	0xbde685f6	-0.1125602
62	0x3f97496e	1.1819284
63	0x3ed97a0a	0.4247592
64	0x3f450097	0.76954025
65	0xbe5b86d5	-0.21438153
66	0x3e86d686	0.26335543
67	0xbee23c45	-0.44186607
68	0x3ee311dd	0.44349566
69	0x3d9e6ef5	0.07736007
70	0xbf2f3543	-0.68440646
71	0x3df6031e	0.12012313
72	0x3f6d0f9d	0.9260195
73	0xbe89cbc0	-0.2691326
74	0x3f3725b4	0.71541905
75	0xbe5acabc	-0.213664
76	0xbe76f8f3	-0.24118404
77	0x3e947b91	0.29000524
78	0x3e018f6f	0.12652372
79	0xbf26a553	-0.65096015
80	0xbf5ab6b8	-0.85435057
81	0x3e5137b7	0.2043141
82	0x3dbc91b4	0.09207478
83	0xbf77aa2a	-0.96744025
84	0xbdf8aed8	-0.12142724
85	0x3e6b9a3a	0.23008052
86	0x3f723796	0.9461607
87	0x3f475095	0.77857333
88	0xbf157196	-0.58376443
89	0xbe9c8433	-0.3056961
90	0xbf1c5993	-0.6107418
91	0xbf619359	-0.8811546
92	0xbe8c19dc	-0.2736348
93	0x3f270fb2	0.65258324
94	0xbf2fa0bf	-0.68604654
95	0x3e363de8	0.17797053
96	0x3e81c873	0.25348243
97	0xbf40f4d0	-0.75373554
98	0x3e67a478	0.22621334
99	0x3f0c81eb	0.5488574
100	0xbe813b98	-0.2524078
101	0xbf910e74	-1.1332536
102	0x3f327122	0.69703877
103	0xbf07fc01	-0.531189
104	0x3f1b79cb	0.60732716
105	0x3f765780	0.96227264
106	0xbf307cbf	-0.6894035
107	0x3c6ec45a	0.014573181
108	0x3ed66ab0	0.4187827
109	0x3f5c17d9	0.8597389
110	0x3fdfb277	1.7476338
111	0x3f5618aa	0.83631384
112	0x3f3fb80f	0.74890226
113	0x3f343a49	0.70401436
114	0xbf0cb950	-0.54970264
115	0xbfabe19a	-1.3428223
116	0x3e990226	0.29884452
117	0x3e058d74	0.13042241
118	0x391a7e96	0.00014733741
119	0x3f701d88	0.9379506
120	0xbec2c3dd	-0.38040057
121	0xbef5be85	-0.47996917
122	0x3f6c867e	0.9239272
123	0x3f8db5f6	1.1071155
124	0x3f313a74	0.6922982
125	0x3f45dd2e	0.7729062
126	0xbee1daac	-0.44112146
127	0x3ec5ac99	0.38608244

encoder.2.1.running_var f4 [128]
0	0x3fd16bba	1.6361
1	0x40062369	2.0959113
2	0x3fcc1f39	1.5947028
3	0x40092b0a	2.143252
4	0x4090a5dc	4.5202465
5	0x3f6e2636	0.93027055
6	0x400315b1	2.048199
7	0x3f9e38fe	1.2361143
8	0x400d598c	2.2085905
9	0x40693f16	3.6444755
10	0x3f89a450	1.0753269
11	0x3f5fb7e1	0.8738995
12	0x3fd9b71d	1.7009007
13	0x402c2862	2.6899648
14	0x4023b95d	2.5581887
15	0x3fdf03fa	1.7423089
16	0x3fcda31e	1.6065404
17	0x40162199	2.3458006
18	0x40336a7c	2.8033743
19	0x4052e24d	3.2950623
20	0x3faed8ee	1.3659952
21	0x3ff09ae5	1.879727
22	0x3f904ccf	1.127344
23	0x3fe8b11a	1.8179047
24	0x3f9ddc0d	1.2332779
25	0x404d8029	3.2109473
26	0x3f964f88	1.1743021
27	0x3fd8d870	1.6941051
28	0x3f84d5b3	1.0377716
29	0x3ffe2d76	1.9857624
30	0x40004139	2.0039809
31	0x4026df56	2.6073813
32	0x3fd544d8	1.6661634
33	0x3fa2d52a	1.2721303
34	0x3f7c3de5	0.98531944
35	0x3f4a3378	0.78984785
36	0x40474906	3.113832
37	0x3fd145ab	1.6349386
38	0x3fd7102b	1.6801809
39	0x403781e0	2.867302
40	0x3f9bb455	1.2164408
41	0x40129014	2.2900438
42	0x40385985	2.8804638
43	0x404251cb	3.0362422
44	0x403566c8	2.8343983
45	0x3fc2e298	1.5225401
46	0x402c12f0	2.6886559
47	0x40256684	2.584382
48	0x3f4d20ae	0.8012799
49	0x3ff15578	1.8854208
50	0x4022c5e6	2.5433288
51	0x400a66d4	2.1625261
52	0x3fd23040	1.6420975
53	0x40296316	2.6466727
54	0x404dc83a	3.2153459
55	0x4078fbff	3.8903806
56	0x3f706774	0.93907857
57	0x408a8e1e	4.3298483
58	0x3ff8da28	1.9441576
59	0x404ea27a	3.2286668
60	0x3fb4f9df	1.4138755
61	0x400c824a	2.1954522
62	0x3f56e15a	0.8393761
63	0x3fc0e3f5	1.5069567
64	0x400a1825	2.1577237
65	0x3ffc9b7f	1.9734954
66	0x3fa800fd	1.3125302
67	0x3feb89f2	1.8401473
68	0x403d7a54	2.9605913
69	0x3fcc1756	1.5944622
70	0x3fdeb111	1.7397786
71	0x3faa01ec	1.3281837
72	0x401610cc	2.3447752
73	0x4007c81b	2.1215885
74	0x3fbfc18c	1.4980941
75	0x3ff8291c	1.9387546
76	0x4052dc3e	3.2946925
77	0x3fe0060e	1.7501848
78	0x3fabb9d5	1.3416086
79	0x4039121a	2.8917298
80	0x4030efa4	2.7646265
81	0x40076d57	2.1160486
82	0x3ffefcc6	1.992089
83	0x3f798bfe	0.97479236
84	0x3fb0e3ab	1.3819479
85	0x3f87f8f7	1.0622853
86	0x4000d889	2.0132163
87	0x4007f4d6	2.1243186
88	0x4074c981	3.8247988
89	0x3fcd2bbd	1.6028973
90	0x404cba84	3.198884
91	0x404e2e78	3.2215862
92	0x3ff86313	1.9405235
93	0x401980d0	2.398487
94	0x3fbec1c3	1.4902881
95	0x3fbaae83	1.4584507
96	0x3fab831e	1.3399389
97	0x407bbf82	3.9335637
98	0x401914d8	2.3918972
99	0x401227d8	2.2836819
100	0x40564ade	3.3483195
101	0x40be6ab9	5.9505277
102	0x40291550	2.6419258
103	0x3fad7701	1.3551942
104	0x3fd3d782	1.6550143
105	0x401a72ba	2.4132524
106	0x4007a526	2.1194549
107	0x40158b40	2.3366241
108	0x40085262	2.1300282
109	0x402d5af4	2.7086763
110	0x4002e5cc	2.0452757
111	0x407fe046	3.9980636
112	0x3fe1e1ec	1.7647071
113	0x3f7374bb	0.9509999
114	0x4012af46	2.2919478
115	0x3f559408	0.83429
116	0x408ab667	4.334766
117	0x3f42757f	0.75960535
118	0x4025f9a8	2.5933628
119	0x40455fd6	3.0839744
120	0x3f6acff4	0.9172356
121	0x4026a426	2.6037688
122	0x4005d720	2.0912552
123	0x402f3344	2.737504
124	0x405550f7	3.3330667
125	0x404d0a57	3.203756
126	0x400eaab3	2.2291687
127	0x3ffce1a4	1.975636
