networks/vae_channel_beta0.1_epoch100_latent_dim40_from_train_py.pt (torch, 890529 bytes, 12 tensors)

encoder.0.weight f4 [400, 128]
0	0x3d9b3359	0.07578153
1	0xbd21b897	-0.03948268
2	0xbe3c1570	-0.18367553
3	0xbc9e5b82	-0.019330744
4	0x3e3bc39d	0.1833634
5	0xbd0f7528	-0.03502384
6	0xbd75733e	-0.059924357
7	0x3cf3edf4	0.02977655
8	0xbdae1818	-0.08500689
9	0xbdb6e225	-0.089298524
10	0x3e1729dd	0.14762063
11	0xbe19d59a	-0.15022889
12	0x3c17bc18	0.009261154
13	0x3e86884a	0.26275855
14	0xbe8b0c48	-0.27157807
15	0xbe8e3c92	-0.27780586
16	0x3cd5746a	0.026056487
17	0xbe8102f5	-0.2519757
18	0xbb71c3ce	-0.003689039
19	0x3dbb85af	0.091563575
20	0x3b2a298e	0.002596471
21	0xbe369489	-0.17830099
22	0x3e0b22e9	0.13587536
23	0x3db3c001	0.08776856
24	0xbde76eb2	-0.1130041
25	0x3d268b08	0.040659934
26	0x3db35ccb	0.08757933
27	0xbe734c01	-0.23759462
28	0x3e18e24d	0.14930077
29	0x3dab9e0c	0.083797544
30	0xbd65d4d7	-0.056111183
31	0x3e49b594	0.19698173
32	0x3e731c37	0.23741232
33	0xbd98870e	-0.07447635
34	0xbe8e8215	-0.2783362
35	0x3e2fd905	0.1717263
36	0xbc83d869	-0.016094403
37	0xbeb4d66a	-0.35319835
38	0x3df30329	0.11865837
39	0x3d9bbde1	0.07604576
40	0x3daf885c	0.0857093
41	0x3e85c144	0.26124012
42	0xbea54a96	-0.32283467
43	0x3abfe2e0	0.0014639758
44	0x3d461ad8	0.048365444
45	0xbda3c1f8	-0.07995981
46	0xbe5fe96a	-0.21866384
47	0xbe073e17	-0.13207279
48	0x3e4e74f6	0.20161805
49	0x3e293669	0.16524662
50	0xbcdd5428	-0.027017668
51	0x3e82e675	0.2556645
52	0xbce191f6	-0.02753542
53	0xbc9544f9	-0.018221365
54	0x3b2c1b80	0.0026261508
55	0x3e38ac4b	0.18034475
56	0xbc9e582b	-0.019329151
57	0x3d5c9745	0.0538552
58	0xbe55d567	-0.20882188
59	0x3abd3dc4	0.0014437963
60	0x3e673e85	0.22582443
61	0xbe02e4db	-0.12782614
62	0xbea1cf57	-0.316035
63	0x3d9e5174	0.0773038
64	0x3e330965	0.17484052
65	0x3c88457b	0.016634693
66	0x3d3aabae	0.045573883
67	0x3cd22839	0.025653945
68	0x3df381a3	0.118899606
69	0x3cdd52be	0.027016994
70	0xbe5110d8	-0.20416582
71	0x3e293c84	0.16526991
72	0x3cb7819d	0.022400672
73	0xbe0834af	-0.13301347
74	0xbe0553c5	-0.13020237
75	0x3d99c778	0.07508749
76	0x3e14b28c	0.14521235
77	0xbd9a547c	-0.07535645
78	0xbe6ae0db	-0.22937338
79	0x3c201b19	0.009772086
80	0x3bf8c495	0.007591794
81	0x3d9592e7	0.0730341
82	0xbe37e4db	-0.17958395
83	0xbdf2644c	-0.11835536
84	0x3de38c7a	0.11110778
85	0xbe04ebfa	-0.12980643
86	0xbda1e364	-0.079046994
87	0x3caf503e	0.021400567
88	0x3c545c68	0.0129614845
89	0xbe31a383	-0.17347531
90	0x3e2101ef	0.15723394
91	0xb9450fba	-0.00018793243
92	0x3daf0228	0.08545333
93	0x3d1fe933	0.039040755
94	0xbdd6f934	-0.104967505
95	0x3e43535b	0.19074766
96	0x3e023428	0.12715209
97	0x3e342fee	0.17596409
98	0xbd86f631	-0.06589926
99	0x3e69895d	0.22806306
100	0xbe431dc4	-0.19054323
101	0xbda9be04	-0.08288196
102	0x3e0d5c40	0.13804722
103	0xbe740bc9	-0.2383262
104	0xbdda2f03	-0.10653498
105	0x3d39a0d0	0.04531938
106	0x3ce16533	0.027514076
107	0xbd0ba5dd	-0.034093726
108	0xbd18d6ef	-0.03731435
109	0x3d641705	0.055686016
110	0x3eaf4e6f	0.34239528
111	0x3c9f4702	0.019443039
112	0x3d66ac2c	0.05631654
113	0x3acc6897	0.0015595135
114	0xbd72a3ed	-0.059238363
115	0x3e0e7630	0.13912272
116	0x3db76010	0.08953869
117	0xbe2614aa	-0.1621882
118	0x3dc93580	0.098246574
119	0xbd23538b	-0.039874595
120	0xbdccb3f7	-0.09995263
121	0x3e841251	0.25795224
122	0xbe20c6e5	-0.15700872
123	0x3db59701	0.08866692
124	0xbe1b24c6	-0.15150747
125	0x3dc5dc36	0.096611425
126	0xbea93da9	-0.33054855
127	0xbec88d58	-0.39170337
128	0x3e6d24cd	0.2315857
129	0x3e8177c8	0.25286698
130	0xbe1c1891	-0.15243746
131	0x3d7c3956	0.061578117
132	0x3d8259d9	0.06364793
133	0xbdbdbbc8	-0.09264332
134	0x3e4a21c0	0.19739437
135	0x3ea0181d	0.31268397
136	0xbe121a4c	-0.14267844
137	0x3c7acea4	0.015308056
138	0x3d9755be	0.07389401
139	0x3dfef100	0.12448311
140	0xbdccbdd4	-0.09997144
141	0xbd4d4d4c	-0.050122544
142	0xbe278355	-0.16358693
143	0x3d720e2f	0.059095558
144	0xbd9e8b64	-0.077414304
145	0x3e683709	0.22677244
146	0xbe86863a	-0.26274282
147	0x3e81e0bc	0.2536677
148	0x3b59e0fc	0.0033245673
149	0xbe1afb8c	-0.1513502
150	0xbddea4cd	-0.10871277
151	0x3d6e6c0e	0.058208518
152	0x3e34d6e0	0.17660093
153	0xbdd74a47	-0.10512214
154	0xbde91051	-0.11380065
155	0xbce0a2db	-0.027421406
156	0x3e970a6e	0.29500145
157	0xbded751d	-0.11594603
158	0xbec20fbc	-0.3790263
159	0x3e3e4a4c	0.1858303
160	0x3e0990c5	0.13434131
161	0xbe2ecdd3	-0.17070703
162	0xbd61b742	-0.05510641
163	0x3dbcbcad	0.092156745
164	0xbbfae75b	-0.0076569743
165	0xbe4897bc	-0.19589132
166	0x3d8273da	0.06369753
167	0xbc5bc57a	-0.013413781
168	0xbc4b5348	-0.0124099925
169	0xbe3488d8	-0.17630327
170	0x3e1ca86d	0.15298624
171	0xbe0169f1	-0.1263807
172	0x3c296e06	0.010341173
173	0x3e972537	0.2952058
174	0xbd2a8b11	-0.04163653
175	0xbe5020ec	-0.20325059
176	0x3eba453b	0.36380944
177	0xbe73a66e	-0.23793957
178	0xbe242b44	-0.1603213
179	0x3e8fd87a	0.28094846
180	0x3da5a176	0.08087437
181	0xbe206117	-0.15662037
182	0xbd49c86f	-0.049263414
183	0xbd7ae219	-0.06125078
184	0x3e514ce2	0.20439485
185	0x3cb624c4	0.022234328
186	0xbea89852	-0.3292871
187	0x3dbae4f9	0.09125704
188	0x3e98d9e7	0.29853746
189	0xbea5b76b	-0.323665
190	0x3daa70dd	0.08322308
191	0x3e743550	0.23848462
192	0x3d1f42db	0.038882118
193	0xbdcd2b97	-0.1001808
194	0xbb7dc1ea	-0.0038720318
195	0xbd1a59d1	-0.03768331
196	0x3e5f2c16	0.21794161
197	0x3d5032bd	0.050829638
198	0xbdc7dacf	-0.09758531
199	0x3e381437	0.17976461
200	0xbc9bd4da	-0.019022394
201	0xbd9de7b9	-0.07710213
202	0x3c5363e3	0.012902233
203	0xbe93a2bd	-0.28835097
204	0x3e7c7ccc	0.24656981
205	0x3e253278	0.16132534
206	0xbe6ced7b	-0.23137467
207	0x3e45647b	0.19276612
208	0xbe0dc407	-0.1384431
209	0xbdab4ff6	-0.08364861
210	0x3c76892d	0.015047354
211	0xbd636497	-0.05551585
212	0xbd894a21	-0.06703592
213	0x3d45870e	0.0482245
214	0x3c915951	0.017742785
215	0xbd588b09	-0.05286697
216	0xbd32a434	-0.043613628
217	0x3e42666e	0.18984386
218	0xbcda541b	-0.026651433
219	0x3cc81376	0.024423342
220	0xbe84b69a	-0.25920564
221	0x3d8b0d0f	0.067896
222	0x3de2c857	0.11073368
223	0xbe788885	-0.24270828
224	0xbe42a87c	-0.19009584
225	0xbe68ead0	-0.22745824
226	0xbdd79e0c	-0.10528192
227	0x3e4c71f5	0.19965346
228	0x3d5a7b41	0.0533402
229	0xbe681e5c	-0.22667831
230	0xbe3f6b87	-0.18693362
231	0x3e3fbe25	0.18724878
232	0x3daff4bd	0.08591602
233	0xbd489ed4	-0.048979595
234	0xbe3bf9e0	-0.18357038
235	0x3e22cf30	0.15899348
236	0x3e5f9cae	0.21837112
237	0xbe8c797e	-0.2743644
238	0x3de5611f	0.11200165
239	0x3dd9a1c2	0.10626556
240	0x3cef12ef	0.029183833
241	0xbe763a9b	-0.24045794
242	0xbe853169	-0.2601426
243	0x3e441c09	0.1915132
244	0x3e394b86	0.18095216
245	0xbe3a9e99	-0.18224563
246	0xbc381e0e	-0.011237634
247	0x3e385845	0.18002422
248	0x3d69e47b	0.05710266
249	0xbcc5f9b8	-0.024166927
250	0x3da8708e	0.08224593
251	0xbdf1773d	-0.11790321
252	0x3ec2de7c	0.38060367
253	0x3e26df28	0.16296065
254	0xbe7e0455	-0.2480634
255	0x3d8461b1	0.06463946

encoder.0.bias f4 [400]
0	0xbef972c5	-0.48720375
1	0xbd97ff21	-0.07421709
2	0x3b154a56	0.0022779903
3	0xbd86ffbc	-0.06591746
4	0xbe94541e	-0.28970426
5	0xbf284eb2	-0.6574508
6	0xbeac2a38	-0.3362596
7	0xbd6adfa3	-0.057342183
8	0xbe68df99	-0.22741546
9	0xbe0935ab	-0.13399379
10	0xbe0b225b	-0.13587324
11	0x3cd1d71e	0.025615271
12	0xbe78f464	-0.24311978
13	0x3e6a6a58	0.2289213
14	0xbd0adb59	-0.033900592
15	0xbf095642	-0.53647244
16	0xbe9b58b1	-0.30341104
17	0xbea22e4c	-0.31675947
18	0xbeb58aed	-0.35457554
19	0x3c17dcde	0.009268967
20	0x3e03c963	0.12869792
21	0x3e86f7f7	0.26361057
22	0xbeb91eb9	-0.36156252
23	0xbe9d3e55	-0.30711618
24	0xbefdecd7	-0.49594757
25	0xbf0ff2a9	-0.56229645
26	0xbedaa7a0	-0.42706013
27	0xbe6f7107	-0.2338296
28	0xbeae6380	-0.34060287
29	0xbdb6ca40	-0.08925295
30	0x3ecadd3c	0.39621913
31	0xbe304ff7	-0.17218004
32	0xbd80eeb9	-0.06295533
33	0xbefdf9c6	-0.49604625
34	0xbe1720d8	-0.14758623
35	0xbe18506b	-0.14874427
36	0xbdd9ac6b	-0.10628589
37	0xbe255f57	-0.1614965
38	0x3d464746	0.048407815
39	0xbef93e11	-0.48680165
40	0xbe57bf25	-0.2106901
41	0xbe97c9b0	-0.29646063
42	0xbaebcc3a	-0.0017989941
43	0x3ec6696c	0.38752306
44	0xbe01a96f	-0.1266229
45	0xbe0daf94	-0.13836509
46	0xbe41ed3c	-0.18938154
47	0xbe6874e7	-0.22700845
48	0xbe8b1b8b	-0.2716945
49	0x3e45300e	0.19256613
50	0xbee9706b	-0.4559358
51	0x3d7e2b3a	0.062052943
52	0x3cd50596	0.02600364
53	0xbf0df019	-0.55444485
54	0xbf04d059	-0.51880413
55	0xbf152a82	-0.58267987
56	0xbe94675a	-0.289851
57	0x3e64de69	0.22350468
58	0xbf1f5e2e	-0.6225308
59	0xbe665aec	-0.22495621
60	0xbf59308a	-0.8483969
61	0xbf03251c	-0.512285
62	0xbe015704	-0.1263085
63	0xbdbe3666	-0.092877194
64	0xbf2bab81	-0.6705857
65	0xbdf233db	-0.11826297
66	0xbf01efa8	-0.5075631
67	0x3e560643	0.20900826
68	0xbf019952	-0.50624573
69	0xbeb4588a	-0.352238
70	0x3d7b1a6a	0.061304487
71	0x3d90a491	0.070626386
72	0x3ea1afc0	0.315794
73	0xbdd27eb6	-0.102780744
74	0xbea06efa	-0.31334668
75	0xbd5d5bc4	-0.054042593
76	0xbe342188	-0.17590916
77	0xbe61c962	-0.22049478
78	0xbf5fdac3	-0.8744318
79	0xbe9e987c	-0.3097571
80	0xbd83b2cf	-0.064305894
81	0xbeb7598c	-0.35810506
82	0xbde82b59	-0.11336393
83	0x3dd50e59	0.10403127
84	0xbdc2e30d	-0.09515963
85	0xbec45c2b	-0.3835157
86	0xbf1fc047	-0.62402767
87	0xbf1690d9	-0.5881477
88	0x3c4a058f	0.012330427
89	0xbea8e64d	-0.32988206
90	0xbf033545	-0.5125316
91	0x3e8f6754	0.2800852
92	0xbe8e9758	-0.2784984
93	0x3ef96bb3	0.4871498
94	0xbe2ff5d9	-0.17183627
95	0xbf21d25d	-0.63211614
96	0x3e1a2822	0.15054372
97	0x3d13f321	0.036120538
98	0xbe8f37bf	-0.27972218
99	0x3e35f570	0.17769408
100	0xbecb5818	-0.39715648
101	0xbc9f005b	-0.01940935
102	0x3e3060fa	0.17224494
103	0xbeec51b1	-0.46156076
104	0x3e8fcb84	0.28084958
105	0xbc21b467	-0.009869671
106	0xbf167513	-0.5877239
107	0xbec7ad13	-0.38999233
108	0xbdfad472	-0.12247552
109	0xbda9f8d2	-0.08299412
110	0x3d64ebd1	0.055888955
111	0xbee8619f	-0.4538698
112	0xbe1fdae6	-0.15610847
113	0xbed8d412	-0.42349297
114	0x3e95bd7d	0.2924613
115	0xbd5d9c1b	-0.054103952
116	0xbd6c27ee	-0.057655267
117	0xbef9894b	-0.4873756
118	0xbdb1345a	-0.086525634
119	0x3e42702d	0.18988104
120	0x3d53d22b	0.051714104
121	0xbece2e4c	-0.40269697
122	0xbf708471	-0.9395209
123	0xbe472f7a	-0.19451705
124	0x3e215ba8	0.1575762
125	0x3e875fa7	0.26440164
126	0xbe2c7d60	-0.16844702
127	0xbee68516	-0.45023412
128	0xbecf2766	-0.40459746
129	0xbeae2516	-0.3401267
130	0xbca0ba21	-0.019620003
131	0x3ec47d4e	0.3837685
132	0x3eb36dad	0.35044613
133	0x3e1616ce	0.14657137
134	0xbe9b9255	-0.3038508
135	0x3dc9ca27	0.098530106
136	0x3d92556f	0.071452014
137	0xbec36d12	-0.38169152
138	0xbec7886c	-0.3897127
139	0xbf0bca78	-0.5460582
140	0x3ecd9558	0.40153003
141	0x3e8fd509	0.2809222
142	0xbe80c0a8	-0.25146985
143	0xbee4e734	-0.44707644
144	0xbdbb3fd6	-0.09143035
145	0xbf13d225	-0.5774253
146	0xbe7a06ba	-0.24416628
147	0x3d6f957c	0.05849217
148	0xbd82587c	-0.06364533
149	0xbe83cd6e	-0.25742668
150	0xbee64c9e	-0.4498033
151	0xbdc011f7	-0.093784265
152	0x3de8ba84	0.113637
153	0x3d7837ed	0.06060021
154	0xbee77786	-0.45208377
155	0xbdebb045	-0.1150823
156	0xbd8c1ed7	-0.0684182
157	0xbedb8391	-0.42873815
158	0xbf37522e	-0.7160977
159	0x3e998f32	0.29992062
160	0xbf3751d4	-0.71609235
161	0x3e83e092	0.2575727
162	0xbebc23b7	-0.36745998
163	0x3dd4a9e5	0.10383967
164	0xbdaf08fa	-0.08546634
165	0x3e23b0ca	0.15985408
166	0xbe107e23	-0.14110617
167	0x3e485454	0.19563419
168	0xbf07d69f	-0.5306186
169	0xbdc060a0	-0.0939343
170	0xbee67ec4	-0.4501859
171	0xbed42d33	-0.41440734
172	0x3e53acc5	0.20671375
173	0x3c39f7bb	0.011350567
174	0xbeba2978	-0.36359763
175	0x3e1db4b0	0.15400958
176	0xbf43dcff	-0.7650909
177	0x3e3016fa	0.17196265
178	0x3e47f577	0.19527231
179	0xbebca3a7	-0.36843607
180	0xbd9ea696	-0.077466175
181	0xbddad2b3	-0.10684719
182	0x3c678032	0.014129685
183	0x3cdb5cd3	0.02677766
184	0xbd82a8c1	-0.063798435
185	0xbeecfb06	-0.46285266
186	0xbe0ef7fd	-0.13961788
187	0xbdbfc278	-0.09363264
188	0xbe4a2f1e	-0.19744536
189	0x3e0647a5	0.13113268
190	0xbd017e53	-0.031614613
191	0xbe3b9cb7	-0.183215
192	0xbe0a922d	-0.13532324
193	0xbe178a7a	-0.14798918
194	0x3e65d8d5	0.22445996
195	0xbe8a0797	-0.26958916
196	0xbf4064e1	-0.7515393
197	0xbf295012	-0.661378
198	0xbeacb4be	-0.33731645
199	0x3e709be6	0.2349697
200	0xbe8cb549	-0.2748206
201	0xbeb8611a	-0.36011583
202	0xbe2d76f9	-0.16939916
203	0xbecb182f	-0.39666888
204	0xbea7ec09	-0.32797268
205	0xbcae21e6	-0.021256398
206	0xbe16917b	-0.14703934
207	0xbe54fbc9	-0.20799173
208	0xbe90a2d8	-0.2824924
209	0xbe1b4072	-0.15161303
210	0xbf1fb99f	-0.6239261
211	0xbec1065f	-0.37700173
212	0xbe1e1ee8	-0.15441477
213	0xbd63f057	-0.055649128
214	0xbe0ae293	-0.13562994
215	0x3f21a402	0.6314088
216	0xbeb154fa	-0.34635144
217	0x3cb7d12d	0.02243861
218	0xbd5400c2	-0.051758535
219	0xbf45e662	-0.7730466
220	0xbdcc99f0	-0.09990299
221	0xbe3fa849	-0.1871654
222	0xbe37ff41	-0.17968465
223	0xbe3f2409	-0.1866609
224	0x3da2e886	0.079545066
225	0xbe82f62b	-0.25578436
226	0xbec3e365	-0.38259426
227	0xbd8b9aa1	-0.068166025
228	0x3ece3a28	0.40278745
229	0xbe0e282f	-0.13882516
230	0xbe842d27	-0.25815699
231	0xbcf33acb	-0.02969112
232	0x3c0fe55b	0.00878271
233	0xbf27232c	-0.65288043
234	0xbeec1584	-0.46110165
235	0xbd28d6b9	-0.0412204
236	0xbe9e745c	-0.3094815
237	0xbdbdbe3d	-0.09264801
238	0xbe1683b2	-0.14698675
239	0xbe367427	-0.17817746
240	0xbe636381	-0.22205926
241	0x3dd0971c	0.10185072
242	0x3d3056b5	0.04305144
243	0x3ec16cad	0.37778226
244	0xbf656004	-0.89599633
245	0xbd41d316	-0.047320448
246	0xbda07430	-0.07834661
247	0xbdb91727	-0.09037619
248	0xbee6670b	-0.4500049
249	0xbf16fd07	-0.5897984
250	0xbde346bc	-0.11097476
251	0xbf27555a	-0.6536461
252	0x3da16bb9	0.078818746
253	0x3c231c00	0.009955406
254	0xbd9ae575	-0.07563297
255	0xbdb553d7	-0.08853882

encoder.2.weight f4 [128, 400]
0	0x3d809906	0.06279187
1	0xbe0d934d	-0.13825722
2	0xbdd1f401	-0.10251618
3	0x3da57d0c	0.080804914
4	0xbc831d8d	-0.016005302
5	0xbe4e77f2	-0.20162943
6	0x3c3540cb	0.011062811
7	0xbe213dcd	-0.15746231
8	0x3e0b090e	0.13577673
9	0xbc56ba86	-0.013105994
10	0x3dd20bbf	0.10256147
11	0x3cf789ab	0.030217012
12	0xbd126469	-0.03574029
13	0x3db810e9	0.089876
14	0x3e3c5e7c	0.18395418
15	0xbdaae917	-0.083452396
16	0x3da2fb18	0.079580486
17	0xbdac63df	-0.084174864
18	0x3e0011a3	0.12506728
19	0x3dfe3bdc	0.12413761
20	0x3db1e981	0.086871155
21	0x3d2deb6f	0.042460855
22	0xbe80b04b	-0.251345
23	0xbc60ce61	-0.01372108
24	0x3cefaa64	0.029256053
25	0xbe4a82e1	-0.19776489
26	0xbdee32e2	-0.11630799
27	0x3deb0331	0.11475218
28	0xbdbdc798	-0.09266585
29	0x3c55f8cd	0.013059807
30	0x3e780982	0.24222377
31	0xbae02a77	-0.0017102499
32	0x3d0e51b7	0.034745898
33	0xbd75e170	-0.060029447
34	0xbbcf29e9	-0.0063221348
35	0xbe1a8e92	-0.15093449
36	0xbd35218e	-0.044221453
37	0x3e04dd36	0.1297501
38	0x3d808259	0.06274862
39	0xbe3f4e10	-0.18682122
40	0xbdf87d15	-0.121332325
41	0x3cc65c8e	0.024214055
42	0x3e0ed3d4	0.13947994
43	0xbdc195e2	-0.09452416
44	0x3e6a3224	0.2287069
45	0xbd036335	-0.032077033
46	0x3d72ca79	0.059275124
47	0xbdaeef25	-0.08541707
48	0x3e85c1ce	0.26124424
49	0x3da3510a	0.07974441
50	0xbdfe658a	-0.12421711
51	0x3e1fac45	0.1559306
52	0x3d14189b	0.036156278
53	0x3bcf8201	0.0063326363
54	0xbe63152c	-0.22176045
55	0xbd20e50c	-0.039280936
56	0x3d885569	0.06656916
57	0xbe65a529	-0.22426285
58	0x3cad7494	0.021173753
59	0x3e3fc5a7	0.18727742
60	0x3db4636d	0.088080265
61	0xbd12a02d	-0.035797287
62	0xbde9ae5a	-0.11410208
63	0xbdada057	-0.08477848
64	0x3e630ed6	0.22173628
65	0x3cfbeaf9	0.030751692
66	0xbdb3e811	-0.087844975
67	0x3e06b76b	0.13155906
68	0xbc9192ab	-0.017770132
69	0xbe4bb2ac	-0.19892377
70	0x3d9edfe1	0.07757545
71	0x3d186678	0.037207097
72	0x3e373e07	0.17894755
73	0x3d4283ac	0.047488853
74	0xbe86a455	-0.2629725
75	0xbbfa40de	-0.0076371273
76	0x3c766dd4	0.0150408335
77	0x3e8259f1	0.25459245
78	0xbe12aa5c	-0.143228
79	0x3d11a146	0.035554193
80	0x3b8a497a	0.004220185
81	0xbcc6a7e3	-0.024249977
82	0xbe62d497	-0.22151409
83	0x3d06c795	0.03290518
84	0xbe12e0a7	-0.1434351
85	0xbde50473	-0.11182489
86	0x3e70c2eb	0.23511855
87	0xbe86f32d	-0.26357403
88	0x3d1ce78a	0.03830675
89	0x3d0ba013	0.034088206
90	0x3dedd052	0.116119996
91	0xbd82266c	-0.06354985
92	0x3d292241	0.041292433
93	0xbc30ba62	-0.010786625
94	0x3e96d4bb	0.29459175
95	0x3d70cb13	0.058787417
96	0xbc8048ae	-0.015659656
97	0x3e31852c	0.17335957
98	0xbe7f3e89	-0.24926199
99	0xbd822446	-0.06354575
100	0xbde9a26b	-0.11407932
101	0xbe129bae	-0.143172
102	0xbdf6853d	-0.12037132
103	0xbdd2c39e	-0.10291217
104	0x3e26e3d2	0.16297844
105	0x3dab69d0	0.083697915
106	0xbdbc945b	-0.09207984
107	0xbd0222f9	-0.031771634
108	0xbd1e4127	-0.038636353
109	0xbd0794fb	-0.033101063
110	0x3e669d38	0.22520912
111	0xbd57fb2c	-0.05272977
112	0xbc86f6f5	-0.01647518
113	0xbe128002	-0.14306644
114	0x3d8ebdeb	0.06969818
115	0xbdab92f5	-0.08377639
116	0x3de7e46e	0.113228664
117	0x3e5ebaae	0.217509
118	0xbdbe15ca	-0.092815
119	0x3a9f1c63	0.0012139197
120	0x3df931b1	0.12167681
121	0x3b09512e	0.0020952928
122	0xbe80ef14	-0.25182402
123	0xbbecf9e8	-0.0072319396
124	0x3d632a20	0.055460095
125	0x3d33cab3	0.04389448
126	0xbe2ecbb6	-0.17069897
127	0xbdf7f8f1	-0.12108029
128	0x3e5275ba	0.20552722
129	0xbe1df31d	-0.15424772
130	0x3cbe9e93	0.023268973
131	0xbd692c86	-0.056927226
132	0x3c183eed	0.009292346
133	0x3c6318ee	0.013860924
134	0xbd876433	-0.06610908
135	0x3ddbe10f	0.10736286
136	0x3ce190e1	0.027534904
137	0xbdf61734	-0.120161444
138	0xbe00fe82	-0.12597087
139	0xbe0bee63	-0.13665156
140	0xbd26c4d0	-0.04071504
141	0xbbfd629c	-0.0077327024
142	0xbe305b9e	-0.17222449
143	0xbe8b9c19	-0.2726753
144	0x3da3512b	0.07974466
145	0xbe5ae8c7	-0.2137786
146	0xbda76cf6	-0.081750795
147	0x3d88ed68	0.06685907
148	0x3e355dd7	0.17711578
149	0xbe6d412d	-0.23169394
150	0x3dd5bfc7	0.10436969
151	0xbd72a781	-0.059241775
152	0x3d90349e	0.07041286
153	0x3dc4508f	0.09585678
154	0x3d971c6c	0.07378468
155	0x3d69db6f	0.057094034
156	0x3e4900e4	0.19629246
157	0xbdf1060f	-0.11768734
158	0xbd54b689	-0.05193189
159	0x39cca47a	0.00039032457
160	0x3c3ac3ee	0.011399252
161	0x3e577450	0.21040463
162	0x3cc5ef7e	0.02416205
163	0xbd80512b	-0.062654816
164	0x3e0ffbf5	0.14060958
165	0xbcf2cd7f	-0.029639004
166	0x3cebd19c	0.028786473
167	0xbd33b7ee	-0.04387658
168	0xbe1f9f82	-0.15588191
169	0x3d293021	0.041305665
170	0xbdc99959	-0.09843702
171	0xbe04ad26	-0.12956676
172	0x3d5d7dda	0.0540751
173	0x3d4d90b2	0.05018682
174	0x3d99133f	0.07474374
175	0xbe19ba17	-0.15012394
176	0x3de896db	0.113568984
177	0xbbba049a	-0.005676818
178	0x3d9ce964	0.07661703
179	0x3cded3e8	0.027200654
180	0x3cd91445	0.026498923
181	0x3db9906e	0.09060751
182	0x3d7b4481	0.061344627
183	0x3c9c08d6	0.019047182
184	0xbce0fc24	-0.02746398
185	0x3daae8ef	0.0834521
186	0xbcaf9fee	-0.021438565
187	0x3cfb9060	0.030708492
188	0x3edaa6e1	0.42705444
189	0xbd0b0f4f	-0.033950146
190	0x3e25dfdb	0.16198675
191	0x3d7ec68d	0.06220107
192	0x3e0115c9	0.12605967
193	0xbc674f6f	-0.01411806
194	0x3e95dd3b	0.29270348
195	0xbe4f6534	-0.2025345
196	0x3dd37032	0.10324134
197	0x3d6146a1	0.054998998
198	0xbceca519	-0.028887318
199	0x3e5aa9c3	0.21353821
200	0xbdd91aa4	-0.106007844
201	0xbd3edcc4	-0.046597257
202	0xbc3d03ca	-0.011536548
203	0xbea473a9	-0.32119492
204	0x3d88a9e7	0.06673031
205	0x3d6e099c	0.058114633
206	0x3a24f3b0	0.0006292416
207	0xbe0156c5	-0.12630756
208	0xbc641fd4	-0.013923604
209	0x3de92492	0.11383928
210	0x3d7e482d	0.06208055
211	0xbdd0eb75	-0.1020116
212	0xbdef011c	-0.116701335
213	0x3d04faa1	0.03246558
214	0x3d5d1f4e	0.053984933
215	0x3e4f8540	0.20265675
216	0xbccb0ea5	-0.024787256
217	0x3e228227	0.15869962
218	0xbde34d10	-0.11098683
219	0x3a3a7e54	0.0007114161
220	0x3deb4a54	0.11488786
221	0x3e368460	0.17823935
222	0x3e23f167	0.16010056
223	0xbd8b8879	-0.068131395
224	0x3b092159	0.0020924418
225	0xbe405d27	-0.18785535
226	0xbe142e61	-0.14470817
227	0x3dcd9a76	0.10039227
228	0xbd32454c	-0.043523118
229	0x3b4ede19	0.0031565486
230	0xbe6aaefa	-0.22918311
231	0x3deedaa0	0.11662793
232	0xbe174ffb	-0.14776604
233	0xbd9bc605	-0.076061286
234	0xbda7d694	-0.081952244
235	0xbcdd686e	-0.027027335
236	0x3d8ad498	0.0677883
237	0x3e2d7ab1	0.16941334
238	0xbc02926b	-0.007969479
239	0x3e077626	0.13228664
240	0xbd860eea	-0.065458134
241	0x3e11a88c	0.14224452
242	0x3cd41e46	0.025893342
243	0x3e2fee01	0.17180635
244	0x3c8a9ea2	0.016921345
245	0x3dc54335	0.09631959
246	0xbc4a2a5d	-0.012339202
247	0x3c5d858a	0.013520608
248	0x3e1ec3cb	0.15504377
249	0xbe01d37a	-0.12678328
250	0xbd314a38	-0.04328367
251	0xbd8e1025	-0.06936673
252	0xbccd2ead	-0.02504667
253	0xbd961809	-0.07328803
254	0x3e12bee9	0.14330639
255	0xbd73377e	-0.059379093

encoder.2.bias f4 [128]
0	0x3f1777cf	0.5916719
1	0x3ddb2ebb	0.107022725
2	0x3ebb4c88	0.36581826
3	0x3ea9fdf9	0.33201578
4	0x3e39754a	0.18111148
5	0x3e3679c6	0.1781989
6	0x3eafb9ef	0.34321544
7	0x3ec100f9	0.37696055
8	0x3e99a862	0.30011278
9	0x3e9564e8	0.29178548
10	0x3e8b022d	0.27150097
11	0x3e5f0a59	0.21781291
12	0x3e52a8e2	0.20572236
13	0x3ec346d5	0.38139978
14	0x3e40d720	0.18832064
15	0x3e5dcdfa	0.21660605
16	0x3ea65f0d	0.32494393
17	0x3ed4da3c	0.4157275
18	0x3e68ae85	0.22722824
19	0x3e31cc62	0.17363122
20	0x3d8dae45	0.06918005
21	0x3ee187c5	0.44048896
22	0x3ecd2f80	0.40075302
23	0x3e84d499	0.2594345
24	0x3ee2ba6b	0.4428285
25	0x3ed74265	0.42042843
26	0x3e488bb3	0.19584541
27	0x3e8f0d44	0.27939808
28	0x3efab4c2	0.48966032
29	0x3ed7ed5a	0.42173272
30	0x3e5f2516	0.21791491
31	0x3eb8b154	0.3607279
32	0x3e0429f5	0.1290663
33	0xba92bdce	-0.0011195482
34	0x3e674469	0.2258469
35	0x3eaf8a94	0.34285414
36	0x3e02577f	0.1272869
37	0x3e5bde41	0.21471502
38	0x3d978749	0.073988505
39	0x3e1e81cd	0.15479203
40	0x3e89927c	0.2686957
41	0x3e43c808	0.19119275
42	0xbe8517ae	-0.2599463
43	0x3ec0d12b	0.37659582
44	0x3da22c34	0.07918587
45	0x3ee358a1	0.44403556
46	0x3ea5d66f	0.32390162
47	0x3e9da1ee	0.30787605
48	0x3e5827d6	0.21108946
49	0x3f0a0b77	0.53923744
50	0x3ec88254	0.39161932
51	0x3e6ac7d5	0.22927792
52	0x3e68cc9b	0.22734301
53	0x3d94a437	0.07257884
54	0x3e27110b	0.16315095
55	0x3d050355	0.03247388
56	0x3ec8ee11	0.3924413
57	0x3e07a2ff	0.13245772
58	0x3ebad542	0.36490828
59	0x3ebbfd12	0.36716515
60	0x3e8bed59	0.2732952
61	0x3eaca4fd	0.33719626
62	0x3e912dee	0.28355354
63	0x3ed70ecc	0.42003477
64	0x3ea7beea	0.32762843
65	0x3e338972	0.175329
66	0x3f16350b	0.5867469
67	0x3ea3bacf	0.3197846
68	0x3e9a60e2	0.3015204
69	0x3f015619	0.50522
70	0x3e0d944d	0.13826104
71	0x3dcbd4dc	0.09952709
72	0x3ea8a97f	0.32941815
73	0xbf9e91b0	-1.238821
74	0x3ebad825	0.3649303
75	0x3e7ea15a	0.24866238
76	0x3e820eea	0.25402004
77	0x3e9f1e48	0.3107779
78	0x3ea3745e	0.3192472
79	0x3ea2e692	0.31816536
80	0x3ea8097b	0.32819733
81	0x3ebb0e27	0.36534235
82	0x3eb3b3e5	0.35098186
83	0x3de6b240	0.11264467
84	0x3e441d6c	0.19151849
85	0x3db08063	0.08618238
86	0x3ebc4531	0.3677154
87	0x3f10e8af	0.56605047
88	0x3eafcd0b	0.34336123
89	0x3e084061	0.13305809
90	0x3edbd82d	0.42938367
91	0x3efa1a39	0.4884813
92	0x3e718cc4	0.23588854
93	0xbf9d8d90	-1.2308826
94	0x3e4aaaf6	0.19791779
95	0x3ed25242	0.41078383
96	0x3e3548de	0.17703578
97	0x3e8df0f5	0.27722898
98	0x3ead189f	0.33807847
99	0x3edb354f	0.4281411
100	0x3ea89852	0.3292871
101	0x3ed78b1a	0.42098314
102	0x3ef71608	0.48258996
103	0x3ee70925	0.45124164
104	0x3dbbe420	0.09174371
105	0x3ebc63f9	0.36795023
106	0x3ec7b2e1	0.3900366
107	0x3e4c0f2d	0.19927664
108	0x3e4cf116	0.20013842
109	0x3ef87e22	0.48533732
110	0x3e613fef	0.21997045
111	0x3e045713	0.12923841
112	0x3ea6ee05	0.3260347
113	0x3e51d7b6	0.20492443
114	0x3ed7725e	0.42079443
115	0x3e7dae4a	0.24773517
116	0x3e5e1d2a	0.21690813
117	0x3ea6b3aa	0.32558948
118	0x3e856459	0.26053122
119	0x3ebb3442	0.36563307
120	0x3f0bed3f	0.54658884
121	0x3e9ca29a	0.30592805
122	0x3efd1c14	0.49435484
123	0x3ea2a267	0.31764528
124	0x3ee80e92	0.45323616
125	0x3e9ff354	0.31240332
126	0x3e9b10c3	0.30286226
127	0x3eb153f2	0.34634358

encoder.4.weight f4 [80, 128]
0	0x39fd9a6b	0.0004837097
1	0x3b0f15b9	0.0021833016
2	0x3b36c5e6	0.0027888953
3	0x3adfbb1b	0.0017069312
4	0xbb59ba0e	-0.003322247
5	0xbb941e20	-0.0045201927
6	0xb886f6dd	-6.4356e-05
7	0xbb8f874b	-0.004380142
8	0x3afd9f5c	0.0019349861
9	0xba74ec97	-0.0009343116
10	0x3a912634	0.0011074007
11	0xb9051744	-0.00012692536
12	0x3b2eb4a6	0.0026657968
13	0xbad0f778	-0.0015942892
14	0xba9974e4	-0.001170781
15	0x3b190955	0.002335151
16	0xbb223615	-0.0024751474
17	0x3bab5802	0.005228997
18	0x3a9b5c52	0.0011853075
19	0x3ac96934	0.0015366436
20	0xba990f7c	-0.0011677588
21	0x3b0cb8e0	0.0021472499
22	0x39e07863	0.00042814304
23	0xbbaddbdc	-0.0053057503
24	0x3a8c168d	0.0010687873
25	0x3b0a0162	0.0021057953
26	0xbb5a241b	-0.003328568
27	0xbb904647	-0.004402909
28	0x3a5fc73a	0.0008536462
29	0x3b77bac1	0.0037800523
30	0xbb21eb8d	-0.002470705
31	0x3ac0d5e8	0.0014712187
32	0x3bb5dbed	0.005549899
33	0xb9cf40b1	-0.00039530316
34	0x3b379e49	0.002801793
35	0x3b4e2244	0.003145353
36	0x3a481bcf	0.00076335383
37	0x3b305c9c	0.0026910668
38	0xbb26f864	-0.0025477642
39	0xbae34ca0	-0.0017341562
40	0xba373523	-0.0006988814
41	0xb92e28a3	-0.00016609071
42	0x3bfdc00d	0.0077438415
43	0x3966943d	0.00021989732
44	0x39abec57	0.00032791749
45	0xbb40d258	-0.002942225
46	0xbb643160	-0.003481947
47	0xbb005afe	-0.0019585486
48	0x3a398b96	0.000707799
49	0x3926b68c	0.00015898998
50	0xbb6889d9	-0.0035482554
51	0x3b953fc6	0.0045547215
52	0x3a623bb5	0.0008630113
53	0x38e29ad3	0.00010805358
54	0x3b1e582c	0.0024161441
55	0x3b1bb664	0.0023759836
56	0x3b0baf3f	0.0021314172
57	0x3b84c42c	0.004051706
58	0x39ec50db	0.0004507367
59	0xba6aa616	-0.00089511403
60	0x39ff5237	0.00048698645
61	0xbbb05fdb	-0.0053825206
62	0xbab46bff	-0.0013765096
63	0x3afbfbf0	0.0019224863
64	0x3be249bf	0.006905764
65	0x3b80e8dd	0.0039340095
66	0x3aeed1e4	0.0018220511
67	0x3a25ef14	0.0006329876
68	0x39f3d4e0	0.00046507176
69	0xbb21a398	-0.002466416
70	0x3a975910	0.0011546928
71	0x3a2b5640	0.00065359846
72	0xbb28ed6f	-0.0025776287
73	0xbadea2ce	-0.0016985775
74	0xbbd2b538	-0.0064302944
75	0xb923df56	-0.0001562809
76	0x3ac4a6ed	0.0015003361
77	0xba4f832a	-0.00079159683
78	0xbb46f597	-0.0030358785
79	0x3b5adf33	0.0033397197
80	0xba12ab61	-0.00055949955
81	0xbb1437d6	-0.0022616289
82	0x3bacf1c0	0.0052778423
83	0x3ab23a86	0.0013597764
84	0xbb1cfbd3	-0.002395381
85	0xba93133f	-0.0011220946
86	0x3a36e78c	0.0006977252
87	0x3bccdafa	0.00625169
88	0x3a0b0f3c	0.00053046993
89	0x3b214a3d	0.00246109
90	0x3968f272	0.00022215562
91	0xbb2e73f2	-0.0026619402
92	0x38a888fe	8.036381e-05
93	0x3a714c83	0.00092048215
94	0x3b205c5d	0.0024469115
95	0xbb8e268d	-0.0043380917
96	0xba04384b	-0.00050437887
97	0x399e24ae	0.00030163437
98	0xbb8ef3d0	-0.004362561
99	0x3a29e102	0.0006480367
100	0x3a07728c	0.000516691
101	0xbb4b9c7c	-0.0031068614
102	0xba7bafba	-0.00096010754
103	0x3ad46af1	0.0016206187
104	0x3b0329ce	0.0020013931
105	0xb941f558	-0.00018497312
106	0x3b1aa4f8	0.0023596864
107	0xb8ca4fd2	-9.646978e-05
108	0xbae8834f	-0.0017739328
109	0xb9367734	-0.00017401279
110	0xb8ccb5a6	-9.761313e-05
111	0x3ab46d93	0.0013765566
112	0xbb04f038	-0.0020284783
113	0xbb52d1de	-0.0032168548
114	0xbb8f7f43	-0.0043791845
115	0x3aa552f9	0.0012613229
116	0x3b1ac226	0.0023614257
117	0x3980896f	0.00024516459
118	0x3b0b577f	0.0021261869
119	0x3a0857c5	0.0005201067
120	0xba338718	-0.00068484386
121	0x3a5cc07c	0.00084210164
122	0xba31e893	-0.00067866704
123	0x3b725418	0.0036976393
124	0xbb0fa953	-0.0021920993
125	0xbb98283a	-0.0046434673
126	0x3bb44d15	0.005502353
127	0x3a0d907f	0.0005400255
128	0x3b1409e2	0.0022588898
129	0xba99dd36	-0.00117389
130	0xbb858c3b	-0.0040755547
131	0x3a9997d6	0.0011718224
132	0xba945c99	-0.00113191
133	0xba530b0c	-0.00080506573
134	0x3a8fa664	0.0010959622
135	0x3a79ab47	0.00095241185
136	0xbbab9bb0	-0.0052370653
137	0x3b870db4	0.0041215066
138	0x3b46ce11	0.0030335227
139	0x3b795563	0.003804528
140	0xbb133272	-0.0022460488
141	0xbacab54d	-0.0015465409
142	0xba014fc2	-0.00049328443
143	0xba5a777b	-0.0008333844
144	0x3b81b59f	0.0039584185
145	0x3ab00eb0	0.0013432112
146	0xba8330ac	-0.0010009012
147	0xbbaa6a4c	-0.00520066
148	0x3b88cdf2	0.004174941
149	0x3b7d46aa	0.0038646855
150	0xba90b880	-0.0011041313
151	0xbaafd54d	-0.0013415009
152	0xba5aff40	-0.0008354075
153	0x3b0d1dad	0.002153258
154	0x3a901fee	0.0010995844
155	0x3a0345ac	0.00050076353
156	0xbad62a39	-0.0016339488
157	0xbb3f4b59	-0.0029189198
158	0x3baf9c11	0.0053591807
159	0xb98359e9	-0.00025053255
160	0xbb090896	-0.0020909659
161	0xbb1c32ef	-0.002383407
162	0x3a878b21	0.0010341146
163	0x3a92c560	0.0011197738
164	0x3a121579	0.00055726577
165	0x3b1c1304	0.0023815045
166	0x3b8f97e3	0.00438212
167	0x3b75e8cd	0.0037522793
168	0x3a3c38fb	0.00071801216
169	0x3a3468f8	0.00068820966
170	0xbab01de5	-0.0013436644
171	0x3a8c8000	0.0010719299
172	0xba56754d	-0.00081809313
173	0x3951fc1d	0.00020025713
174	0xbb0c92ce	-0.0021449807
175	0x3b05c983	0.00204143
176	0xbb616b59	-0.003439626
177	0x3a01638f	0.0004935795
178	0x3ad36dda	0.0016130761
179	0x3af588ab	0.0018732747
180	0xbb892024	-0.0041847397
181	0x3acaaf05	0.0015463537
182	0xba7cc222	-0.0009641965
183	0xbb3a7088	-0.0028448422
184	0xbb45b9dd	-0.0030170598
185	0xbb0ddcae	-0.0021646428
186	0x3b0b255b	0.0021231982
187	0x39b45e3e	0.0003440249
188	0x3a7993ca	0.00095206185
189	0x3a608798	0.0008565127
190	0x39caa990	0.00038654776
191	0xbaf44546	-0.0018636368
192	0xbb16faef	-0.0023037752
193	0xbb3b01a0	-0.0028534904
194	0xbb044e78	-0.0020188373
195	0xbab7505e	-0.0013985743
196	0xbb3f7e15	-0.0029219438
197	0xbac694b3	-0.0015150517
198	0xbbc9dedf	-0.0061606015
199	0x3b3f5a8e	0.0029198262
200	0x3a48a890	0.00076545123
201	0x3b288217	0.0025712305
202	0x3b88d697	0.0041759717
203	0x3b14158d	0.0022595853
204	0x3a7963aa	0.00095134473
205	0xb9d3a522	-0.0004036809
206	0x3af15837	0.0018413131
207	0xba7a7db3	-0.0009555474
208	0x3a2c588e	0.0006574475
209	0xbaa0200a	-0.001221658
210	0xbb9c1e71	-0.004764371
211	0xbb1a0d46	-0.0023506447
212	0xba503748	-0.0007942808
213	0xb9bf9a2b	-0.00036545223
214	0x3a37843d	0.0007000601
215	0x3a4a65f5	0.0007720881
216	0x3b3a3799	0.0028414486
217	0xbaacc110	-0.0013180096
218	0xbb761790	-0.0037550665
219	0x3b01f380	0.0019828975
220	0x3aa03976	0.0012224156
221	0x3ad7f00f	0.0016474741
222	0x3a6c4bd2	0.00090139837
223	0xbb3bf1d9	-0.0028678088
224	0x3b193551	0.0023377726
225	0x38c7aaa3	9.520843e-05
226	0x3a088c2f	0.0005208877
227	0xbae2f266	-0.0017314672
228	0xbaf3ac51	-0.0018590783
229	0x3b99e8a5	0.004696923
230	0x389c3eca	7.450355e-05
231	0xbb61314e	-0.0034361663
232	0x39019019	0.00012356079
233	0x3b33466a	0.0027355202
234	0xb92d5e02	-0.00016533586
235	0xbb5a64da	-0.0033324272
236	0xba15c7c6	-0.00057136675
237	0xbb384973	-0.002811995
238	0xbb8034d2	-0.0039125467
239	0x3a906f4c	0.0011019497
240	0xbb3efe8e	-0.0029143426
241	0x3aa2c735	0.0012418987
242	0xbb743c3c	-0.0037267348
243	0xbb3b5c62	-0.0028589
244	0xbae69ee8	-0.0017594965
245	0xbae0d9bb	-0.0017154732
246	0xb9604268	-0.00021387043
247	0xb91e5d9e	-0.0001510293
248	0xbb1475f6	-0.0022653318
249	0xba1d2953	-0.00059952325
250	0x39b9211d	0.0003531062
251	0x3a0c9ebd	0.000536423
252	0xba4e1c0e	-0.0007862457
253	0x3ba3fe4c	0.00500468
254	0x3b863954	0.0040961895
255	0x3b9bbe28	0.004752893

encoder.4.bias f4 [80]
0	0x3acfa4c2	0.0015841948
1	0x3a95f197	0.0011439797
2	0x37d62f70	2.5532878e-05
3	0xbd3dac76	-0.04630705
4	0x3eab3124	0.3343593
5	0xba841758	-0.0010077758
6	0x3869e4d4	5.576464e-05
7	0xbb3b7b21	-0.0028607326
8	0x3d6a5feb	0.05722038
9	0x3e01c822	0.12674001
10	0x39e360f3	0.00043369047
11	0x3a5097dc	0.0007957199
12	0x3df093b3	0.117469214
13	0xb87f527c	-6.0873557e-05
14	0x3aef8536	0.0018273953
15	0x3b76cace	0.0037657502
16	0xbb432cde	-0.0029781382
17	0xbdbe6ee2	-0.09298493
18	0xba47cd39	-0.0007621828
19	0xba23bb25	-0.0006245843
20	0x3b360e50	0.0027779527
21	0x3b8ce616	0.0042998893
22	0xb8818dfc	-6.177646e-05
23	0x3a1c4053	0.0005960513
24	0xb8b3153b	-8.5393396e-05
25	0x3b76852a	0.0037615993
26	0xbd4512da	-0.04811368
27	0xbe008128	-0.12549269
28	0x3a99d7fb	0.0011737341
29	0x3a843a68	0.0010088207
30	0xbe33278b	-0.17495553
31	0x3a2c4c60	0.000657266
32	0xbc97a365	-0.01851053
33	0x3c359b04	0.011084322
34	0xbb6a59cd	-0.0035759092
35	0xbaf6df1a	-0.00188348
36	0xbb3c8b2c	-0.0028769476
37	0x3b2738dc	0.0025516069
38	0x3c2c261b	0.010507132
39	0xbdb8aa56	-0.09016864
40	0x3ab231bf	0.0013595148
41	0x3b9d4b77	0.004800256
42	0x3b6e9fcb	0.0036411162
43	0xbf2029a1	-0.6256352
44	0xbfef46e3	-1.8693508
45	0x3bbecda1	0.0058228527
46	0x3ad59d63	0.0016297515
47	0x3b556310	0.0032560267
48	0xbf95f42d	-1.1715142
49	0xbf9a153e	-1.2037733
50	0x3b92e554	0.0044829044
51	0x3a1b248e	0.0005918228
52	0xbf63535a	-0.8879906
53	0x3b09da0d	0.002103451
54	0x3b48c0a8	0.003063241
55	0x3b0a271f	0.0021080447
56	0x3b3c72fe	0.0028755064
57	0xbfb02e90	-1.376421
58	0x3ba3b9f5	0.004996533
59	0x3b823ba7	0.0039743963
60	0x3b51b5e4	0.0031999284
61	0x3b82b214	0.0039885137
62	0x3b9335b8	0.0044924878
63	0x3b5ac7a1	0.0033383148
64	0x3b724b62	0.0036971201
65	0x3b13636c	0.002248968
66	0xbf8682aa	-1.0508626
67	0xbfac892c	-1.3479362
68	0x3b8a90d5	0.004228691
69	0x3b8f7c89	0.0043788594
70	0xbf64757b	-0.8924176
71	0x3a9d63ea	0.0012007926
72	0xbe94a677	-0.29033253
73	0xbf3d1704	-0.73863244
74	0x3b695eb3	0.0035609424
75	0x3b8ec71b	0.0043572313
76	0x3b0fa46c	0.0021918071
77	0x3b3e1d27	0.0029009075
78	0xbf25a99b	-0.6471192
79	0xbde078c7	-0.109605365

decoder.0.weight f4 [128, 40]
0	0x3b10ed0f	0.0022113954
1	0x3a1f41f4	0.00060751964
2	0x3b235b31	0.002492618
3	0xbe8e9454	-0.2784754
4	0x3ce3f04b	0.027824542
5	0xbb7a7406	-0.0038216128
6	0x3bd140f0	0.006385915
7	0xbba88b93	-0.0051435917
8	0xbe37ca45	-0.17948253
9	0xbeb33da6	-0.35007972
10	0xbbb59f04	-0.005542638
11	0xbb8c1928	-0.00427546
12	0xbbe7ba7c	-0.007071791
13	0xb9b94aa5	-0.00035341564
14	0x3b5a9c37	0.0033357271
15	0x3b222771	0.0024742747
16	0xbbf51f3c	-0.00748053
17	0xbeb9712b	-0.36219153
18	0x3a051f6b	0.0005078229
19	0x3b7c2fe3	0.003848069
20	0x3b4e4ff9	0.0031480773
21	0x3b990172	0.0046693617
22	0xbb02da2c	-0.0019966466
23	0xbb914109	-0.0044328016
24	0x3ae7e981	0.0017693491
25	0xba91c363	-0.0011120852
26	0x3d1ea979	0.03873584
27	0xbebe23fc	-0.3713683
28	0x3bebba59	0.007193845
29	0x3b428c3b	0.0029685635
30	0x3d94567b	0.07243057
31	0x3bb6eb2b	0.0055822334
32	0xbd97d8b4	-0.0741438
33	0x3d8af4b9	0.067849584
34	0x39edcf0c	0.00045358425
35	0xbb9902dc	-0.0046695303
36	0x3b8117fc	0.0039396267
37	0x3a8d3fa1	0.0010776409
38	0x3da1b8b6	0.07896559
39	0xbb9c56c2	-0.0047710845
40	0xbb11e7cb	-0.0022263404
41	0x3a4afb91	0.0007743175
42	0x3c084634	0.008317519
43	0xbd93e8c9	-0.072221346
44	0xbeb7e022	-0.35913187
45	0xba956ec0	-0.0011400804
46	0x3b1cb6f3	0.0023912757
47	0xbbbacf03	-0.0057009473
48	0x3d51325b	0.051073413
49	0x3e699e22	0.22814229
50	0xbb26690b	-0.00253922
51	0x3af05df9	0.0018338553
52	0xbe61d78f	-0.22054885
53	0x3b4c951e	0.003121681
54	0xbbf58d41	-0.0074936454
55	0x3bc6642a	0.006054421
56	0x39b9f51e	0.00035468576
57	0x3e85087a	0.2598303
58	0xbb1c6557	-0.0023864114
59	0xb94f6f09	-0.00019782422
60	0xbb2ce883	-0.0026383705
61	0xba6d7980	-0.00090589374
62	0xb9ef078b	-0.00045591252
63	0xbad744c8	-0.0016423697
64	0xbb6bcea9	-0.0035981333
65	0xb7b7bde0	-2.1903717e-05
66	0x3cf8c6ee	0.030368295
67	0x3d98bfe9	0.07458479
68	0xbb0bd994	-0.0021339403
69	0xb9bba77f	-0.00035792214
70	0xbcf93234	-0.030419447
71	0xba8124f0	-0.0009852927
72	0xbd9be27a	-0.07611556
73	0xbe37bb91	-0.17942645
74	0x3aa49131	0.0012555477
75	0x3c0319ad	0.008001727
76	0xba952e28	-0.0011381553
77	0xbb4999e0	-0.0030761883
78	0x3d86e1f8	0.06586069
79	0xbc1c7866	-0.00955019
80	0x3a202fd1	0.0006110641
81	0xbb39d825	-0.0028357592
82	0x3ab2275f	0.0013592056
83	0xbe1ee2ed	-0.15516253
84	0xbe883395	-0.26601854
85	0x3c0b3c72	0.008498298
86	0x3a57f5f9	0.0008238252
87	0x3a8f3c86	0.0010928072
88	0xbd9cc292	-0.07654299
89	0xbdfe595b	-0.12419387
90	0x3a609fea	0.0008568751
91	0x3aa9e14d	0.0012960822
92	0xbd7c4b76	-0.061595403
93	0x3ba2b8aa	0.0049658613
94	0xba6167ca	-0.00085985346
95	0xbb13a292	-0.002252732
96	0xb91cc959	-0.00014952327
97	0x3ed2e6f3	0.41191825
98	0xbc398b2f	-0.011324688
99	0x3a85e34d	0.0010214836
100	0xbbb8d080	-0.0056400895
101	0x3b835628	0.0040080734
102	0x396bfba8	0.00022505096
103	0x3a1bec21	0.0005947967
104	0x3bc3411c	0.0059586894
105	0x39948645	0.00028328798
106	0x3dfbe8e3	0.12300279
107	0xbde12eeb	-0.10995277
108	0xbaf8a992	-0.0018971434
109	0x3b7fb7fa	0.003901957
110	0x3e086092	0.13318089
111	0xbb4e1df1	-0.0031450952
112	0x3d371b4e	0.044703774
113	0x3d945f01	0.07244683
114	0xbb82ffe7	-0.003997791
115	0xb9a3f64f	-0.00031273297
116	0xbb2414d6	-0.0025036833
117	0x3aef4c53	0.0018256999
118	0xbd274873	-0.040840577
119	0x3bd6e7e3	0.006558405
120	0x3ad50b7e	0.0016254035
121	0x390f1e90	0.00013648928
122	0xbbea1a55	-0.0071442523
123	0xbd3460cf	-0.044037636
124	0xbea769da	-0.32697946
125	0xbbcfc751	-0.006340899
126	0x39925e71	0.00027917654
127	0x3b0a947b	0.002114563
128	0x3ed01272	0.40639073
129	0xbeba13ba	-0.36343175
130	0xbbacf15d	-0.005277796
131	0x3b5eed02	0.003401578
132	0xbce5bd51	-0.028044375
133	0xba953aa0	-0.001138527
134	0x3b9da34c	0.0048107263
135	0xbb06b4d8	-0.0020554569
136	0xbb503e2a	-0.0031775334
137	0xbd506c6c	-0.05088465
138	0x3b9141ca	0.0044328915
139	0xbb6fef6a	-0.0036611208
140	0xbb97a2af	-0.0046275477
141	0xbb71ce54	-0.0036896663
142	0x3b7a084f	0.0038151925
143	0x3c080f57	0.008304439
144	0x3aa39641	0.0012480692
145	0xba8ff64c	-0.0010983436
146	0x3ca9db97	0.020734591
147	0x3d38e523	0.045140397
148	0xbb98c90a	-0.0046626376
149	0xbaa09d4a	-0.0012253907
150	0x3ccea302	0.025224213
151	0x3a6a90fb	0.00089479954
152	0x3e00bdb2	0.12572363
153	0x3d138747	0.036017682
154	0x3b82f18b	0.0039960793
155	0xbb6eb4ca	-0.0036423677
156	0x3ab25ad2	0.0013607389
157	0x3b80c1a9	0.003929336
158	0x3d697d94	0.057004526
159	0x3b52c00e	0.003215793
160	0x3aa5a6a1	0.001263816
161	0xbafe4169	-0.0019398156
162	0x3b717020	0.0036840513
163	0xbd070945	-0.032967824
164	0xbe82e4ef	-0.25565287
165	0xba1595d9	-0.0005706228
166	0x3a281ab0	0.0006412668
167	0xb970e2db	-0.00022972694
168	0xbe57aed2	-0.21062782
169	0x3ebb56f2	0.36589772
170	0xbb70ed8c	-0.0036762683
171	0x3b34b624	0.0027574385
172	0x3e3ce38a	0.18446174
173	0x3ba9651a	0.005169523
174	0x398ce1ce	0.00026871118
175	0xbb02f0b1	-0.001997989
176	0x3aa0c39a	0.0012265325
177	0x3e9b84dc	0.303748
178	0x37a8bd6c	2.0115367e-05
179	0x3a066f2e	0.00051282614
180	0xbbc1c126	-0.0059129177
181	0x3c0e6af2	0.00869249
182	0xbb8f1db3	-0.004367554
183	0xba5f437c	-0.0008516831
184	0x3bd0852e	0.0063635325
185	0x3bdda1cc	0.0067636725
186	0xbd89f2fb	-0.06735798
187	0xbd9eb22a	-0.07748826
188	0xba9cc832	-0.0011961518
189	0xbaaf6496	-0.0013381417
190	0xbda4b4cf	-0.08042299
191	0x3b9b24c3	0.004734607
192	0x3cab0cf9	0.02088021
193	0x3df39004	0.11892703
194	0x3b06734f	0.0020515507
195	0xb9ef3523	-0.00045625222
196	0x3b3787ca	0.002800452
197	0x3bdc801b	0.0067291385
198	0xbbee20be	-0.0072670868
199	0x3a255b78	0.00063078804
200	0xbada9359	-0.0016675993
201	0x3b5a8f71	0.0033349658
202	0xb9943cbf	-0.0002827402
203	0x3d57a782	0.052649982
204	0x3da2fd1b	0.07958432
205	0x3b8b26f1	0.0042465855
206	0xbbb509d2	-0.0055248523
207	0xbbb94d0a	-0.0056549357
208	0xbdfc9ac3	-0.12334206
209	0xbe8c2938	-0.27375197
210	0x3b880f15	0.0041521885
211	0x3b30ac0a	0.0026958012
212	0x3d08805b	0.033325534
213	0x3b3ebd6a	0.0029104599
214	0xbb589680	-0.003304869
215	0xbab37988	-0.0013692835
216	0x39d6a5c7	0.00040940774
217	0xbe94df98	-0.29076838
218	0x3b9ece45	0.0048463666
219	0x3b9ec2de	0.0048450073
220	0x38ac03b8	8.202292e-05
221	0x3af9350b	0.0019013
222	0xbb82e198	-0.003994178
223	0xbaafa832	-0.0013401567
224	0x3b4b848b	0.0031054344
225	0xbab165ff	-0.0013534426
226	0xbd585733	-0.052817535
227	0x3dbbca4c	0.091694444
228	0x3a689d4c	0.0008873537
229	0x3bdd6ecd	0.0067575932
230	0x3dace780	0.084425926
231	0xbb29668c	-0.0025848476
232	0x3d98c94c	0.07460269
233	0x3ed7ad74	0.42124522
234	0x3ad3575c	0.0016124058
235	0x3b0f1693	0.0021833524
236	0xb92590c0	-0.0001578955
237	0x3b19309f	0.0023374928
238	0x3d82774d	0.06370411
239	0x3c3eb599	0.011639976
240	0x3c026d6d	0.007960659
241	0xbbf838a6	-0.0075751124
242	0x3ab2e653	0.0013648964
243	0x3d05d074	0.0326695
244	0xbf6e1596	-0.9300169
245	0x3b83eca8	0.0040260144
246	0xbc0fb395	-0.008770843
247	0x3a5df2ec	0.0008466679
248	0xbeba06db	-0.36333355
249	0xbe33b1f4	-0.17548352
250	0x3ad51f6b	0.0016259974
251	0xbb64ce70	-0.0034913085
252	0xbe04fd85	-0.12987335
253	0x3bf1b1ad	0.007375917
254	0xbbc6d075	-0.0060673305
255	0xbaf7a6fa	-0.0018894367

decoder.0.bias f4 [128]
0	0xbefbabca	-0.49154502
1	0x3de73bda	0.11290713
2	0x3e836cf4	0.25669062
3	0xbe9384d1	-0.28812268
4	0xbd91b3f6	-0.07114403
5	0xbe67256e	-0.22572872
6	0xbe163564	-0.14668804
7	0xbe963d4b	-0.29343638
8	0xbf68edbe	-0.90987766
9	0xbe9ef06f	-0.3104281
10	0xbe251832	-0.16122511
11	0xbe9358c9	-0.28778675
12	0xbe48b913	-0.1960185
13	0xbda206e6	-0.07911472
14	0xbe711620	-0.23543596
15	0xbee55653	-0.44792423
16	0x3ddc50cb	0.107575975
17	0xbd576d35	-0.052594382
18	0x3e33f18c	0.17572612
19	0xbde776cd	-0.11301956
20	0xbea64942	-0.32477766
21	0x3ee6b59f	0.4506044
22	0xbf04b2f6	-0.5183557
23	0xbeff3e12	-0.49852043
24	0xbf0f885f	-0.5606746
25	0xbe890305	-0.26760116
26	0xbccc13af	-0.02491173
27	0xbdaf8b14	-0.08571449
28	0xbe3cfb68	-0.18455279
29	0xbee562dc	-0.44801986
30	0xbede9954	-0.43476355
31	0xbe9f3c3c	-0.31100643
32	0xbea71ad9	-0.3263767
33	0x3e8f7cce	0.28024906
34	0xbb1005e2	-0.0021976163
35	0x3e1d91b3	0.15387611
36	0x3da11445	0.07865194
37	0x3d9859a4	0.074389726
38	0xbecc9b42	-0.39962202
39	0xbc6c197e	-0.014410375
40	0xbea945ef	-0.33061168
41	0xbf016d6f	-0.5055761
42	0xbe5e295c	-0.21695465
43	0xbe7bec4f	-0.24601863
44	0x3dbb278d	0.09138403
45	0xbe5f1f97	-0.21789394
46	0x3e65dadd	0.22446771
47	0xbf233b7b	-0.63762635
48	0xbe7b7268	-0.24555361
49	0x3c713f11	0.014724509
50	0xbe388f65	-0.1802345
51	0xbf4f971a	-0.8108994
52	0xbeb4783f	-0.3524799
53	0xbed15191	-0.40882543
54	0x3cc40299	0.02392702
55	0xbed67bbe	-0.41891283
56	0xbd7932bc	-0.0608394
57	0xbd8293d4	-0.06375852
58	0xbdc6d6b8	-0.09708923
59	0x3e6e8767	0.2329384
60	0xbe2d7a8e	-0.16941282
61	0xbd9b750f	-0.075906865
62	0xbec09f96	-0.37621754
63	0xbe2168ef	-0.15762685
64	0xbe8ce457	-0.2751796
65	0xbe397722	-0.18111852
66	0x3cc4c924	0.024021693
67	0xbe1085cd	-0.14113541
68	0x3cb94e0a	0.02262022
69	0xbdf76776	-0.120802805
70	0xbe2fd9a9	-0.17172875
71	0xbec93eef	-0.39305827
72	0xbb7b908c	-0.0038385717
73	0xbe015922	-0.12631658
74	0xbf18123c	-0.59402823
75	0xbd8ea5e5	-0.069652356
76	0x3e0e2829	0.13882507
77	0xbe65fa84	-0.22458845
78	0xbeea6f35	-0.4578797
79	0xbe9602f9	-0.29299143
80	0x3c929094	0.017891206
81	0xbf007701	-0.50181586
82	0xbd876aed	-0.06612191
83	0xbeb979fc	-0.3622588
84	0x3e7913e9	0.24324001
85	0xbe23a1f1	-0.15979744
86	0xbe56a1b2	-0.2096012
87	0xbedbde3e	-0.42942995
88	0xbe426f15	-0.18987687
89	0xbe1f7fcc	-0.15576094
90	0xbe516c87	-0.20451556
91	0xbe5a4207	-0.2131425
92	0x3e965664	0.29362786
93	0xbec543ad	-0.38528195
94	0xbe544cac	-0.20732373
95	0xbc30db3b	-0.010794456
96	0x3e990092	0.29883248
97	0xbee169d8	-0.44026065
98	0xbf233f7b	-0.6376874
99	0xbe3bd6d9	-0.18343677
100	0xbeb8b4c3	-0.3607541
101	0xbe7e54bb	-0.2483701
102	0xbe8c6ea2	-0.27428156
103	0xbee8cf99	-0.45470884
104	0x3e20c3f7	0.15699755
105	0xbf0cbfca	-0.54980147
106	0xbe7d65d6	-0.24745879
107	0xbf1ff88f	-0.62488645
108	0xbe8fb48b	-0.2806743
109	0xbdef9e40	-0.11700106
110	0xbe16e571	-0.14735962
111	0xbec672d3	-0.3875948
112	0x3f3aa9ed	0.72915536
113	0xbe36523f	-0.17804812
114	0xbe8fd8be	-0.2809505
115	0x3db05279	0.086094804
116	0xbe9511d2	-0.29115158
117	0xbeb5438c	-0.35403097
118	0x3da85a08	0.08220297
119	0xbe47acc6	-0.19499502
120	0xbdaf9136	-0.08572619
121	0xbddec8e5	-0.10878161
122	0xbe8b1e3c	-0.27171504
123	0xbe46e98e	-0.19425032
124	0x3ee3ff59	0.44530752
125	0xbf20de06	-0.6283878
126	0xbe6b1330	-0.22956538
127	0xbe353c57	-0.17698799

decoder.2.weight f4 [400, 128]
0	0xbe824ecc	-0.25450742
1	0x3d648140	0.055787325
2	0x3d69dda8	0.057096153
3	0x3d221eb9	0.03958008
4	0x3d2b2385	0.04178192
5	0xbe7e0d82	-0.2480984
6	0xbd02dbe2	-0.031947978
7	0xbe5a86b7	-0.21340452
8	0xbdf15e9f	-0.11785626
9	0xbd4b341b	-0.04961024
10	0xbd814b7e	-0.06313227
11	0x3db01013	0.08596816
12	0x3e2ea2f5	0.1705435
13	0xbdc17bdd	-0.09447453
14	0xbda73136	-0.08163683
15	0xbd733468	-0.05937615
16	0xbd298509	-0.041386638
17	0xbe296d4e	-0.16545603
18	0xbd9bda66	-0.076100156
19	0x3be50109	0.006988649
20	0xbd85f2e4	-0.06540468
21	0x3d9a5a0a	0.07536705
22	0x3e06c223	0.13159995
23	0xbd62a473	-0.055332612
24	0xbcc8c3c8	-0.024507418
25	0xbcc6cded	-0.024268115
26	0x3ea5cec1	0.32384303
27	0x3e09ce0b	0.13457505
28	0xbe2f3cfc	-0.17113107
29	0x3d2b59d8	0.04183373
30	0x3e6b1073	0.22955494
31	0x3d992344	0.074774295
32	0xbdb00fc1	-0.08596755
33	0x3e194559	0.1496786
34	0xbe5c83bf	-0.21534632
35	0x3e0ccd25	0.13750131
36	0xbe314995	-0.17313226
37	0x3e29af2b	0.16570728
38	0x3e05521f	0.13019608
39	0xbd22b99c	-0.039727792
40	0xbd0242dd	-0.031802047
41	0x3e3040d3	0.17212228
42	0xbdd62413	-0.10456099
43	0x3e3902ed	0.18067522
44	0xbe4997d6	-0.19686827
45	0x3e816c7e	0.25278085
46	0x3d354c0b	0.044261973
47	0xbebbfd81	-0.36716846
48	0xbd26c11d	-0.04071151
49	0xbd533be6	-0.051570795
50	0xbe303e01	-0.17211153
51	0xbe577f5a	-0.21044675
52	0xbe7d3f78	-0.24731243
53	0xbdc39854	-0.09550539
54	0x3de78510	0.113046765
55	0x3e7549c6	0.23953924
56	0x3ca5af6a	0.020225246
57	0x3e0043c7	0.12525855
58	0x3c8b75b8	0.017023906
59	0x3d61ccda	0.055127002
60	0x3dd9e0f6	0.10638611
61	0x3dec7740	0.11546183
62	0xb9a036ff	-0.00030558553
63	0xbd5ff295	-0.054674704
64	0xbd35bcbe	-0.04436945
65	0xbd777eee	-0.060423784
66	0x3e16ccdb	0.14726584
67	0x3db80031	0.089844115
68	0xbe051aa2	-0.12998441
69	0x3ddb7191	0.107150204
70	0xbcbe99e4	-0.02326674
71	0x3e092453	0.13392763
72	0x3de7e46f	0.11322867
73	0xbcfa1379	-0.030526863
74	0xbda2d469	-0.0795067
75	0xbd978be1	-0.07399727
76	0x3e081bb6	0.13291821
77	0x3dfb9c3b	0.12285658
78	0xbdd086ad	-0.10181937
79	0xbd3d57ec	-0.046226427
80	0x3ce624a0	0.028093636
81	0xbeab471b	-0.33452687
82	0x3c9d0c05	0.01917077
83	0xbde86bee	-0.11348711
84	0x3dc59cb7	0.096490316
85	0xbe942b93	-0.28939494
86	0x3d79b89a	0.060967065
87	0xbda0c148	-0.078493655
88	0xbb8e159c	-0.004336072
89	0xbd5058cc	-0.050865933
90	0xbbb8c58e	-0.0056387847
91	0x3d695b3d	0.056971777
92	0x3da7a24f	0.08185255
93	0xbe455a3f	-0.19272707
94	0x3cb205fe	0.021731373
95	0xbd9e7d10	-0.077386975
96	0xbdb51680	-0.08842182
97	0xbde5a7c2	-0.11213638
98	0xbe28515d	-0.16437288
99	0x3d22f662	0.03978575
100	0x3e0a8851	0.13528563
101	0xbd7c1003	-0.061538707
102	0x3e442e76	0.19158348
103	0xbd97a9fa	-0.07405467
104	0xbe799d56	-0.24376425
105	0xbe99317f	-0.29920575
106	0x3e5ccda5	0.21562822
107	0x3e2329bb	0.15933888
108	0x3e12151f	0.1426587
109	0x3da9a566	0.082835004
110	0xbe07fc73	-0.13279895
111	0x3d382ad8	0.044962734
112	0xbdad8190	-0.08471978
113	0x3e3b838f	0.18311904
114	0x3c147564	0.009061191
115	0xbc8a8da7	-0.016913248
116	0xbd7220ee	-0.059113435
117	0x3d9f7b21	0.07787157
118	0x3e007515	0.12544663
119	0x3d52e6d2	0.05148966
120	0xbcc5cacb	-0.02414455
121	0xbd71db1c	-0.05904685
122	0xbdd9e8aa	-0.1064008
123	0x3db6c6fc	0.08924672
124	0xbe34dfe5	-0.17663534
125	0xbd5d1488	-0.05397466
126	0x3e7a8a32	0.2446678
127	0x3d8faf99	0.070159145
128	0x3dd4ed06	0.10396771
129	0xbeceaa67	-0.40364382
130	0xbddebc6f	-0.108757846
131	0xbe6e0411	-0.23243739
132	0xbc4e027e	-0.012573836
133	0x3eb171a6	0.3465702
134	0xbec67fab	-0.38769278
135	0xbde8a696	-0.11359899
136	0x3e598ee7	0.21245919
137	0xbe570d59	-0.21001185
138	0xbe4091aa	-0.18805566
139	0xbea95308	-0.3307116
140	0x3d81999f	0.06328129
141	0x3dfc34c4	0.12314752
142	0xbea2b0ac	-0.31775415
143	0xbb6e606f	-0.0036373397
144	0x3dc6579e	0.096846804
145	0xbe60b6d8	-0.2194475
146	0xbebf5d89	-0.3737605
147	0xbd8e850d	-0.06958971
148	0x3e548294	0.20752937
149	0xbea71611	-0.32634023
150	0xbb8c539c	-0.004282428
151	0x3ea1ffba	0.31640416
152	0x3e30462e	0.17214271
153	0xbca3c4d1	-0.01999131
154	0x3ec6c38f	0.38821074
155	0xbe40da0a	-0.18833175
156	0xbe5465c2	-0.20741943
157	0xbe43d5eb	-0.19124572
158	0x3da9a75c	0.082838744
159	0x3e03e4d8	0.12880266
160	0x3e4cb241	0.19989873
161	0xbe33440b	-0.17506425
162	0xba54f475	-0.0008123585
163	0xbe918ef1	-0.28429368
164	0xbe809e59	-0.2512081
165	0xbee61550	-0.44938135
166	0xbdcd192e	-0.10014568
167	0x3d161b0b	0.036646884
168	0xbdd7346f	-0.10508048
169	0x3d5b835d	0.053592075
170	0xbecf46a0	-0.4048357
171	0x3ea76c71	0.32699922
172	0x3dc9cb80	0.09853268
173	0x3ddc9518	0.10770625
174	0xbf0493da	-0.51788104
175	0xbd7bd69a	-0.061483957
176	0xbe453d1c	-0.19261593
177	0x3ea29f8f	0.3176236
178	0xbe147a7d	-0.1449985
179	0xbef7778c	-0.48333395
180	0xbc43d195	-0.011951824
181	0xbdfa7dd3	-0.1223103
182	0x3da1d63c	0.0790219
183	0xbd5ff967	-0.054681208
184	0xbd9ff8bf	-0.078111164
185	0x3e60ed60	0.21965551
186	0xbd8c0463	-0.06836774
187	0x3e95ece9	0.2928231
188	0xbe31a24d	-0.17347069
189	0x3c9ebae6	0.01937623
190	0xbd9c0626	-0.0761836
191	0xbd9db9fb	-0.077014886
192	0xbdb8c25b	-0.09021445
193	0x3d9099ea	0.07060607
194	0x3dfe8ec6	0.124295756
195	0x3e8995b7	0.26872036
196	0x3e25acca	0.16179195
197	0x3e9d1e46	0.3068716
198	0x3e31aa93	0.17350225
199	0x3b5305b2	0.003219944
200	0xbd40a85f	-0.04703557
201	0x3db35ba4	0.087577134
202	0x3c45b982	0.012068154
203	0xbe90138e	-0.2813992
204	0xbcb38d2d	-0.021917904
205	0x3e110676	0.14162621
206	0x3def003b	0.11669966
207	0xbbfe94b4	-0.0077691916
208	0x3d482b6c	0.048869535
209	0x3cd3cb56	0.025853794
210	0x3e49c1a1	0.1970277
211	0x3e18241f	0.14857529
212	0x3e14ec71	0.1454332
213	0xbe734795	-0.23757775
214	0xbda6726d	-0.08127294
215	0xbd27dfb8	-0.04098484
216	0xbd85b629	-0.06528885
217	0xbea49175	-0.32142225
218	0xbe4f303a	-0.2023324
219	0x3e2422d2	0.16028908
220	0x3da25372	0.07926072
221	0x3e830894	0.25592482
222	0xbe54e300	-0.20789719
223	0xbee135d6	-0.43986386
224	0x3e942dfd	0.28941336
225	0x3e259d13	0.161732
226	0xbc01d8d9	-0.007925236
227	0xbe74becf	-0.23900913
228	0x3ec3191a	0.38105088
229	0xbe5f16f6	-0.21786103
230	0xbeafb797	-0.34319755
231	0x3e673134	0.22577363
232	0x3d327f34	0.04357834
233	0xbf529dc7	-0.82272
234	0x3e0b08c6	0.13577566
235	0xbebed889	-0.37274578
236	0xbd8acd48	-0.067774355
237	0xbc745418	-0.014912628
238	0xbe549c9f	-0.20762871
239	0x3df7ab44	0.12093213
240	0xbe939164	-0.28821862
241	0xbd884111	-0.066530354
242	0x3d2336e4	0.03984727
243	0xbe1f3dc4	-0.15550905
244	0x3eb6161c	0.35563743
245	0xbd93e1d5	-0.072208084
246	0x3e7d027c	0.24707979
247	0xbe257c98	-0.1616081
248	0xbe67f353	-0.22651415
249	0xbeca86d8	-0.39556003
250	0x3e0612e2	0.1309314
251	0x3e1c577d	0.15267749
252	0xbc9de270	-0.019273013
253	0xbd97644a	-0.073921755
254	0x3d77ae01	0.060468677
255	0x3e3754d1	0.17903449
