networks/vae_channel_beta1e-05_epoch100_latent_dim40_from_train_py.pt (torch, 890557 bytes, 12 tensors)

encoder.0.weight f4 [400, 128]
00000000: 2408 a1bd 7bfa 813d 6554 9c3c e3e4 08bd
00000010: c244 cb3b 24cb da3d ef31 813c 2c92 eebd
00000020: 7253 5fbc 4c28 cabb 2bc7 e93c 4c0d 40bd
00000030: db87 d73b 180b 46b8 61d6 b1bd 927b dd3d
00000040: 017b f43c acf2 f4bc b513 053d 7836 b33d
00000050: fe44 053d 7711 903d 1c26 3ebe 0309 20bc
00000060: 8e13 dfbd 987a 83bb a5c9 01bc c9b5 8dbe
00000070: ae7d c43d b2b8 94bd 1a0f 213e 6c8d 52be
00000080: 4437 16be 549e 963e 33cd b0bd bc5a 56bd
00000090: dceb 88bc 2302 3abd ec44 d5bd b8e3 353d
000000a0: e012 38bd 96bf ad3d af68 bbbd 7df6 a6bd
000000b0: c244 be3d aaa9 993c 5cde c83d 3901 a63d
000000c0: 4203 40bd aef9 40be 8a64 003e fede a13b
000000d0: e617 303e 0811 8a3b 7418 bcbd 7e44 5b3e
000000e0: ce6f 623e c4e9 6bbd 0d16 a7bc 42cb 1f3e
000000f0: 976b 093e 9e20 303e 94fd 383c 2d4c 5c3d
00000100: 844b a53d b049 b53d 62de 443e a4f0 d73d
00000110: 66e6 4dbe 141e 32bd b40b 273d 11cd 69bb
00000120: 5fd8 383d 2e21 d8bc 84a6 50bc 3b7f 0e3e
00000130: 0502 563d 0653 abbd 6b74 cbbc 120a 6a3e
00000140: 0e64 5f3d 1117 fd3e a49b 293e b431 7c3d
00000150: 8cdc 66be 73bd 4f3d c97d 9ebd c195 8d3d
00000160: 2996 52be 6119 7cbe de5b 813e 8fcd 853d
00000170: a274 58be 4217 1dbd 6e55 6abe 826b 86bb
00000180: c70b b0bb 390a d0bd 4fec 1f3e 35ee 33bb
00000190: dbfd e63d af8a 2a3e 21ea d7bc b53a 78bd
000001a0: 0298 fcbd 7e9e ce3c 4192 63be a127 c73d
000001b0: 0714 97bd a12b 58be 8f14 f8bd f743 1cbe
000001c0: 98ad 0e3e d65e a63d bada 07be 40d1 ae3b
000001d0: 48a4 a8bd ad09 3f3d 1e68 49bd 789e 76be
000001e0: e369 03be 5208 cabc 5932 643e 6d8d 7d3d
000001f0: 3bab 5ebb f3a0 623d 414d aabd c162 b43d
00000200: fab3 853d b58f e2bd 0e56 c73c 0697 c6bb
00000210: acfd 4e3e 8f99 833d d31b a13c 614e ab3e
00000220: c134 a0bd 0f93 153d 9282 873d 65e0 033c
00000230: 153c 1fbd 4efa d63d 0a06 023d 4825 61bd
00000240: 5e5b f83d 5914 8f3d b544 81bc b941 623d
00000250: a4b8 0b3e 3df5 b23c 9f04 d73d 0784 113e
00000260: 0878 1fbd eca3 2e3e aaaf 89bc 9bb4 16be
00000270: 9a04 e93d 8e4b 353d 2df1 1abe 3307 443e
00000280: 6281 1ebe 12fb 73be 9f91 20bb 0523 de3c
00000290: 480d d33d ff4b 3bbe b969 2e3e 3da0 9a3d
000002a0: f3c9 a6bd 165a a93c f4de 9bbd 0ec6 32be
000002b0: f094 3f3d add9 753e 0463 0dbe 5172 9fbd
000002c0: 2967 a43d 7167 3bbd b8b7 1ebd d15f 123e
000002d0: 462e 25bd d8c3 e73b 840a a3bc 7d95 6cbd
000002e0: eeb4 3dbd 5b05 923c b855 71be d8a1 72bd
000002f0: beb0 1b3e 7edc 61be fde7 acbc 9142 93bd
00000300: 8730 153e 84b5 7dbd fcc0 0ebd b780 80bd
00000310: d9c0 dfbc ef79 1a3d d7f0 42bd d93f 7cbd
00000320: e392 fb3d b073 00be a5c7 8fbd 8816 f8bd
00000330: bdea 8e3e 3780 6cbe 3140 b6be 36a8 54bd
00000340: 6486 48bd e657 cebb 312b 1f3e 940b 5dbe
00000350: 07ae 70bd a0ee 083e 4683 83bd 0bc7 9abd
00000360: b896 0e3d 9711 bdbd 2dd5 f83d 14aa e63d
00000370: 0821 83bc 0212 2a3d dd35 ffbc 5884 09be
00000380: 0187 e83d 26c3 503c fa6d 113c 9f13 ccb9
00000390: 764a 013e b4ba acba a95e 55be a9c2 473e
000003a0: e9cf c43d f8c2 91bd 9cd7 9dbd 922a 433e
000003b0: 8102 2a3e d53a 3abc 26d1 ebbd 6178 b8bb
000003c0: 42d7 65be d532 a7bd 9722 973c 08dc 6f3b
000003d0: baa7 123e 0a3c d33c 8083 ee39 3b37 803e
000003e0: a802 343c e95d 3abe 56ec 813e c590 343d
000003f0: 4574 133e fd00 fd3d 2756 883d 89d9 c3bc
-0.07862881 0.063466035 0.019083211 -0.03342141 0.006203265 0.10683277 0.01577088 -0.11648974
-0.013630735 -0.0061693545 0.028537354 -0.04688768 0.0065774745 -4.721721e-05 -0.08683468 0.10814585
0.02984381 -0.029900871 0.032489497 0.087506235 0.0325365 0.07034581 -0.18569225 -0.009767774
-0.10892402 -0.004012417 -0.007921611 -0.27677754 0.09594284 -0.0726179 0.15728417 -0.2056176
-0.1466952 0.2941767 -0.08632889 -0.052332625 -0.016714029 -0.045412194 -0.104135364 0.044406623
-0.044939876 0.08483808 -0.09150826 -0.08152483 0.09290458 0.01875766 0.09808037 0.08105702
-0.046878107 -0.18845245 0.12538353 0.004939913 0.17196617 0.004213456 -0.091843516 0.21412846
0.22112963 -0.057595983 -0.020396257 0.1560488 0.13419949 0.17199942 0.0112909265 0.053783584
0.08071044 0.088519454 0.19225457 0.105439454 -0.20107421 -0.043485716 0.040782645 -0.0035675208
0.045128223 -0.026383009 -0.012735013 0.13915722 0.05224802 -0.08365445 -0.024835786 0.22855404
0.05453878 0.4943166 0.16563278 0.061570838 -0.2254507 0.050717782 -0.07738835 0.06913329
-0.20565094 -0.24619056 0.25265402 0.06533348 -0.21138242 -0.03835226 -0.22884151 -0.0041021714
-0.0053724977 -0.101582 0.15617488 -0.0027455215 0.11278888 0.16654466 -0.026356759 -0.060602862
-0.12333681 0.02522206 -0.2222376 0.097243555 -0.07376867 -0.21110393 -0.12113296 -0.15260302
0.13933408 0.08123557 -0.13267031 0.005335003 -0.08234459 0.046640087 -0.04917156 -0.24083889
-0.12833361 -0.02466217 0.22284831 0.061902452 -0.0033976573 0.055329274 -0.08315516 0.08807898
0.065284684 -0.11062566 0.024333026 -0.006060484 0.20213956 0.06425773 0.019666588 0.33458236
-0.07822562 0.0365172 0.06616701 0.008049105 -0.038875658 0.104969606 0.03174404 -0.054967195
0.12126802 0.06986303 -0.015779832 0.05523846 0.13644654 0.021845454 0.10498928 0.1421052
-0.03893283 0.17054719 -0.016807396 -0.14717333 0.11377831 0.044261508 -0.15131064 0.19143371
-0.15479043 -0.23826244 -0.002450086 0.027116308 0.103052676 -0.18290709 0.17032517 0.07550094
-0.081439875 0.02067284 -0.07610884 -0.17458364 0.046772897 0.24008818 -0.13807303 -0.07785476
0.08027489 -0.045752946 -0.038749427 0.14294364 -0.040327333 0.007072907 -0.019902475 -0.05775975
-0.046315126 0.01782482 -0.23567855 -0.059236377 0.1520414 -0.22056767 -0.021106714 -0.07190431
0.14569293 -0.061940685 -0.034852013 -0.062745504 -0.027313637 0.03771394 -0.047592964 -0.061584327
0.12283876 -0.12544131 -0.07020501 -0.121136725 0.27913466 -0.23095785 -0.3559585 -0.05191823
-0.04895629 -0.0062970994 0.1554382 -0.21586448 -0.058759715 0.13372278 -0.06421523 -0.07557496
0.034811705 -0.092318706 0.12150035 0.112629086 -0.016006961 0.04152108 -0.031153614 -0.13429391
0.11353875 0.0127418395 0.008876318 -0.0003892453 0.12626061 -0.00131782 -0.20836891 0.1950785
0.09609968 -0.071172655 -0.0770714 0.19059208 0.16602518 -0.011366566 -0.11514501 -0.0056295847
-0.22445396 -0.08163992 0.01844911 0.0036599655 0.14321795 0.025785465 0.00045492873 0.25042138
0.010986961 -0.18199886 0.25375623 0.044083375 0.14399822 0.12353704 0.06657057 -0.02390744

encoder.0.bias f4 [400]
00000000: 9bd0 68bc 3de4 0fbd 4b0b 0abe ac3b 13bf
00000010: a40b f83d 028f d6bd 91e6 83be 38d1 f43d
00000020: 7d61 68be 5809 643d 49f3 f5bd 22a4 103e
00000030: 0a9c 9ebd fff1 a83e 3fee 113e 06d2 18be
00000040: 2fe7 bfbe 20a0 05bf da35 51be ca60 013e
00000050: df43 ae3e 4921 ad3d bcf1 cb3c e305 28bd
00000060: e612 f8bd 4bd8 22bf 4f97 c93e 1af5 5abe
00000070: 4d00 3b3e 52d6 8c3d 0278 d03e e037 bf3d
00000080: b287 c23d 6c6e a9bd d973 08be 60f9 a3be
00000090: 7ddb 043e d127 ee3c 559f 98bc 80a2 55be
000000a0: f59a f7bd fc53 db3e 84f6 54be 18b0 9a3e
000000b0: 0739 f83d 82af e83d 164a 29bd 42b2 55be
000000c0: fa7a 5e3d eb4c b73e dbbf aebe fe6b 853e
000000d0: 1af6 053d 9d10 413e 51b5 66bb 7636 e5be
000000e0: 0ad9 27bf 1b0a 3fbd 1584 c3be cd1b fe3d
000000f0: 2a07 c8be 2286 813c 4f4e a6bd 5ddf ab3d
00000100: 8195 30bd 9b6a 4d3c 8b47 c0be b3d3 283e
00000110: b8cc fa3d fcbd f7bd c0e8 8c3e 7fa5 813e
00000120: 102e 893d 36a7 90bc 378c e1be 60e0 00be
00000130: 15d7 a8bd 492b 873e 5c39 64bf a57d bcbe
00000140: a427 943c e0a6 d83d f49c 0fbf 3d60 783e
00000150: f26d c83d 0739 853e c62c 00bf 3a9c 8cbe
00000160: 4cd2 62be c618 20be c99d ecbe 9336 253e
00000170: 7911 f03d 4a28 563e 0e83 30bf 67d1 27bf
00000180: e933 a33e 770b b4bc 03aa 97be a9e3 a1bb
00000190: bc36 3abe 1ecf 973e 876b 013e 7639 6ebb
000001a0: 2d07 b53e 7a9b 84be bf4c 893d 3197 b0be
000001b0: a6d7 9f3e 2154 a73c 45e2 a5bc 7dcd 483d
000001c0: 99c3 693d a76e 43bf 4cee 0e3e 1bcf b33e
000001d0: a810 573e 0026 bebe 35b3 853e 0e59 7a3e
000001e0: e2d5 0f3e c1ea f3bd 3502 87bf 5b5e 17bf
000001f0: 657f 0c3e 995e 303e cf06 afbd aedd 6b3e
00000200: d262 8bbd f5b2 1d3e a8c0 36bf 3ce9 a33d
00000210: 1901 783e 3a09 673e a232 18bd 5ca6 a53d
00000220: ebad 56be 1f56 dd3d b436 7a3d aac3 acbd
00000230: 72e6 093e 5286 f83e 397c d13e 5585 93be
00000240: d7e3 3d3e a9d8 b6bd ecf5 13bf eb6d 47bd
00000250: 3b05 513d 4a54 1abd 31a7 aabe 6a3c 1a3e
00000260: 8953 6c3d 1412 583e 2ce5 55be 8b1d 4d3e
00000270: e9c8 a4b9 ff23 0ebe 2481 b0be 803d c03e
00000280: 8ae6 25bf a7d9 6c3e 521d 5fbe b908 8b3d
00000290: 5dd8 37bf cdb8 c03d d16d c53d edaa 0f3e
000002a0: f8d0 45bf 3ec7 7e3e f6a1 2c3e 1d50 c2be
000002b0: 7977 3f3e 70f7 5b3e 1b00 593e 5e3f 17bd
000002c0: 7297 54bd ee57 ee3d 532e b23e 8937 803c
000002d0: 1179 60be 2bbe 33be f958 e2bd df92 cb3e
000002e0: a5f3 2b3e 119d 98bd 33b6 38bf 4b10 75be
000002f0: 9c9c 303d 9060 813d 6182 c43e c931 b23e
00000300: 3f46 893d 1cd4 af3d 00fa 613e db0f 0dbe
00000310: 7d5c 64be 5555 54be 9e93 db3d f0cf afbc
00000320: 30b7 e6be 209c ccbd c25f d9bd c279 27be
00000330: 7730 9c3e 992e 64be 2a51 b93e c63d 2f3e
00000340: 2b32 a73d 5de4 bcbd 6edd d9be e669 67bf
00000350: ad97 e63d b9f7 e63c 159a b73e f8c5 2f3e
00000360: c84a 323e 9c30 91bd 9979 c53e 464f 0dbf
00000370: ecdf bdbd d81a aa3d 1454 d93d 9fed 0cbf
00000380: b555 43bf f4bf f6bd c05c 68bf 4a40 053d
00000390: 9427 023e db5e fd3e 5687 293d ec72 fabd
000003a0: 938b b73e 28a9 18bf 3e02 5e3c 4a71 9d3e
000003b0: d55d 973e f980 9e3e a8cf 973d e4ac 4cbf
000003c0: 5731 083d 8bb1 bc3d 8039 1f3e 2b2a 563e
000003d0: 2401 2cbf be76 743d d77e 53be 7369 2cbf
000003e0: 0810 1d3e 9223 95bd 274f 303e cd7a d2be
000003f0: 56cb 433e f371 003e d401 fb3c ee97 0abe
-0.014209892 -0.035129774 -0.1348087 -0.5751293 0.12111595 -0.10476495 -0.25761846 0.11953968
-0.22693439 0.055672973 -0.120092936 0.14125112 -0.07744606 0.32997128 0.1425104 -0.14923868
-0.37481067 -0.52197456 -0.20430699 0.12634578 0.34036157 0.08453614 0.024895541 -0.04102124
-0.121129796 -0.63611287 0.39373252 -0.21382561 0.18261833 0.06876816 0.4071656 0.09336829
0.09498538 -0.082730144 -0.13325442 -0.32026196 0.12974353 0.02907172 -0.018630663 -0.2086277
-0.120901026 0.42837512 -0.20797163 0.30212474 0.12120252 0.113616005 -0.04133042 -0.20868781
0.0543165 0.3580087 -0.3413075 0.26058954 0.032705404 0.18853994 -0.0035203288 -0.44768113
-0.6556555 -0.046640497 -0.38186708 0.12407646 -0.39067966 0.01581103 -0.08120405 0.083922125
-0.043111328 0.012537624 -0.37554583 0.16487007 0.12246078 -0.120967835 0.27521324 0.25321576
0.06698239 -0.017657857 -0.44052288 -0.12585592 -0.08244149 0.2640021 -0.89150023 -0.3681461
0.018085308 0.10578704 -0.56098866 0.24255462 0.097865954 0.2602007 -0.5006832 -0.2746294
-0.22150534 -0.1563445 -0.4621413 0.161341 0.11722083 0.20913807 -0.68949974 -0.655539
0.31875542 -0.021978123 -0.29621896 -0.0049404693 -0.18184942 0.29650205 0.12638675 -0.0036350167
0.35357037 -0.2589987 0.06704091 -0.3449035 0.31219214 0.020425858 -0.020249495 0.049024094
0.057071302 -0.7634072 0.1395809 0.35118946 0.21002448 -0.37138367 0.26113287 0.24448034
0.14046434 -0.1191001 -1.0547549 -0.5912835 0.13720472 0.17223586 -0.085462205 0.23033783
-0.06805958 0.15400298 -0.7138772 0.0800347 0.24219169 0.22562113 -0.037157662 0.08088371
-0.20964782 0.10807442 0.061087325 -0.084357575 0.13466814 0.48539978 0.40915087 -0.28812662
0.18543945 -0.089280434 -0.5779712 -0.04868881 0.05103038 -0.03767804 -0.33330682 0.15062109
0.057696853 0.21100646 -0.20888203 0.20030801 -0.00031430207 -0.13880919 -0.34473526 0.3754692
-0.648049 0.23129903 -0.21788529 0.06788773 -0.7181452 0.09410248 0.096400864 0.14030047
-0.77271986 0.24880692 0.16858658 -0.37951747 0.18697919 0.21481109 0.21191446 -0.036925666
-0.051902242 0.11637865 0.34800968 0.015651481 -0.21921183 -0.17553012 -0.110521264 0.3976049
0.16792162 -0.07451833 -0.72153014 -0.23931997 0.043118104 0.06317246 0.3838072 0.34803608
0.067028515 0.085853785 0.22068024 -0.1377558 -0.22300906 -0.20735677 0.10721515 -0.021461457
-0.45061636 -0.09990716 -0.106139675 -0.1635504 0.30505726 -0.222834 0.36194736 0.17113408
0.08163866 -0.09223244 -0.4255175 -0.90395963 0.112593986 0.028194295 0.35859743 0.17165363
0.1741134 -0.0708935 0.38569334 -0.55199087 -0.09271225 0.08305901 0.1061174 -0.5505008
-0.76302654 -0.12048331 -0.90766525 0.032532014 0.1271041 0.4948643 0.041388832 -0.12228951
0.35848674 -0.5963311 0.013550339 0.30750495 0.29563776 0.30957773 0.07412654 -0.7995131
0.03325018 0.09213551 0.15549278 0.20914523 -0.6718924 0.059683554 -0.20653854 -0.673484
0.15338147 -0.07282175 0.17217694 -0.41109315 0.19120535 0.12543468 0.03064052 -0.13534519

encoder.2.weight f4 [128, 400]
00000000: 0a9e a13b 4009 983d f33c 81bd 61ee cc3d
00000010: 2885 0e3d 1472 56bc 1bc0 713d 11a9 1ebd
00000020: 297c a8bc 75ca 22bd b21b 1e3e 03b4 99bd
00000030: dfbf 1b3e 750e fa3c d7f7 7b3b 1501 d3bc
00000040: 105a b8bd 11c5 a73d 7162 8c3d e78d f33c
00000050: b791 c63b f136 43bc 738d e93c 2715 bf3c
00000060: 2dfa fa3d ff53 103d 6b62 aabd 22be 1cbc
00000070: ed4d 813c 003e 6f3d 8918 46bd f363 f03b
00000080: 5d30 473d 61e1 9fbc bf70 72bd dff8 8b3d
00000090: f49e 9f3c d7b8 d83d ef81 9f3c 3720 7d3d
000000a0: a231 1bbc 3cb1 043e 912a 9d3b 8de6 dd3d
000000b0: 4f57 493d 7b50 783b 5562 d63d f1a1 03bd
000000c0: 3a9d 3b3d b98b a7bd 868d 1dbe ffa6 eb3c
000000d0: da40 b4bc 8e6f 8dbc 1c2d 9d3d 004e c73d
000000e0: 4390 d23d d407 11bd a48e 293d 90ec 493d
000000f0: a610 6b3d ade8 593c 5ead 393c ae38 00be
00000100: e294 f83c f093 7abc c5b8 96bc b174 973c
00000110: c9fb 4d3d c436 923c 9246 6bbd 195b 623d
00000120: 3be7 333e b07e 8cbd 56a9 923d 5e64 02bd
00000130: d33c 523d 910f e2ba d85d bc3b 716c 653d
00000140: d873 b13c 9ec8 683c fdad 4bbd b2dd 21bc
00000150: 27c5 2bbd 034f 04bc f45e 1cbc 9e27 80bc
00000160: d9e1 a23d d06e a53d 368a 5d3c 5e57 f73b
00000170: e190 69bd 2e08 39bc 9507 dbbd caa6 dbbd
00000180: 148c 65bc bbd2 dd3c 8060 51bb 2d47 5e3b
00000190: 17e5 9d3c e660 a33c 4a4e aeba 803e e43c
000001a0: 6829 173d 4c52 52bc ccdd 823d 0a18 233c
000001b0: aa97 673d a62e 693d 37d9 ddbd 84f2 6f3c
000001c0: e965 8dbd 59b4 cfbc 237f ce3d b58b 943d
000001d0: 4740 273c c4ac 163d 6a43 013d 9b8d b93d
000001e0: aee0 08bd a1d6 cfbd 9687 b0bd a046 e9bd
000001f0: f23b afbc ac24 2d3c 5536 293c 9bb6 963d
00000200: a9c6 17be 1313 113e 0b06 0e3e 0b3a 9d3d
00000210: 582a 083c 5162 b23c 17f5 07bd 91ad a03d
00000220: 2e3f c23c e0a7 4a3d 5d0a 293d 6192 00bd
00000230: afca 11bd 082a 603c fe3e 033e 5422 873d
00000240: f879 c2bc 33fc 063e 2eab f8bc 1d80 403d
00000250: 2756 dd3c 5cac 5c3a dedb 763d b070 0f3d
00000260: ed0b 913d 7e3b db3c 944e b5bc 5420 183e
00000270: 4d94 d13c 9b5c 753d 6e76 60bd bb56 10bd
00000280: fc9e b93d 2b0f cebc caf0 4a3c 72f5 ddbc
00000290: b7a8 193e 21b7 183c 7ef1 2abd d5d3 80bd
000002a0: c7bb 3dbe afa5 e23d d4a3 cebd 27af 4c3e
000002b0: d82f d03d 87ec 27bd 6c64 20bd 32f5 d83c
000002c0: 01c6 d8bc 5922 743d 3111 aebc fb8c 7b3c
000002d0: 3a87 203c 67fc 303d 13d7 173d 77a3 b4bd
000002e0: 16eb ea3d f564 1a3d 0a98 d73d c84c 483c
000002f0: a592 393d 9eb4 95bc e54b 00bd 1ef8 95bd
00000300: 0267 503d f796 2a3c f5c2 863d 4bf3 2dbc
00000310: aa40 c0bd 583d 5c3d c30e 4bbd 00e2 4a3d
00000320: 16ec fdbc a715 543d 2f43 1b3d 4c48 1aba
00000330: 472f a5bd 9322 0a3e 260a a0bc e92d 1dbd
00000340: 5a37 e83c 7b91 adbb 3c7b fd3d c246 fc3d
00000350: 2ffd c8bd 7d74 813d 8123 333d e21d 7d3d
00000360: 8799 77bd b00c 0ebc df53 b8bd d00e 97bd
00000370: 9053 553d 1510 4d3d 012e ae3a 66bf bfbb
00000380: 6483 a4bd 6f21 593c d914 06bd f519 3b3d
00000390: 4291 153d 9de8 25bd facd a63d df8e 043c
000003a0: c0e8 84bd 6316 ad3d d390 db3c 3489 acbd
000003b0: 0ad2 c23b 47db 5c3d fdc4 6a3d 2195 8fbc
000003c0: 4294 353e 4bdf 6e3c 52c2 4bbc 70ff a93b
000003d0: 415d 13be 52dd 343d 387f c43b 91b4 fabd
000003e0: e8af 4a3b 071b b4bd d733 dabc f305 bc3d
000003f0: ec91 69bc 6a9a cc3d 9466 1ebd f6f8 893d
0.00493217 0.07423639 -0.06310453 0.10006405 0.034794956 -0.013088722 0.059021097 -0.038735453
-0.020567017 -0.03974386 0.15440252 -0.07505038 0.15209912 0.030524472 0.0038447285 -0.025757352
-0.09001553 0.08191884 0.06854714 0.02973075 0.006059851 -0.0119149545 0.028509831 0.023325516
0.122547485 0.035236355 -0.08319553 -0.009566816 0.015784228 0.058408737 -0.048363242 0.0073361336
0.048630107 -0.019516649 -0.059189554 0.06834578 0.019484974 0.105821304 0.019471137 0.0617983
-0.009472283 0.12958235 0.004796334 0.1083499 0.04915553 0.0037889767 0.10467974 -0.03213686
0.04580424 -0.08180947 -0.15386018 0.028766153 -0.02200358 -0.017265107 0.076746196 0.09731674
0.10281422 -0.035407856 0.0413958 0.04929787 0.057388924 0.013300103 0.011332838 -0.12521622
0.03034443 -0.01529406 -0.018398652 0.01848826 0.05028895 0.01784838 -0.057440348 0.05526266
0.17568676 -0.06860101 0.071612045 -0.031834 0.051327538 -0.0017247071 0.0057484917 0.05601162
0.021661684 0.014207987 -0.049726475 -0.009879516 -0.041936066 -0.0080754785 -0.009544123 -0.015643891
0.07953233 0.080777764 0.013521722 0.007548257 -0.057022933 -0.011293454 -0.106948055 -0.10725172
-0.014010448 0.027078023 -0.0031948388 0.0033916936 0.019274278 0.019943666 -0.0013298478 0.027861834
0.036904722 -0.012837004 0.06389961 0.009954462 0.056541122 0.056929253 -0.10832446 0.014645223
-0.069042034 -0.025354551 0.10082843 0.072532095 0.010208196 0.036785856 0.03155843 0.09060212
-0.033417396 -0.10148359 -0.08619611 -0.11390424 -0.021390889 0.010567825 0.010327895 0.07359048
-0.14821877 0.14167432 0.13869493 0.076770864 0.008310877 0.021775397 -0.03319272 0.07845605
0.023711767 0.049476504 0.04126965 -0.031389598 -0.035593685 0.013681896 0.12816998 0.065983444
-0.0237398 0.13182144 -0.030355062 0.04699718 0.02701862 0.00084180175 0.060268275 0.035019577
0.07082353 0.026761767 -0.022132196 0.14856082 0.02558341 0.05990277 -0.054800443 -0.035238963
0.09063527 -0.025153717 0.01238651 -0.027094577 0.15005766 0.009321005 -0.04173421 -0.06290404
-0.18528663 0.11066758 -0.100898415 0.1998869 0.101653755 -0.040997054 -0.03915827 0.026484106
-0.026461603 0.05960307 -0.021248432 0.015353437 0.0097978655 0.04320946 0.037070345 -0.08820241
0.1147062 0.037693936 0.10527046 0.012225337 0.045305867 -0.018274602 -0.03132238 -0.07322715
0.050879486 0.010411969 0.06580154 -0.010617088 -0.09387334 0.05376944 -0.049574625 0.049531937
-0.030996364 0.05177846 0.03790587 -0.0005885407 -0.08065658 0.13489752 -0.01953609 -0.03837386
0.028346706 -0.0052968836 0.12377021 0.123181835 -0.09813916 0.063210465 0.04373503 0.061796077
-0.06044915 -0.008670017 -0.09000372 -0.07375872 0.052081645 0.050064165 0.0013288857 -0.005851674
-0.08032873 0.0132526 -0.032734726 0.04567905 0.03651548 -0.04050504 0.08144756 0.008090704
-0.06489706 0.084515356 0.026802456 -0.08424607 0.0059454488 0.053920057 0.05731677 -0.017527165
0.17732337 0.014579604 -0.012436466 0.005187921 -0.14391042 0.04415638 0.005996611 -0.122414716
0.0030927602 -0.087942176 -0.026636047 0.09180822 -0.014255982 0.0999039 -0.038672045 0.06736939

encoder.2.bias f4 [128]
00000000: 22c5 3f3d efcb 2ebd fc30 4fbd ddd4 763d
00000010: b42d a6bc 10e5 c13c b0de 963c d462 3d3b
00000020: 0310 01bb 5340 0f3e 2e68 843c 283e c6bd
00000030: 8a76 f1bc e372 e9bc bd29 08bd 981d 44bc
00000040: 77e2 a1bc 6b3e 743d fb51 80bc 0841 593c
00000050: 44a9 f63c 4e2e 97bc 7a42 22bd 9c06 c2bd
00000060: 7165 8f3b 9538 503d 8539 83bd 8f71 0bbd
00000070: cf73 073d 5c47 473d d73f e53d 3fb8 203c
00000080: da54 b5bc 2840 193c efa1 07bd 4522 b43c
00000090: dac9 63bd 1a85 3bbc 8fd7 4f3d 9854 7dbb
000000a0: 86b1 cc3a 94e8 023d 7f4b b23d e67d 313d
000000b0: 8e2b fc3d 08b7 903d 58b6 653c c962 81bd
000000c0: dcdb 283c f900 b23d fb0b 513d c0fd ca3d
000000d0: 8dad 2a3d 5435 72bd f1b0 f7bc 9d65 ad3c
000000e0: fec3 1cbb 8093 0d3c d3c0 41bd 7de9 2e3d
000000f0: f390 7c3d ffd6 b43c 158f 183d dcea 4d3d
00000100: e931 693d b961 893d a86b 063d bd42 4fbc
00000110: 983a 0ebd b80c 763d 3f5a fdbc 2c36 7c3b
00000120: cf6e efbb ca27 0ebc 2d4d 1cbd b044 e73c
00000130: d483 ed3c a30b 30bd 761a e8bc e7b2 0f3c
00000140: 52cc da3d bf08 2fbc 17d2 273c 2382 1b3d
00000150: 790e a1bc 7c75 da3c d2ff c73c 0fc4 35bc
00000160: afde 253a 718d 04bd f7c5 413d 23e5 1b3d
00000170: b57e 4a3c 6738 a33d ea59 0bbd 19f2 133d
00000180: f08f bdbd 85ac 503c 1ed3 88bc 426f 763c
00000190: 96ad 52bd 1c69 efbc bae2 9c3d d329 8f3d
000001a0: 9e8e 0ebe a3c9 d6bc 7386 ac3b 6886 583d
000001b0: 2571 3fbd 5e77 693d bdd1 e83b da52 363d
000001c0: 7741 cbbc 13cb a83c 4a26 31bc 8aee 363d
000001d0: 6785 4abd 11c4 cf3c 662a 863d 6bc8 953c
000001e0: 0aa2 003d f67b a0bc 4c21 163d ca9c 88bc
000001f0: e202 903c 36b1 593d 6ece d53c a7c1 ab3d
0.04681886 -0.042674955 -0.050583825 0.060261596 -0.020285465 0.023668796 0.018416733 0.0028898017
-0.0019693382 0.13989381 0.016162958 -0.09679824 -0.02947547 -0.028497165 -0.03324293 -0.011969946
-0.019761307 0.05962984 -0.015664091 0.013260134 0.030110009 -0.018454697 -0.03961418 -0.09473917
0.0043761064 0.05083521 -0.06407455 -0.034043845 0.033069428 0.048652038 0.11193817 0.009809553
-0.022135187 0.009353675 -0.033113416 0.021988997 -0.055612423 -0.011445308 0.050742682 -0.0038655158
0.0015616871 0.031960085 0.08705806 0.043332957 0.12312995 0.070661604 0.014020525 -0.0631767
0.010306325 0.08691592 0.051036816 0.0991168 0.041669417 -0.05913289 -0.03023574 0.021166617
-0.0023920531 0.008641124 -0.047303032 0.04270314 0.06166167 0.022075174 0.03724583 0.050272807
0.056932364 0.06708092 0.032817513 -0.012650189 -0.034723848 0.060070723 -0.030926822 0.0038484437
-0.0073069106 -0.008676479 -0.038159538 0.028230995 0.028993525 -0.042979848 -0.02833293 0.008770681
0.10683502 -0.010683238 0.01024296 0.037965905 -0.019660221 0.026667349 0.024413977 -0.011094107
0.0006327433 -0.03236145 0.047307935 0.03806032 0.012359311 0.07969742 -0.034021296 0.036119554
-0.092559695 0.012736444 -0.016702231 0.015041174 -0.051435076 -0.029224925 0.07660432 0.06990399
-0.13921592 -0.026219195 0.005265051 0.052862555 -0.046738762 0.056998603 0.007105081 0.044512607
-0.02481149 0.020604646 -0.0108123515 0.044661082 -0.04944363 0.025362046 0.065510556 0.018284043
0.031404532 -0.01959036 0.036652848 -0.016676325 0.0175795 0.053147517 0.02609941 0.08386546

encoder.4.weight f4 [80, 128]
00000000: cdfc 9cbc fccb a3bc 3e89 29bd 7d08 60bd
00000010: 640b 803d 2c66 43bd 35ce bb3c 4af6 8a3c
00000020: cefc c0bc 41c9 df3c 9bdc 63bd 9e85 0d3d
00000030: 7d94 0cbd 8d29 0d3c 28ba 43bd 25b6 d0bc
00000040: 5dfe bebd 0244 133d 2428 25bd 280f 2c3d
00000050: d5df b63d 3e37 cfbd c951 583d 14a4 05bd
00000060: 9f64 283d 51c0 d93c 362e 08bd 951a d03d
00000070: a19c 44bc 1dd8 2c3d 5eb6 343d b729 4c3d
00000080: 40e6 1b3a 3811 f4bd 92b8 16bd 4e0d 173d
00000090: aa49 183d 5cca 75bb 8bc9 f4bc 5a4d fdbd
000000a0: b597 57bd 525e 8a3d b505 f1bd d051 2b3d
000000b0: 98f5 51bd 0358 94bd 21ef 893c e070 813d
000000c0: f329 77bd abec 503d fc73 043c fc92 ed3b
000000d0: 203b 8e3c af71 d63d eb85 e8bc f8ee 0ebd
000000e0: 768b 103d 1eb3 f5bd 3935 d9bd 5900 d03d
000000f0: 1048 01bc fb69 b53d 943d 93bd 7d7f 8b3c
00000100: 0249 0d3d 35f0 943d e02e 5db9 b63f b93d
00000110: cb14 d43d 5475 393b 6e2d 48bd a8e3 cf3c
00000120: ce8d ab3d 34ad c8bd 8920 2b3a b653 9cbc
00000130: 0231 8fbc 4b6d da3d 93a1 81bc 3d21 85bc
00000140: 2654 9abc 50e3 0a3c 588d ec3d c97b 8f3d
00000150: e3a0 49bd c165 cdbc e3aa 71bc 032d 8f3d
00000160: 0762 f1bc 24e3 8e3d 9394 5d3c c10d e13c
00000170: ddd7 2e3d 70a1 263e d65c 023d d826 8d3c
00000180: 86e3 903d bc84 963a 5401 a1bc 27d4 4dbd
00000190: 1d44 bd3d 205a 913c bee1 82bd 740f 51bd
000001a0: fb54 6f3b 3cb2 663c 6788 703d 3b9b 7d3d
000001b0: 5374 f13d 723f 613d 74fd a23c 9dd9 b63c
000001c0: 150c cebb e95c 56bd 6b34 583d f1d5 51bd
000001d0: 78f5 a3bd e3ba a1bc 900d 78bd a596 4f3d
000001e0: 0957 2fbd 750d ccbd 5c7e adbd 7a3f 5ebd
000001f0: 40fb 96bd c8cc e6b9 7340 a13d 539b dfbd
00000200: 61f0 243c 42ea 853c ea0d 953d faba aebb
00000210: b85d 09bd 274d e13c 1bd2 a43d dc60 a13d
00000220: 3f9c 66bd d5b3 9ebc 1533 8a3d 8676 153d
00000230: 6052 9bbc ba3d 90bd d9a8 0cbb ae98 f23c
00000240: 0bdb 03bd 0cbb 91bc f8af cbba 9bf4 093d
00000250: b071 d33d 8b67 d8bc b08c a9bd 0eba b23b
00000260: 273e 30bd c76a 93bd c741 90bd 4497 aa3c
00000270: 5f4b 6b3d 1fe6 a03d 1a5b e0bb dec2 13bd
00000280: 2e48 b0bc 5365 d63c 128d 13bc b7b8 acbd
00000290: ca45 1cbd caa3 fa3d b038 3d3d f37d dfbd
000002a0: a779 a1bc 9734 243d f1a9 db3d 344f 5b3d
000002b0: 32f1 7fbc 8e19 cabd ca33 f43c 8e0f 643d
000002c0: 3a35 d7bc ca7f 45bc fe2b 8fbd 45c8 c03d
000002d0: f9f4 3fbc 8941 a03d 461b 8bbd 79c2 f8bd
000002e0: df12 8d3d 031c 113d 7efe 43bd 6fa0 ad3c
000002f0: aea8 e33c ac93 65bd e452 d23d 49db f8bd
00000300: 21a4 84bc 4d4b 8f3c ae0a b83d 0ce3 33bd
00000310: 11cb f6bc 2d42 0ebc 9556 d73d 5fb8 d13d
00000320: fee7 66bd 7d29 60bd 4032 c5bd 8b5f 9b3d
00000330: 24be 923d cfff babd b51d 42bd 19e9 afbc
00000340: d6bc 81bd c644 7bbc 09c6 4c3d 9a81 b33c
00000350: 7372 a33d e443 273d 417d 283d d4d3 8abd
00000360: 3766 943d 3370 c83c 3921 8d3d 4159 6cbc
00000370: f886 d33c 556c 5d3d 1f7c 8d3d a50c e8bc
00000380: 5257 f8bc 988f 5fbc 5b3b b0bd 1068 f3bd
00000390: aba8 763c 2ccd adbc b8be a4bd e383 473c
000003a0: 3319 973c a036 20bc 2e84 e2bc 41fd 603d
000003b0: f3e9 3fbd 5645 cc3b aba4 dcbd b054 aa3c
000003c0: 53a3 ac3d 8032 46bd 560c e0bd d1ee c9bc
000003d0: 4af2 46bd 1283 973d 1815 133c 188f 7d3c
000003e0: b803 5bbd c0d3 493d 65b1 96bd 072a 3abc
000003f0: 2dff 303d 34a4 383d 8af0 edbd 6d70 093e
-0.019163514 -0.019994728 -0.04139065 -0.054695595 0.062521726 -0.04770486 0.022925476 0.016963143
-0.023558047 0.027317645 -0.055630308 0.034551255 -0.034321297 0.0086158635 -0.047784954 -0.025477478
-0.0932586 0.03595353 -0.040321484 0.04200664 0.08929411 -0.101179585 0.05281237 -0.03262718
0.041111585 0.026580961 -0.033247195 0.1016132 -0.012000234 0.04219829 0.04411923 0.04984447
0.00059470907 -0.11917347 -0.036797114 0.036877923 0.037179627 -0.0037504649 -0.02988126 -0.12368269
-0.052634913 0.067562714 -0.11768667 0.04182607 -0.051259607 -0.072433494 0.016837658 0.06320357
-0.06034274 0.051006954 0.008084293 0.007250188 0.017362177 0.10470902 -0.02838417 -0.034895867
0.03528925 -0.119970545 -0.106058545 0.10156316 -0.007890716 0.08858105 -0.071894795 0.017028565
0.034493454 0.07272378 -0.00021093665 0.09045355 0.103555284 0.0028298693 -0.04887145 0.02537711
0.083766565 -0.09798661 0.00065279804 -0.019082885 -0.017479423 0.10665377 -0.015824115 -0.0162512
-0.018838953 0.008477047 0.11550397 0.07006032 -0.0492257 -0.025072934 -0.014750215 0.06991007
-0.029465688 0.069769174 0.013524192 0.027472379 0.042686332 0.16272521 0.031826816 0.017230436
0.07074647 0.001148365 -0.019653954 -0.050251152 0.09241507 0.01774317 -0.06390713 -0.051040128
0.0036519158 0.01408058 0.058723833 0.061915617 0.11789765 0.054992147 0.019896246 0.022320563
-0.0062880614 -0.0523347 0.052784365 -0.05122942 -0.08005804 -0.019742435 -0.06055981 0.050680775
-0.042807613 -0.09963504 -0.08471367 -0.054259755 -0.07372141 -0.00044021592 0.07873621 -0.109182976
0.010067076 0.016347054 0.072780445 -0.005332348 -0.033536643 0.02750261 0.08047887 0.078798026
-0.05630135 -0.01937286 0.067480244 0.036489986 -0.018960178 -0.070430234 -0.0021462946 0.029613819
-0.032191318 -0.017789386 -0.0015540114 0.03368054 0.103244185 -0.02641656 -0.08278787 0.0054543084
-0.043028023 -0.071981005 -0.07043796 0.020824082 0.057444926 0.07856392 -0.0068467977 -0.03607451
-0.021518793 0.026171362 -0.009005802 -0.08433669 -0.038152494 0.122382715 0.04619664 -0.10912695
-0.019711329 0.040089216 0.10725773 0.05354233 -0.01562147 -0.098681554 0.029809851 0.055678897
-0.026270498 -0.012054393 -0.06990813 0.094131984 -0.011716121 0.07825 -0.06792311 -0.12146468
0.06888365 0.035427105 -0.047850125 0.021194665 0.027790394 -0.056049034 0.102697164 -0.121512
-0.016191544 0.01749196 0.08986412 -0.0439177 -0.030126126 -0.00868277 0.10514561 0.10240244
-0.05637359 -0.054727066 -0.09628725 0.07586583 0.07165173 -0.09130823 -0.047391612 -0.021473454
-0.06334846 -0.015336221 0.04999355 0.021912385 0.07980814 0.04083623 0.041135076 -0.06778684
0.072460584 0.024467563 0.06891102 -0.014425577 0.025821194 0.05405839 0.0690844 -0.028326342
-0.030315075 -0.013645075 -0.08605071 -0.11885083 0.015054862 -0.021215998 -0.08044189 0.01217744
0.018444633 -0.009778649 -0.027650919 0.05492902 -0.04685397 0.0062338514 -0.107735954 0.020792335
0.08429589 -0.048388004 -0.10939853 -0.02465001 -0.04857091 0.073980466 0.008977197 0.015476011
-0.053470343 0.049274206 -0.07358054 -0.011362559 0.043212105 0.04507847 -0.11618145 0.13421793

encoder.4.bias f4 [80]
00000000: 2a1b 1abd 6882 673d 3777 bfbc c1fe 8f3d
00000010: 7e12 0fbd d94b 8dbd bfec 86bc 6f37 ff3b
00000020: b75d 91bd bbab 053d e8c7 7b3c 3dca 97bc
00000030: 47d6 67bd cd1e 55b9 025f 263d 4a2c 013e
00000040: 5ecd 8dbd 0f1d 62bd cac0 6abd fec1 523b
00000050: 7b83 55bd d99a dfbd 696b 6a3a 2280 b93d
00000060: 87d9 653d 7c0b 94bc da8f 41bc 3846 b83c
00000070: 7018 b43c cea7 86bd aa5b 183d ed21 4a3d
00000080: 8264 28bc 3f73 80bd 9820 acbb 855f 1cbd
00000090: 1d22 89bd 94ed 283d 7023 89bd 3068 1dbd
000000a0: 37fa 20c0 77c1 23c0 6d02 2ac0 ca97 27c0
000000b0: d3b2 27c0 e1ff 2bc0 f1c9 25c0 3c03 27c0
000000c0: 4269 2ac0 95fe 27c0 6ed8 2ac0 0985 2cc0
000000d0: 8b12 2bc0 b551 24c0 e8f0 2ac0 b1b5 2bc0
000000e0: 7518 28c0 3b2d 25c0 0f4c 24c0 7c9a 2ec0
000000f0: 4d04 2cc0 f54c 23c0 5b9c 32c0 d6aa 24c0
00000100: aa1d 32c0 f139 29c0 5b0f 26c0 9875 2ac0
00000110: 9d89 1fc0 204a 2ac0 c64d 29c0 0b32 29c0
00000120: 0110 2cc0 b567 2bc0 3298 24c0 6606 36c0
00000130: a38f 2cc0 a3d8 26c0 5c39 24c0 12e8 2dc0
-0.037623562 0.05652085 -0.023372276 0.07031012 -0.034929745 -0.068992324 -0.016470311 0.0077885906
-0.07097953 0.032634478 0.015367486 -0.018529052 -0.056600835 -0.00020324737 0.04061795 0.12614551
-0.06923936 -0.055203494 -0.057312764 0.0032159085 -0.052127343 -0.10918207 0.0008942397 0.090576425
0.056115653 -0.018071882 -0.011814082 0.02249442 0.021984309 -0.06574975 0.037196793 0.04934876
-0.010277869 -0.062719814 -0.005252909 -0.038177032 -0.0669596 0.041242197 -0.06696212 -0.03842944
-2.515272 -2.5586832 -2.656398 -2.6186395 -2.6202896 -2.6874926 -2.5904505 -2.6095724
-2.6626744 -2.6249135 -2.6694598 -2.6956198 -2.6730068 -2.567487 -2.6709538 -2.6829646
-2.6264927 -2.5808856 -2.5671422 -2.728179 -2.6877625 -2.551572 -2.7907932 -2.572927
-2.7830606 -2.6441615 -2.5946872 -2.6634274 -2.4927742 -2.6607742 -2.645372 -2.6436794
-2.6884768 -2.6782048 -2.5717893 -2.8441405 -2.696267 -2.6069725 -2.566001 -2.7172894

decoder.0.weight f4 [128, 40]
00000000: f057 5e3c adc3 14be e45a bd3d 0fe8 19bd
00000010: 11b2 44bd a394 da3d 948f 4ebd 4a37 82bd
00000020: 3176 cabd dd73 d5bd 3722 d43d b394 19be
00000030: 0ac6 95bc f799 993b 6f24 483c 190e 95bd
00000040: 1a66 b63c c6c6 ac3d 0fa0 bebd 3bb5 c93d
00000050: 3aa1 f63c beac 103d f9c0 563d 8117 0bbe
00000060: f953 55be 7b9a 753b 05d8 7e3b e63b 90bc
00000070: c1d5 a1bb 5492 c33d a624 ab3d eab5 83bd
00000080: 197a 40be 8172 e7bc 6cf4 89bd e685 993c
00000090: d8ab 393d 1501 1d3d d603 053e 9885 9f3d
000000a0: fe6b afbd 8bb4 ddbc 8590 edbc 6a50 073e
000000b0: bc4d 363d 1f1d a0bd 20fa 9e3e a61b 143e
000000c0: afea bd3d aedd 3bbd 867d 64be 5e1a 7a3e
000000d0: 5e6d d9bd f396 353e 8423 aabc b999 a6bd
000000e0: ecac 7a3e 7dbb d3bd 4b55 1c3d 5ca4 c93c
000000f0: 4a56 913d 9bb1 77bd d766 253b 52ee 69bd
00000100: 0821 8a3e 87f0 7dbd b7e1 5a3e b6e6 b23d
00000110: db9a 66bc e296 163d a203 153e dcbe 193b
00000120: 66b0 8b3d d7e1 73bb 6a6d ec3d 6e83 403d
00000130: 675c 033e ef0a bd3c 0c37 a2be 1fc0 84bd
00000140: d040 abbd 07e3 943c e24a b23c 441a 363d
00000150: 227f 573d 8b92 003e 5ce2 1c3c 2b53 94bd
00000160: 7f89 6cbb bab0 d8ba 8737 033d d0d7 d3bd
00000170: 4731 7f3d 5a52 ba3d df91 813d e674 7bbd
00000180: f7cd ea3c bf49 853d 68ef cfbc 7daa 723d
00000190: c38e c73d 42b4 14bb 3cc3 f83c c9be 033d
000001a0: 34d0 d4bd b968 0dbd abc1 fdbc 563e 92bd
000001b0: c2e6 083c d8b8 17bd d0ac 873c 7e13 843c
000001c0: b5c8 143c 6973 8dbb cde6 8f3c 0065 59bc
000001d0: e496 be3b 1d02 db3d 2b73 4b3d 5894 e63d
000001e0: 3d27 a03c e91f c7bc de28 3cbd 6b85 90bd
000001f0: 914d dcba b75a e93c 2007 b3bd 9889 94bd
00000200: 20d7 bc3a b9d7 a2bd 2b39 c83d 806d 22be
00000210: e4ef 013d d347 193c e9e5 cb3d 82c8 403c
00000220: bdee 9a3d a85f 44bd 751f d0bc fea3 ab3d
00000230: 14c8 d63d 55d4 443c e3ff f53d 4088 d4bc
00000240: 8412 00be fd1c 323d 984e 6abc 40ab febc
00000250: f185 1a3d 39c8 4e3d 3623 2cbd 4708 d03b
00000260: 1cf6 77bd 0af1 16bd c419 03bd ab54 833c
00000270: 963e 8a3d 56c4 bc3c 57f7 ce3d de4c 8a3c
00000280: da30 92bc f4bb 503d e5ed b0bd a34f 7d3d
00000290: c738 bfbd 9b7e 143d a77c d53c 0bd9 06bd
000002a0: 25b6 63bd 103e ff3d 2b2f 973c 18f7 113e
000002b0: 8bb1 30bd d531 603c cdfb bc3d 2cee 8a3c
000002c0: 6797 4d3c 53c2 b93d b0ca babd b126 cebd
000002d0: 5353 8abd e67f f03a c48d a6bd a4cd 5bbc
000002e0: 527f d83c 9c77 743d 7dfe 88bd ccdf a43d
000002f0: c60a 343d 6530 4bbd 1e66 f0bc 37fe 3a3d
00000300: 98b2 f33d a9a6 94bd e0e0 4dbd 2b6a bdbd
00000310: c631 9e3d 7b92 2e3d 1f91 a1bd ac9a 2ebe
00000320: 3356 76ba e20d 493b f62d a53c 797a 5dbd
00000330: 0229 13bc 9497 a4bc f5ac 9cbd 9dff e1bc
00000340: b03a b8bd 22d2 e8bd 15c2 7e3d 538c cfbb
00000350: 86bd 993d 45b5 6c3d 4d20 cabc cf35 ea3c
00000360: 3115 1dbd c8bb b1bd ae82 74bd 709d a13d
00000370: e4d4 b23d 91df 9cbc f407 813d b0e7 9fbb
00000380: 4620 65bd 2d37 3fbb 7e02 07be a005 ae3c
00000390: bcc3 8ebd 4173 9fbb 54d4 8dbc a9c7 183d
000003a0: 9249 d3bc eba5 8c3d 3fae 87bd 04c9 61bd
000003b0: 8335 1e3d f342 b73c 253f 193e cbd0 fc3d
000003c0: 4b2f 27be df9f 2abe 97d7 3c3e 16a6 be3d
000003d0: 1604 86bc 4bfc 89be c06f 813d da9e 503d
000003e0: 0124 733d 0ae0 b4bd d0f3 14bd 9874 6a3e
000003f0: 4bea c5bd 140a 423e dab0 bcbd f9d5 e53d
0.013570771 -0.1452777 0.09245852 -0.037574824 -0.04802138 0.106728815 -0.050429896 -0.06358202
-0.098858245 -0.1042249 0.103580885 -0.1499813 -0.018282909 0.0046875435 0.012215718 -0.072780795
0.022265483 0.084363505 -0.093078725 0.0984902 0.030106176 0.03532099 0.052430127 -0.13583185
-0.20832814 0.003747611 0.0038886082 -0.017606687 -0.0049388115 0.09549394 0.083565995 -0.06431182
-0.18796577 -0.028252842 -0.06736073 0.018740606 0.0453299 0.03833111 0.12989745 0.07789153
-0.0856552 -0.027063629 -0.028999576 0.1321427 0.044507727 -0.078180544 0.31050205 0.14463672
0.09273278 -0.045865707 -0.22313508 0.24424121 -0.10616563 0.17733364 -0.020768888 -0.08134789
0.24480027 -0.10338495 0.03816728 0.024614505 0.070965365 -0.060472112 0.00252383 -0.057112046
0.26978326 -0.061996963 0.21375166 0.08735411 -0.014075006 0.036764987 0.14552167 0.0023459708
0.06820755 -0.0037213468 0.115443066 0.04700034 0.12828217 0.023076503 -0.31682622 -0.06481957
-0.083619714 0.018174661 0.021764223 0.044458643 0.052611478 0.12555902 0.009575453 -0.072424255
-0.0036092696 -0.0016532161 0.032035377 -0.10343897 0.062302854 0.090977386 0.06326651 -0.06139078
0.028662665 0.065082066 -0.025382712 0.05924462 0.097440265 -0.002269045 0.030366533 0.03216437
-0.10391274 -0.0345237 -0.030976137 -0.07140796 0.008355798 -0.037041515 0.016561896 0.016122576
0.009081055 -0.0043167365 0.01756611 -0.013268709 0.0058163274 0.106937625 0.04967038 0.11258763
0.01954996 -0.024307208 -0.04593741 -0.070566975 -0.0016807785 0.028485639 -0.08741593 -0.072528064
0.0014407374 -0.07951302 0.09776529 -0.15862083 0.03172292 0.009355503 0.09955961 0.011766555
0.07565067 -0.047942787 -0.025405625 0.083808884 0.104873806 0.0120135145 0.12011697 -0.025943875
-0.12507063 0.043484677 -0.014300965 -0.031087518 0.037725393 0.050483916 -0.042025767 0.006348643
-0.060537443 -0.036850967 -0.032006994 0.016031584 0.067502186 0.023042839 0.1010577 0.016882356
-0.01784556 0.050960496 -0.08639125 0.061843526 -0.09337001 0.036253553 0.026060415 -0.032921832
-0.05559363 0.12463009 0.018455109 0.14254415 -0.04313807 0.013683756 0.09227715 0.016959272
0.012548304 0.090702675 -0.09120691 -0.100659736 -0.06754174 0.0018348664 -0.081325084 -0.013415728
0.026427899 0.05968438 -0.06689165 0.08050498 0.043955587 -0.0496067 -0.029345568 0.045652594
0.118992984 -0.072583504 -0.050263286 -0.092487656 0.07724337 0.042620163 -0.07889008 -0.1705119
-0.0009397 0.003067844 0.020163517 -0.054071877 -0.008981945 -0.02009181 -0.076501764 -0.027587706
-0.08995569 -0.11368205 0.06219681 -0.0063338666 0.07506852 0.05779006 -0.024673605 0.028590111
-0.038350288 -0.086783946 -0.05969494 0.07891357 0.08732012 -0.019149574 0.06300345 -0.004879914
-0.05593898 -0.0029177174 -0.13184544 0.021242917 -0.06970927 -0.0048660343 -0.01731316 0.037299786
-0.025791917 0.06867584 -0.06625032 -0.055123344 0.03862525 0.022370791 0.14965494 0.123445116
-0.16326635 -0.16662548 0.18441616 0.09309022 -0.01635937 -0.26950297 0.06320143 0.050932743
0.059360508 -0.088317946 -0.03636533 0.2289604 -0.096638285 0.18949157 -0.09213419 0.11222453

decoder.0.bias f4 [128]
00000000: 16cc 11bd 4da0 2bbe 4b5a 603d e48f 103a
00000010: 3849 653d 741e 463e d37e 9dbd eb45 cdbd
00000020: 0b51 21bf 72ff 5c3d d283 c43c 2c17 bb3d
00000030: 327f 543c 2e15 243c 8cce a5be 2593 36bf
00000040: ba12 e2be 2b2f 953d 1300 ae3d 0968 a33d
00000050: 3862 09bf d06b 22bf 0544 09be 84f2 8d3b
00000060: f8cc 52be f300 583d 60c3 0dbe 57fa 30bd
00000070: c61b 903d cc43 fd3c 103e 7fba 37b3 353e
00000080: 4649 11bd 20b0 d6bd bd42 333d a423 1e3e
00000090: 2eb1 4dbe d2d5 ed3d 7f9e 09be b6fb c73d
000000a0: a66d 833d 47b7 b33c c8dd 6f3c f7e7 cd3d
000000b0: 8f78 913d 2386 98bc e8d6 2abe ad67 f4be
000000c0: b83c 783d cd85 c33d 8087 013e e9db e13c
000000d0: 1503 193d 56ab 853c 2228 b43d 81f2 693c
000000e0: 0be2 33bd 0b47 69be e026 a5bd 7625 2a3e
000000f0: 60fe 0b3e 8a3d 1e3e ee40 4e3d ca87 0b3e
00000100: 34c4 85bd c85a d2bd 0016 543d a7e2 8b3c
00000110: da3a 3ebe 10a1 ac3d ab86 a43d a4bd 113e
00000120: 613e dd3d c94a 7c3d 6105 2cbd fde4 3c3e
00000130: 9ab7 e23d 6f2c 7b3c 11e6 69be 14d6 1a3d
00000140: 44a3 913d 66c9 87bb 9892 38be 878c 3bbd
00000150: 0ff3 2f3e 25af d73d e839 983c e864 c43c
00000160: d29d b7be 8e27 a63b 08f8 143c 5c22 633d
00000170: c5a9 b33d 0768 a0be 37e4 21bf 559f f93d
00000180: bac9 7f3d 66cc 78bf 90bf 4f3a ef75 1ebf
00000190: ce8f 8eba 65c3 babe 7acf bfbc 9a88 403b
000001a0: efbd 313e b964 bebc e497 c6be 7ba7 ddbe
000001b0: f85d f13b f1d3 c5bd 284b 863d 4a97 f53d
000001c0: 4a97 85bd 2255 fdbd f57b 97bb bec3 20be
000001d0: c249 5c3d 6f6a d9bd cb98 c43d b93b a43c
000001e0: 07e7 023b cbea cb3d 75e7 b73b 99fa acbe
000001f0: b959 1f3e 4de3 80be a91e 4b3e 5d6c aabe
-0.035595022 -0.16760369 0.05477361 0.00055146054 0.05597803 0.19347554 -0.076902054 -0.100231014
-0.63014287 0.05395455 0.023988638 0.09135279 0.012969779 0.010014815 -0.32384145 -0.71318275
-0.44154912 0.07284387 0.08496108 0.079788275 -0.53665495 -0.6344576 -0.13404854 0.0043318886
-0.20586002 0.05273528 -0.13844061 -0.043207493 0.07036547 0.030916117 -0.0009736726 0.17744146
-0.03547027 -0.10482812 0.04376482 0.15443283 -0.2008712 0.116130486 -0.13439368 0.09764807
0.06417398 0.02193798 0.014640279 0.100540094 0.07103073 -0.018618649 -0.16683543 -0.47735348
0.06060478 0.09547005 0.12649345 0.027570682 0.037356455 0.01631705 0.08796717 0.014279009
-0.043916743 -0.22781007 -0.080640554 0.16615853 0.13671255 0.15453163 0.05035489 0.13626018
-0.065315634 -0.102712214 0.051778793 0.01707585 -0.18577138 0.08429158 0.080334984 0.14232498
0.108029135 0.06159476 -0.041997317 0.18446727 0.110701755 0.015330418 -0.2284167 0.037801817
0.071112186 -0.0041438816 -0.18024671 -0.045788314 0.17182563 0.10531453 0.0185823 0.023973897
-0.35862595 0.0050706333 0.009092338 0.05545269 0.08772615 -0.31329367 -0.63238853 0.12188593
0.06244824 -0.9718689 0.00079249684 -0.618987 -0.0010876597 -0.364772 -0.023414362 0.0029378296
0.1735761 -0.023241388 -0.38787758 -0.4329184 0.0073659383 -0.09659565 0.06557304 0.11991747
-0.06522997 -0.123697534 -0.004622931 -0.1569967 0.05378128 -0.10616004 0.095994554 0.02004801
0.0019974129 0.099568926 0.0056123086 -0.3378494 0.1556157 -0.25173417 0.19835915 -0.332858

decoder.2.weight f4 [400, 128]
00000000: 2e62 f6bd 8dc2 85be f427 4bbe 8231 19bd
00000010: cd2a 4c3d 70aa f7bd a647 99bd cf5c 26be
00000020: b89b b83c c9ce 513c dd03 08bd 7de6 04be
00000030: 2ab1 7c3c 4fe9 c73c cf20 e1bb 6d44 45be
00000040: d59d 293e af48 8abc dfad 9cbd 9c11 d2bb
00000050: 79d4 143e 7148 71bd 76d6 083d 94af 12bd
00000060: 4486 ebbd 36c8 acbd 0c11 303e 3df1 99bc
00000070: 91d9 20be 03d5 683d 0cd8 b4bd 2f1b 2a3d
00000080: 2828 8d3d 382b a1be 1348 cc3b fd52 58be
00000090: d7c7 073e 84b4 a7bc 5959 c6bd cc9f ac3d
000000a0: 914b a43d f262 80bb c354 3e3d 60ae 67bc
000000b0: be10 cbbd 684f 503d a6b6 2d3d ab76 593e
000000c0: 236e c33d dfc6 813c e998 4a3d 6dfd 1dbd
000000d0: 7a6a 043d 234a 323d b1f8 e7bc 7b8d fc3d
000000e0: 6212 a33c a3ef 973d c854 043e 0d28 e93d
000000f0: 0800 dbbd bf00 173b ac3d ee3c e947 003d
00000100: fb98 9bbd f408 233e 034f 403e b2cc 11bd
00000110: 9a94 d83d 1d42 223e 44e9 b73d 90a7 163e
00000120: efed b43b b777 88bd d68e e83c 3c4c 033c
00000130: 431c cf3d e848 d33d c44c 4a3e e393 e23d
00000140: ce9b 7c3d 7758 86bb 534c 713d 21ac 363e
00000150: 6fbc 08bd 7203 303d 56d5 b43d df0b 3b3c
00000160: 1134 09be 381d 223b 5f1e 873d 3515 32bd
00000170: dd04 8ebd 9089 ba3d e115 1fbe 8df3 8bbb
00000180: 5a22 553d d4d7 ddbc 226f 9fbc c527 923d
00000190: b8d8 2bbc 2dee 05be a40b 4abd dcb6 6e3e
000001a0: c2e9 3c3d 786d 883d 693e 973d d7c6 5b3e
000001b0: ebe2 6b3c abc1 ed3c e0fb 8fbd 84fc b13d
000001c0: 0ad2 203e 877a d13d 8575 e43d 19eb ccbd
000001d0: ce20 a73d cd64 a8ba b9a3 bf3d ba16 fe3d
000001e0: d693 b4ba a66b 213c 5b7a 853d fd1d 1a3e
000001f0: 4aef 60be 7e96 69bd 6b9f b93d 35b3 e6bd
00000200: cd0f e5bd 6a09 013d 1c64 fabb 3d10 16bd
00000210: d658 403e e635 013c 1798 073e 534d aa3c
00000220: 1324 773e d903 113e 25cd 9c3d 4980 e5bd
00000230: 1e06 2a3e 7e39 fe3d eb36 843e 94af 4abe
00000240: ee64 c1bd d91d 6cbd 9a5a a53d 3d85 bd3d
00000250: 6a3d b93c 16d0 a6bd c2f1 bd3c b2c2 82be
00000260: 610d 08bd 9c43 f03c e7bc a63d 8188 c53c
00000270: 546b 723d 640a 63bd 1406 5a3e 7692 a6bd
00000280: 1542 9c3a ee18 b33d 0cd5 c23c ebbc ccbd
00000290: 134c 3c3d 2291 c8bd 4c5e 30bc 5e8a 303e
000002a0: f3fd cabd adbe a73d 2527 a3bd 8b0c 093d
000002b0: f6d1 86bb cf10 2a3e c0f7 38bd 8105 29be
000002c0: ff29 063e 2e75 833c f4b2 bebd 0b01 b9bd
000002d0: 5a5a dbbd 0323 ff3d 21d3 aebd 066c cc3d
000002e0: 1b46 26bb 88a9 283e 5c1a 1d3d 5ab5 d33d
000002f0: 96b2 dbbc 67b3 febd 5010 b43d 7118 bb3b
00000300: c6e3 143e 908e 1b3c d7e3 9dbc fabf 243e
00000310: 9206 db3d ff4f 803d 26f1 ab3d c95f 6d3d
00000320: 0c77 2a3e 6494 ccbd 99f7 393d 08a0 e8bb
00000330: 89dd f4bd 87cb a13e 027d b83d 5eb4 e6bd
00000340: e1de 003e 50cb 4fbd 8d3d f43d 868a 0e3d
00000350: 44d4 6dbd bc2e 2dbd 407d 3b3d 002e 813d
00000360: f794 ca3d 6536 893d f39b d33d 8a21 6f3d
00000370: 7b5a 3ebd 82ec 35be b513 6cbd 98c7 14bd
00000380: 195f 323d e042 563e 2bcb 23bd 57a1 343e
00000390: 17f7 a8bd ab0d 443c e6b1 81bc 8c43 b63d
000003a0: 4623 7dbc b266 8dbd 5df0 6bbd c5c0 03be
000003b0: 9ff4 eb3c af25 f43d 8dcf b3bc 0578 063d
000003c0: 1f1f f23d 0184 4e3d fe5c 2d3e cf33 08be
000003d0: 1c95 dbbc 5fbe 9e3e 4912 dabc d9ee 78bd
000003e0: 2a6b 633e c893 5bbd 6bfc b23d b3c3 833d
000003f0: db85 6f3c 009c f83d 194d fe3d fb09 92be
-0.12030445 -0.26124993 -0.1983946 -0.03740073 0.049845506 -0.12093055 -0.07484369 -0.16246341
0.02253519 0.012805649 -0.03320681 -0.1297855 0.015423099 0.024403242 -0.006870366 -0.19264384
0.16564114 -0.016880361 -0.07650351 -0.0064107906 0.14534177 -0.058906976 0.03340765 -0.035811976
-0.115002185 -0.08436625 0.17194003 -0.01879179 -0.15707995 0.05684377 -0.0883027 0.04152983
0.06892425 -0.31478286 0.006234178 -0.21125408 0.13259827 -0.020471819 -0.096850105 0.08428916
0.08022226 -0.003918045 0.046467554 -0.014140695 -0.09915303 0.050856978 0.042410515 0.21236674
0.09542491 0.0158419 0.049462233 -0.038571764 0.032328106 0.043527734 -0.028316827 0.12331673
0.019906227 0.07418754 0.12922966 0.11384592 -0.10693365 0.0023041216 0.029082142 0.03131858
-0.07597538 0.15921384 0.1878014 -0.035595603 0.105752185 0.15845533 0.08980039 0.14712358
0.005521528 -0.06663459 0.028388422 0.008013781 0.10112812 0.1031664 0.19755846 0.110633634
0.061672024 -0.0040999013 0.05891068 0.178391 -0.03338283 0.042972036 0.08829753 0.0114164045
-0.13398768 0.0024736654 0.0659759 -0.043477256 -0.06934521 0.09108269 -0.1553569 -0.004270977
0.052034713 -0.027080454 -0.019462172 0.07136492 -0.0104886815 -0.13079138 -0.049327508 0.23311943
0.046121366 0.066615045 0.07384951 0.2146257 0.014397363 0.029023012 -0.07030463 0.08690742
0.15705124 0.10228448 0.111552276 -0.10005779 0.08160554 -0.0012847424 0.093573995 0.124066785
-0.0013776969 0.009852326 0.06517478 0.15050502 -0.21966282 -0.057028286 0.0906361 -0.1126465
-0.111846544 0.03150312 -0.0076413285 -0.03663658 0.18783888 0.007886386 0.13241611 0.020788824
0.24134855 0.14161624 0.07656316 -0.11206109 0.16603896 0.124133095 0.2582315 -0.1979354
-0.09443079 -0.057645652 0.080739215 0.09253929 0.022612292 -0.08145158 0.023186568 -0.25539166
-0.033215884 0.029329114 0.08141499 0.024112942 0.059184387 -0.05542983 0.21291381 -0.08133404
0.001192155 0.08744989 0.02378323 -0.09996971 0.045970988 -0.09793307 -0.01076467 0.17240283
-0.09911718 0.081906654 -0.079664506 0.033459228 -0.0041143848 0.16607974 -0.045158148 -0.16506006
0.13101958 0.016047087 -0.09311476 -0.09033402 -0.107105926 0.1245785 -0.085363634 0.09981541
-0.0025371376 0.16470921 0.038355216 0.103373244 -0.026818555 -0.12436562 0.08792174 0.0057097008
0.14540014 0.009494439 -0.019273682 0.16088858 0.106946126 0.06265258 0.08395605 0.057952676
0.16646975 -0.09989241 0.045402143 -0.0070991553 -0.11956317 0.31600592 0.09008218 -0.11264871
0.12585022 -0.050731003 0.119258024 0.034800075 -0.05806376 -0.042280897 0.045773745 0.06307602
0.09891694 0.06699828 0.10332479 0.058381595 -0.046473008 -0.17766002 -0.05763598 -0.03632316
0.043547723 0.20923948 -0.039988678 0.17639671 -0.08250254 0.011966149 -0.015831899 0.08899602
-0.015450304 -0.06904353 -0.057602275 -0.12866504 0.028803168 0.1192125 -0.021949554 0.032829303
0.11822342 0.050418857 0.16930005 -0.13301013 -0.0268045 0.31004617 -0.026620047 -0.060774658
0.22208849 -0.053607732 0.08739551 0.06433811 0.014619316 0.1213913 0.12417049 -0.2852324
