networks/vae_precoder_beta0.01_epoch50_latent_dim10_from_train_py.pt (torch, 536687 bytes, 12 tensors)

encoder.0.weight f4 [400, 32]
0.14771664 0.3309014 0.059647933 -0.18317403 0.18084136 0.40865147 -0.17180942 -0.37126595
0.062064566 0.22258194 0.060272634 -0.41369104 0.28964174 0.257277 -0.5564811 -0.70734274
-0.34448573 0.090091236 -0.06033996 -0.32352746 -0.038959917 0.1907477 0.05050029 -0.26490134
0.079752885 0.18743098 0.16169845 -0.2920682 -0.22300923 0.2865785 0.02106266 -0.3127824
0.5103652 -0.46811202 -0.3875845 0.89964414 0.25291163 -0.13725874 0.48940355 0.6225688
0.71097606 -0.79640555 -0.22053963 -0.63774955 -1.1897962 -1.2067877 -0.81738096 1.0246232
-0.35055852 0.6842873 -0.21957351 1.0477948 1.121951 -0.080934145 -0.5293616 -0.59158856
0.19159275 -0.06829961 -0.46924725 0.0992 -0.06309934 0.36792585 0.72684664 -0.10103054
0.8413766 -0.09319137 0.6992355 0.57726955 0.40911698 -0.8025613 -0.16749434 -0.36844268
-0.5614136 -0.29094297 -0.6373076 0.08723652 0.13271129 0.6939532 0.6425683 -0.52529603
1.0479972 0.585184 -0.06240689 -0.55084085 0.30414543 0.2585165 -0.42804414 -0.38198406
-0.17298198 0.55611885 0.7279807 -0.25088271 -0.2596484 -0.36068645 -0.37124532 0.67321396
0.13047764 -0.052806295 -0.08534569 -0.12867802 0.081774205 0.08904806 -0.15658772 -0.26107123
-0.33457232 0.5361996 0.41019887 0.3313163 0.1761582 -0.13715497 0.17208873 -0.36498728
-0.31710526 0.42371845 0.46504468 0.3364552 0.18282881 -0.59883404 -0.55530477 0.027287412
-0.3375018 0.2637569 0.06030869 0.67662966 0.3658608 -0.2288469 0.45387807 -0.44220507
0.47894928 -0.74592364 -0.5155404 0.13659728 0.3356239 0.5992585 0.2971698 -0.30204868
-0.3656157 0.48813072 0.43775207 0.3253765 0.30264616 -0.040393688 -0.38101915 -0.13587224
-0.52272236 -0.15924843 0.12670387 0.57355726 0.46268374 -0.22659831 -0.5473298 -0.123886816
-0.18466122 0.131258 -0.26046664 0.45631722 0.93672925 0.13347496 0.004111702 -0.47736725
-0.39438912 -0.6808264 -0.47049722 0.014891111 0.42884427 0.09738797 -0.53436846 -0.51149046
-0.101787984 0.4403539 0.20641257 0.31561494 0.268436 -0.15570353 -0.0423783 0.15943225
-0.87968737 -0.6001111 -0.1281923 0.13674974 0.2652998 0.31987426 0.31107363 -0.7292182
-0.59834146 0.21001245 0.044310298 0.7693973 0.72206616 -0.438226 -0.7784532 -0.052881964
0.040751636 -0.8472014 -0.5947903 0.0007428585 0.1603352 0.193876 -0.7353383 0.2935397
0.86530256 0.61561906 0.6895787 -0.78347135 -0.7029735 0.010401746 0.81237674 0.14552167
0.2954368 -0.7493944 -0.92379475 -0.18732858 0.21730031 1.0169996 0.22430809 0.098743126
0.49253047 -0.31508583 -0.52963 0.34762177 0.766785 0.08704674 -0.3273742 -0.42197645
0.30217785 -0.19700308 -0.10083279 0.077145085 0.3090802 -0.28298515 -0.58800197 0.20676562
0.48306364 0.100378506 -0.25429946 0.10242274 0.36064532 -0.30803114 -0.1035341 -0.20352519
0.36292678 -0.6668843 -0.18616295 -0.068381935 0.3739489 -0.1751102 -0.38471568 0.10123373
0.491322 -0.020104187 -0.6018071 0.13280337 0.44694203 0.24084614 -0.15416986 -0.1564527
00000000: 0843 173e e96b a93e 6451 743d f991 3bbe
00000010: 7a2e 393e c43a d13e cfee 2fbe 9216 bebe
00000020: 6a37 7e3d 85ec 633e 70e0 763d 50cf d3be
00000030: ec4b 943e d0b9 833e 8c75 0ebf 6a14 35bf
00000040: 6f60 b0be c181 b83d 0927 77bd 64a5 a5be
00000050: 6f94 1fbd 5d53 433e 64d9 4e3d 26a1 87be
00000060: 7b55 a33d e8ed 3f3e 4794 253e f789 95be
00000070: 885c 64be 6bba 923e 998b ac3c 0425 a0be
00000080: 4ba7 023f 61ac efbe 7a71 c6be 144f 663f
00000090: a27d 813e 8e8d 0cbe 1a93 fa3e ab60 1f3f
000000a0: 8702 363f 3ce1 4bbf 24d5 61be 8e43 23bf
000000b0: 3e4b 98bf 0578 9abf e13f 51bf da26 833f
000000c0: 687c b3be 742d 2f3f e1d7 60be 241e 863f
000000d0: 179c 8f3f cdc0 a5bd 3e84 07bf 5972 17bf
000000e0: e430 443e aae0 8bbd 2d41 f0be 5f29 cb3d
000000f0: 3a3a 81bd c760 bc3e 9f12 3a3f 1ae9 cebd
00000100: 7564 573f 1edb bebd 1901 333f f0c7 133f
00000110: c877 d13e a874 4dbf a383 2bbe 85a4 bcbe
00000120: cdb8 0fbf 7af6 94be 9726 23bf 10a9 b23d
00000130: 78e5 073e eba6 313f 5b7f 243f cd79 06bf
00000140: c624 863f 9ece 153f 5e9e 7fbd e803 0dbf
00000150: f3b8 9b3e 465c 843e 9a28 dbbe 6a93 c3be
00000160: 3022 31be ce5d 0e3f f15c 3a3f b373 80be
00000170: a3f0 84be e5ab b8be de13 bebe c057 2c3f
00000180: ee9b 053e 6a4b 58bd b9c9 aebd 2cc4 03be
00000190: 3c79 a73d d45e b63d 8858 20be 21ab 85be
000001a0: 104d abbe 6144 093f 9605 d23e 4aa2 a93e
000001b0: d162 343e 5a72 0cbe 0738 303e 9ddf babe
000001c0: 9f5b a2be a0f1 d83e 561a ee3e db43 ac3e
000001d0: 7a37 3b3e 304d 19bf 7428 0ebf da89 df3c
000001e0: 09cd acbe 250b 873e 3f06 773d 9a37 2d3f
000001f0: 1b52 bb3e d756 6abe b562 e83e b468 e2be
00000200: d738 f53e daf4 3ebf 75fa 03bf 28e0 0b3e
00000210: e5d6 ab3e 0169 193f a426 983e 20a6 9abe
00000220: fb31 bbbe 45ec f93e 0a21 e03e c097 a63e
00000230: 70f4 9a3e da73 25bd f114 c3be 1822 0bbe
00000240: 22d1 05bf 0512 23be a9be 013e a6d4 123f
00000250: e2e4 ec3e 6309 68be ce1d 0cbf 5fb8 fdbd
00000260: d517 3dbe 7f68 063e e25b 85be 69a2 e93e
00000270: 7dcd 6f3f a9ad 083e 75bb 863b 7b69 f4be
00000280: 5fed c9be a44a 2ebf 03e5 f0be d9f9 733c
00000290: 7a91 db3e 5873 c73d 5fcc 08bf 0af1 02bf
000002a0: 3876 d0bd 1176 e13e d15d 533e 4898 a13e
000002b0: 7270 893e bf70 1fbe de94 2dbd 3542 233e
000002c0: 3133 61bf e2a0 19bf d844 03be 2008 0c3e
000002d0: 60d5 873e 8fc6 a33e 0b45 9f3e 0bae 3abf
000002e0: e82c 19bf 810d 573e b77e 353d 39f7 443f
000002f0: 54d9 383f 295f e0be b548 47bf c29a 58bd
00000300: 30eb 263d 31e2 58bf 2d44 18bf 64bc 423a
00000310: e92e 243e 6e87 463e 213f 3cbf d64a 963e
00000320: 7884 5d3f 3699 1d3f 3b88 303f 9491 48bf
00000330: 12f6 33bf 166c 2a3c ecf7 4f3f a203 153e
00000340: 7e43 973e 50d8 3fbf d07d 6cbf 10d3 3fbe
00000350: f983 5e3e 0b2d 823f 05b1 653e d639 ca3d
00000360: f42c fc3e ee52 a1be d595 07bf 7bfb b13e
00000370: 064c 443f 9045 b23d 979d a7be 4c0d d8be
00000380: 0eb7 9a3e 2dbb 49be 6c81 cebd 3efe 9d3d
00000390: c33f 9e3e 6ee3 90be 4c87 16bf 5eba 533e
000003a0: 1e54 f73e 3f93 cd3d 8a33 82be 03c3 d13d
000003b0: 81a6 b83e 42b6 9dbe b009 d4bd e868 50be
000003c0: 8ad1 b93e eeb8 2abf 80a1 3ebe d40b 8cbd
000003d0: 3b76 bf3e 1750 33be 74f9 c4be a153 cf3d
000003e0: 8f8e fb3e 89b1 a4bc 0810 1abf 9bfd 073e
000003f0: 96d5 e43e 5fa0 763e b4de 1dbe 2335 20be

encoder.0.bias f4 [400]
-0.23605381 -1.4079907 -0.9184558 -0.4715228 -0.97219443 -1.4363055 -1.4863446 0.122048296
-1.4008391 -1.1444161 0.5036671 -1.3375733 -1.2193072 0.28662357 -1.6758151 -1.0254341
-1.1024674 -0.8693681 -0.8481267 -0.54846627 -0.5147554 -0.13594805 -1.1002082 -1.147654
-1.1559368 -0.46668613 -1.3146755 -1.4357966 -0.5697237 -1.7376952 -1.1819607 -1.437684
-0.9860691 0.33182767 -1.1312901 -1.233636 -1.4690706 -0.3657215 -0.8081084 -1.2334852
-1.27622 0.20542711 -1.0003444 -1.495371 -0.4371209 -0.4739866 -1.3483225 -0.82625324
-1.4636381 -1.0617198 -0.118282214 -0.6369039 -0.1787741 -1.1860304 -0.39053297 -1.1777102
-1.4479204 -1.4437431 -1.1324058 -1.0884196 -0.4319248 -1.0683815 -0.45035887 -0.90924525
-1.3525261 -1.0818894 -1.2381824 -0.37666553 -1.3007544 -1.4670588 -0.99595755 -1.1307727
-0.33849797 -1.7470742 -0.5639741 -1.5079106 -1.7700329 -1.2742819 -1.2368175 -1.574247
-0.8582081 -1.2547129 -1.1618156 0.0066462304 -1.518491 -1.1562201 -0.89566195 -0.82867736
-0.40529564 -1.2945719 -0.08346432 -1.0904553 -1.065841 -0.71447855 -1.5706329 -1.4052222
-0.7284272 -1.3614746 -1.528735 -0.5299435 -1.3106016 -0.09591331 -1.3875747 -1.1151019
-1.1750978 -1.0436425 -1.7886078 -0.4314172 -0.46505228 -1.3490647 -1.4347245 -1.0524877
0.28519076 -0.958497 -0.99785364 -1.3375616 -1.0000451 -1.1819183 -1.3270009 -0.61632603
-1.468523 0.1920945 -0.57500374 -0.4580144 -0.92295927 -1.4820862 -0.3519495 -1.7292331
-0.2892581 -1.6049911 -1.4130138 -1.1557775 -1.391461 -1.1017371 -1.3405889 -0.47715554
-1.1266096 -0.779691 0.0718009 -1.4145666 -1.433499 -0.3477504 -0.95795965 -0.47508594
-1.117051 -0.30771175 -1.0350097 -1.0721682 -1.1524606 -1.8057815 -1.2274052 -1.0042741
-0.75357944 -1.2398224 -1.4122117 -0.02988195 -0.6108565 -1.1322078 0.27116555 -0.94666904
-1.0544475 -1.2589741 -1.5610476 -1.1285003 -1.4041506 -1.628247 -1.411902 -0.86036193
-1.5545809 0.17603622 -1.035924 -1.4922262 -0.9533426 -1.4305471 -0.88356954 -0.57875544
-0.9343391 -1.2313583 -1.3635285 -0.94017524 -0.43635932 -1.2077695 -0.94146585 0.3013982
-1.3189917 -1.1577132 0.01672478 -0.18938328 -0.64669144 -1.310974 -1.4192938 -1.2419232
-0.42627466 -0.3613901 -0.42568132 -0.5410322 -0.67324954 -1.1831053 -0.2527615 -0.61510044
-1.5672739 -2.0268977 -1.6152362 -1.7222278 -1.6324599 -1.7636913 -0.4972836 -1.4949176
-0.43079624 -0.06801153 -0.9701705 -1.4388837 -1.731678 -0.72780865 -1.0622622 -1.708034
-1.2408918 -0.6913841 -1.062554 -1.4696842 -0.7740017 -1.3815179 -0.81492263 -0.39076847
-1.5451694 -1.5549545 -1.7286234 -0.57460207 0.22152966 -1.7915245 -0.68704706 -1.1307174
-1.1021435 -1.407893 -1.192886 -1.6275215 -0.46045643 -0.33802605 -1.2912025 -1.5790172
-0.80027086 -1.1587054 -1.550021 -0.983934 -1.2104529 -1.3792832 -1.598873 -1.3743681
-1.5488503 -1.0132604 -1.558553 -1.4898331 -1.2731924 -1.3563043 -1.4005994 -1.1321958
00000000: 17b8 71be 0a39 b4bf eb1f 6bbf 706b f1be
00000010: bce1 78bf dcd8 b7bf 8a40 bebf 75f4 f93d
00000020: b24e b3bf 3a7c 92bf 54f0 003f 9a35 abbf
00000030: 4212 9cbf 53c0 923e 1c81 d6bf 6d41 83bf
00000040: a71d 8dbf e88e 5ebf d51e 59bf 4968 0cbf
00000050: 03c7 03bf f735 0bbe 9fd3 8cbf 54e6 92bf
00000060: bdf5 93bf 7cf1 eebe 4947 a8bf 2fc8 b7bf
00000070: 6ad9 11bf cc6c debf 7d4a 97bf 0806 b8bf
00000080: 066f 7cbf 51e5 a93e 1dce 90bf c9e7 9dbf
00000090: 810a bcbf d93f bbbe 31e0 4ebf d8e2 9dbf
000000a0: 2d5b a3bf 7c5b 523e 490b 80bf 5168 bfbf
000000b0: 50ce dfbe 5fae f2be d595 acbf 5585 53bf
000000c0: 7e58 bbbf 6fe6 87bf f23d f2bd 220c 23bf
000000d0: 8f10 37be d8cf 97bf f0f3 c7be 35bf 96bf
000000e0: 7555 b9bf 93cc b8bf acf2 90bf 5551 8bbf
000000f0: 3f25 ddbe bac0 88bf 7095 e6be 4cc4 68bf
00000100: 931f adbf 5a7b 8abf c37c 9ebf 4eda c0be
00000110: 1f7f a6bf 95c8 bbbf 13f7 7ebf 29bd 90bf
00000120: 9b4f adbe 21a0 dfbf 9b60 10bf 3703 c1bf
00000130: 7090 e2bf ab1b a3bf 0950 9ebf ed80 c9bf
00000140: 87b3 5bbf 6f9a a0bf 60b6 94bf 9fc8 d93b
00000150: ea5d c2bf 05ff 93bf 1a4a 65bf 3324 54bf
00000160: e982 cfbe 88b4 a5bf 57ef aabd 0a94 8bbf
00000170: 7a6d 88bf 11e8 36bf 800a c9bf 52de b3bf
00000180: 347a 3abf cd44 aebf 97ad c3bf 61aa 07bf
00000190: cbc1 a7bf 336e c4bd 0c9c b1bf a9bb 8ebf
000001a0: 9b69 96bf 1496 85bf 1af1 e4bf b7e2 dcbe
000001b0: 551b eebe 27ae acbf 0da5 b7bf ebb7 86bf
000001c0: 8604 923e 0f60 75bf 5673 7fbf 3835 abbf
000001d0: 7a01 80bf 1949 97bf 2adb a9bf 8bc7 1dbf
000001e0: 90f8 bbbf 6cb4 443e 7233 13bf dd80 eabe
000001f0: 0f47 6cbf 00b5 bdbf ba32 b4be 8357 ddbf
00000200: a319 94be 5970 cdbf a3dd b4bf 84f0 93bf
00000210: 651b b2bf b905 8dbf 6b98 abbf bb4d f4be
00000220: be34 90bf d499 47bf 5a0c 933d 8510 b5bf
00000230: e57c b7bf 570c b2be d83c 75bf 773e f3be
00000240: 87fb 8ebf 658c 9dbe 337b 84bf cf3c 89bf
00000250: d483 93bf d923 e7bf 9d1b 9dbf 0e8c 80bf
00000260: 95ea 40bf 80b2 9ebf 5ac3 b4bf feca f4bc
00000270: 1761 1cbf 2fec 90bf 36d6 8a3e e758 72bf
00000280: 23f8 86bf 1026 a1bf 68d0 c7bf b372 90bf
00000290: 35bb b3bf 666a d0bf 34b9 b4bf ae40 5cbf
000002a0: 82fc c6bf d742 343e 2899 84bf 4501 bfbf
000002b0: 430e 74bf 2b1c b7bf 9d31 62bf 5129 14bf
000002c0: d930 6fbf 269d 9dbf 1a88 aebf 53af 70bf
000002d0: 7d6a dfbe 3198 9abf e803 71bf dd50 9a3e
000002e0: b8d4 a8bf f22f 94bf 6802 893c b1ed 41be
000002f0: 928d 25bf ffcd a7bf 6bab b5bf 57f7 9ebf
00000300: ac40 dabe 2008 b9be e7f2 d9be 1681 0abf
00000310: 155a 2cbf ff6f 97bf f569 81be 3977 1dbf
00000320: 6e9c c8bf b1b8 01c0 0fc0 cebf f671 dcbf
00000330: 72f4 d0bf a3c0 e1bf f59b febe 7659 bfbf
00000340: 5391 dcbe a149 8bbd 185d 78bf 572d b8bf
00000350: a0a7 ddbf ab51 3abf 35f8 87bf dca0 dabf
00000360: 8bd5 9ebf 8cfe 30bf c501 88bf 9d1e bcbf
00000370: fa24 46bf 94d5 b0bf c59e 50bf ce12 c8be
00000380: 1cc8 c5bf c008 c7bf 8843 ddbf 1f19 13bf
00000390: acd8 623e ad50 e5bf 51e2 2fbf 59bb 90bf
000003a0: 0a13 8dbf d635 b4bf 7db0 98bf a052 d0bf
000003b0: f2c0 ebbe c011 adbe 2046 a5bf 3c1d cabf
000003c0: 8dde 4cbf 7550 94bf 1767 c6bf 19e3 7bbf
000003d0: 1ff0 9abf 5a8c b0bf dfa7 ccbf 4beb afbf
000003e0: ba40 c6bf 84b2 81bf aa7e c7bf dab2 bebf
000003f0: f8f7 a2bf 619b adbf d746 b3bf cbeb 90bf

encoder.2.weight f4 [128, 400]
0.84184 1.7840964 0.8290853 0.056606073 0.0077737956 -0.6010208 1.9534107 0.07079755
0.44665703 1.2892534 -1.4959453 2.1194434 0.9332749 -0.8576923 -0.03592702 0.7646118
1.1875653 0.14984888 0.8589836 1.2356083 -0.7870423 -0.97425115 0.32503992 0.7571585
1.5911844 -0.1918662 1.6414391 0.6496608 1.3384924 0.9835602 0.439564 1.1993436
0.9198008 -0.5862286 0.08460822 0.26999807 0.9614256 0.95510584 0.3437425 1.0845311
0.50816065 0.29754803 0.34945664 0.83417183 0.42456576 1.7393433 -0.5755664 0.58946395
1.3175672 1.0677943 0.72512615 1.4351296 1.4080424 -0.3277171 -0.6558843 0.821029
1.4773937 1.2877542 0.6821972 0.46221566 1.2486792 0.3748081 1.0435346 1.7894171
0.8955555 1.1374278 -0.6914677 -0.41287652 0.68272144 1.7529337 0.42117855 0.40246555
0.79926866 0.5973032 1.4105244 0.89558816 0.76141995 0.60088897 1.4860171 0.4267334
2.0126815 0.87264323 1.0581452 -0.25518996 1.1847781 0.8726143 1.5777742 0.49655414
0.9816913 0.88237834 0.33160877 1.2861699 0.6798664 0.46698928 -0.100913845 1.3900803
0.6416522 1.6633748 1.5181025 -0.67669106 0.86053026 0.087536246 0.6832489 1.1206957
1.2236645 0.98857045 0.70723486 1.2642123 1.0499047 1.787968 1.0468132 1.682755
-0.92278546 0.8291008 1.410668 -0.22455518 0.21398795 0.9581566 0.96221775 -0.5351844
1.2233411 -0.30395064 1.0845057 1.6653731 0.122341245 0.72064376 1.4596491 1.0399121
0.8796397 1.5227572 1.2538623 0.3391952 2.2353172 0.53928345 0.9159253 1.105946
0.5927401 0.9347833 0.22627802 1.4458796 0.96450436 1.0590546 0.78601664 0.50681
0.73513407 0.8387649 0.68355346 0.6508907 1.0175157 0.70713204 -1.0525173 -1.5923331
0.24770238 0.2619364 0.12380624 0.3584422 0.15608609 0.5971543 0.08426806 0.9344072
0.5951504 -0.20402034 0.6404801 1.2574139 0.71593016 0.58998466 0.80667156 0.43299916
0.43135533 -0.1727906 1.9302243 0.15204369 0.44548792 0.6669251 -0.075168535 -0.016947601
-0.075876504 0.97604424 0.8736524 0.16860463 1.5351886 1.1412404 -1.3600943 0.26875764
-0.66524476 0.98980993 -2.0398512 0.50714904 0.25286692 0.59094423 -0.13465537 1.2706938
-1.3688004 0.9621137 1.1101962 0.0015282675 1.04876 1.3200773 -0.6477661 0.8151584
0.19869448 1.001198 1.1215129 1.4997655 1.2186843 -0.8806607 1.1862171 -0.06931679
1.2436659 1.0321187 1.4388622 -0.32508522 -0.6688268 -0.106905356 0.8719262 0.8014774
1.0597317 0.26363072 1.176673 1.1544294 0.4366173 0.8918857 -0.09196129 1.3686123
0.5103559 2.6314566 1.089457 1.2968029 0.08540006 1.8290899 -0.093948685 2.2921228
0.53093284 1.652677 0.85196596 -0.14245525 0.15177627 1.095097 1.2757944 1.5145608
-0.5568676 1.6161013 1.7814943 -0.048379343 0.35625756 1.6771743 1.3367198 -0.38028306
2.2034576 -0.682251 1.1182059 1.4941081 0.23953347 0.91237646 0.38706684 0.73598343
00000000: d482 573f 455d e43f ef3e 543f c5db 673d
00000010: 53bb fe3b 80dc 19bf 5d09 fa3f 4efe 903d
00000020: 3bb0 e43e 4106 a53f 237b bfbf f6a4 0740
00000030: 1beb 6e3f b991 5bbf 3628 13bd 99bd 433f
00000040: 2402 983f fc71 193e 59e6 5b3f 6a28 9e3f
00000050: 9b7b 49bf 8668 79bf a26b a63e 24d5 413f
00000060: eeab cb3f 9378 44be ad1a d23f 2c50 263f
00000070: b853 ab3f 9aca 7b3f 880e e13e 1784 993f
00000080: 1178 6b3f 1413 16bf 1347 ad3d 303d 8a3e
00000090: fd1f 763f d181 743f 04ff af3e ead1 8a3f
000000a0: d116 023f 3758 983e fbeb b23e 498c 553f
000000b0: af60 d93e cda2 de3f 5258 13bf 1ce7 163f
000000c0: 0ba6 a83f 7cad 883f dea1 393f 54b2 b73f
000000d0: bc3a b43f 89ca a7be 09e8 27bf f52e 523f
000000e0: 3d1b bd3f 21d5 a43f 7aa4 2e3f 88a7 ec3e
000000f0: b8d4 9f3f d9e6 bf3e 8b92 853f 9f0b e53f
00000100: 2043 653f 3c97 913f 0704 31bf 8d64 d3be
00000110: d5c6 2e3f 2260 e03f b7a4 d73e f70f ce3e
00000120: df9c 4c3f dde8 183f 108c b43f 4445 653f
00000130: 6bec 423f dcd3 193f cf35 be3f cd7c da3e
00000140: c6cf 0040 8c65 5f3f 4d71 873f 42a8 82be
00000150: cfa6 973f a763 5f3f 81f4 c93f 583c fe3e
00000160: 1f50 7b3f 8ce3 613f a0c8 a93e 37a1 a43f
00000170: b90b 2e3f 3819 ef3e ebab cebd 27ee b13f
00000180: 5243 243f 77e9 d43f 2f51 c23f a03b 2dbf
00000190: b64b 5c3f 3446 b33d 66e9 2e3f f572 8f3f
000001a0: 0aa1 9c3f f412 7d3f 580d 353f b5d1 a13f
000001b0: 4763 863f 23dc e43f fafd 853f 8464 d73f
000001c0: ab3b 6cbf f33f 543f c590 b43f cbf1 65be
000001d0: a81f 5b3e c049 753f e753 763f d801 09bf
000001e0: 7196 9c3f 6b9f 9bbe 15d1 8a3f f22a d53f
000001f0: 0c8e fa3d 1c7c 383f c8d5 ba3f d71b 853f
00000200: 1130 613f b5e9 c23f 8f7e a03f feaa ad3e
00000210: 700f 0f40 7b0e 0a3f 157a 6a3f a38f 8d3f
00000220: d1bd 173f f54d 6f3f 6db5 673e 9512 b93f
00000230: c2e9 763f 1a8f 873f 6338 493f 4dbe 013f
00000240: bf31 3c3f 4cb9 563f 5cfd 2e3f c6a0 263f
00000250: f43d 823f 9b06 353f e3b8 86bf 92d1 cbbf
00000260: b1a5 7d3e 871c 863e 208e fd3d bc85 b73e
00000270: 08d5 1f3e 1bdf 183f bc94 ac3d 4f35 6f3f
00000280: c75b 183f b5ea 50be 81f6 233f f0f2 a03f
00000290: 3347 373f 3c09 173f 0782 4e3f 11b2 dd3e
000002a0: 9bda dc3e 05f0 30be 9711 f73f 57b1 1b3e
000002b0: fe16 e43e 9abb 2a3f f6f1 99bd b2d5 8abc
000002c0: 2465 9bbd 09de 793f afa7 5f3f b1a6 2c3e
000002d0: 0f81 c43f 2a14 923f 9217 aebf 9a9a 893e
000002e0: 7b4d 2abf 2f64 7d3f ec8c 02c0 85d4 013f
000002f0: c677 813e 1f48 173f 19e3 09be 18a6 a23f
00000300: da34 afbf 154d 763f e91a 8e3f 2650 c83a
00000310: c53d 863f 4bf8 a83f 00d4 25bf 39ae 503f
00000320: 9176 4b3e 4227 803f bc8d 8f3f 51f8 bf3f
00000330: d9fd 9b3f fb72 61bf f6d5 973f f6f5 8dbd
00000340: 7230 9f3f 771c 843f a32c b83f 9271 a6be
00000350: 3c38 2bbf 32f1 dabd 8e36 5f3f 9f2d 4d3f
00000360: 4aa5 873f 9bfa 863e 399d 963f 58c4 933f
00000370: 4e8c df3e 9f52 643f 3356 bcbd b02e af3f
00000380: afa6 023f c969 2840 5473 8b3f a3fd a53f
00000390: 3ae6 ae3d 9e1f ea3f 2b68 c0bd 24b2 1240
000003a0: 37eb 073f ec8a d33f 711a 5a3f cadf 11be
000003b0: 3d6b 1b3e 232c 8c3f 3b4d a33f 21dd c13f
000003c0: e08e 0ebf 68dc ce3f 0108 e43f 6b29 46bd
000003d0: 6467 b63e a6ad d63f a219 ab3f 76b4 c2be
000003e0: 7305 0d40 00a8 2ebf 5f21 8f3f ef3e bf3f
000003f0: 4348 753e 8191 693f a02d c63e 6969 3c3f

encoder.2.bias f4 [128]
-1.3354902 -1.9152226 0.29154038 -1.5304831 -0.6522487 -0.7285593 -0.11104662 -0.68215585
-0.43659967 -1.8592701 -2.314131 0.27239326 -1.4866569 0.5879297 0.08935692 0.45224655
-0.40370095 0.16413616 -1.4900432 0.061131097 -0.009768841 -0.5227618 -2.8754606 -1.4036412
-0.63278306 -0.8565421 -2.6598022 -0.020821452 -0.083510466 -0.3656346 -1.8452328 -1.5589937
-0.48773998 -0.45055914 0.33178926 -0.11113971 -1.6501688 -0.06895093 -0.63054174 -0.6143831
0.058346663 -0.420314 -0.09995374 -1.906156 -2.0882282 -0.06525066 -2.5685225 -1.8347884
0.13736795 -1.4973905 -0.38058865 0.071612135 -0.68374765 -1.5837489 -1.2037249 -0.9647148
-2.3432744 -0.35897467 -0.26549596 -0.9993787 -0.90480745 0.3572249 -0.90849274 -0.6683855
-1.528196 -2.867625 -1.4443066 -0.66065645 -0.42934406 -1.259808 -0.64342964 -0.4465624
-0.9677733 0.12139997 -1.3367823 -0.7741473 -0.15599512 -0.45372966 -0.8154294 -0.50385237
-0.8111625 -0.7951411 0.10476329 -2.3012664 -2.309686 -1.0928632 0.060836256 -0.004013537
-1.8164883 0.50665647 -1.8141165 -2.0916827 -2.0440433 -0.39454228 -2.3664227 -0.62799597
-2.1019814 -0.4075508 -1.0786664 -1.2169492 -1.6689143 -0.22220168 -2.022816 -0.1512081
-0.7729102 0.04546319 -0.47273335 -2.644963 -0.7967534 -0.10428788 -2.0049605 -0.29593387
0.17371884 -1.0267568 0.17761312 -2.2747316 -0.8173071 0.12235067 0.017778104 -1.9201142
-0.018790383 -1.856838 0.5430048 -0.08279813 -0.46533582 -0.4890632 -2.0215628 -1.8488035
00000000: 58f1 aabf 0426 f5bf c844 953e dfe6 c3bf
00000010: c5f9 26bf dd82 3abf 696c e3bd c4a1 2ebf
00000020: fe89 dfbe 90fc edbf b91a 14c0 2177 8b3e
00000030: c64a bebf 9082 163f c300 b73d dc8c e73e
00000040: e4b1 cebe 4f13 283e bcb9 bebf 9a64 7a3d
00000050: 7d0d 20bc b8d3 05bf 8c07 38c0 84aa b3bf
00000060: 12fe 21bf 5846 5bbf 333a 2ac0 c091 aabc
00000070: 8907 abbd 7534 bbbe 9730 ecbf 1b8d c7bf
00000080: 0eb9 f9be b0af e6be 48e0 a93e 379d e3bd
00000090: bb38 d3bf 2536 8dbd 2f6b 21bf 3648 1dbf
000000a0: e9fc 6e3d 6633 d7be 8cb4 ccbd ebfc f3bf
000000b0: 88a5 05c0 23a2 85bd ac62 24c0 59da eabf
000000c0: 2faa 0c3e 7eaa bfbf 84dc c2be 62a9 923d
000000d0: 160a 2fbf 49b8 cabf a813 9abf 8df7 76bf
000000e0: 35f8 15c0 87cb b7be 16ef 87be 48d7 7fbf
000000f0: 76a1 67bf 2fe6 b63e fb92 68bf 501b 2bbf
00000100: ed9b c3bf 2b87 37c0 0adf b8bf c820 29bf
00000110: fcd2 dbbe 6341 a1bf ceb7 24bf d4a3 e4be
00000120: febf 77bf 8ca0 f83d af1b abbf 842e 46bf
00000130: 2fbd 1fbe 414f e8be fbbf 50bf 78fc 00bf
00000140: 58a8 4fbf 5e8e 4bbf 238e d63d f347 13c0
00000150: e5d1 13c0 f1e2 8bbf 702f 793d fd83 83bb
00000160: b082 e8bf 3db4 013f f834 e8bf 21de 05c0
00000170: 9bd1 02c0 7201 cabe 7873 17c0 58c4 20bf
00000180: dd86 06c0 80aa d0be be11 8abf fec4 9bbf
00000190: fc9e d5bf d688 63be d175 01c0 4cd6 1abe
000001a0: 71dd 45bf 9c37 3a3d 1b0a f2be 1347 29c0
000001b0: 08f8 4bbf e294 d5bd 4651 00c0 a584 97be
000001c0: 5ae3 313e c46c 83bf 37e0 353e 3495 11c0
000001d0: 0a3b 51bf fd92 fa3d 63a3 913c 4dc6 f5bf
000001e0: 4aee 99bc deac edbf 5d02 0b3f 1192 a9bd
000001f0: 7f40 eebe 7e66 fabe 4961 01c0 98a5 ecbf

encoder.4.weight f4 [20, 128]
0.09700708 -0.523696 -0.0019045641 -0.57609427 -0.018582076 -0.003332283 0.02663809 -0.04670004
-0.034075815 1.0004066 -0.14951369 0.04757405 0.03023883 0.2774753 -0.010049347 -0.029557403
-0.12352649 0.06616314 -0.1023726 0.0274078 0.043787412 0.031968743 1.6014205 0.19802071
-0.01810738 0.08461578 -0.28822127 -0.0016304605 0.13265029 0.26228812 -0.5673747 0.06903672
-0.27115482 -0.09593309 0.056929663 0.035781693 -0.18742804 0.032776102 0.084795706 0.09445697
-0.009461839 0.12580349 -0.024833422 0.054830756 -0.6187223 0.013193948 -0.17113353 0.1130126
0.10844109 -0.18136078 0.072826244 0.09108514 0.5507004 -0.38934562 0.058491338 1.2174085
0.16083056 -0.0064713736 -0.037678197 -0.043606598 -0.00069556665 0.007852437 0.93826616 -0.08287802
-0.4024712 -0.1519033 -0.39408392 0.06619998 0.15191786 -0.306016 0.22429624 0.07085501
-0.08689431 -0.023814684 -0.172856 0.12977582 0.08090729 0.17744556 -0.13740191 -0.011849361
0.028291337 0.01004091 -0.031556327 -0.36361438 0.45992652 0.08764846 -0.027367614 -0.1237502
-0.8362698 0.0057247174 -0.4465793 -0.32775846 0.06546937 -0.013293913 -0.016853128 0.03117243
-0.6310527 -0.038442362 0.028990965 -0.047382023 -0.33979943 -0.108146384 1.0921005 0.06865277
0.229612 -0.005616473 -0.004543029 -0.3680672 0.03870989 -0.14138597 -0.030521935 -0.18930547
0.09955147 0.39036518 -0.051409718 -0.23907839 -1.2209032 0.0102586495 0.010374496 0.8671749
-0.14459547 -0.4159532 -0.17746064 0.03981505 -0.13422078 -0.020168744 1.0001297 -0.2909735
0.11768732 -0.05109045 0.3212145 -0.28874338 -0.020531343 -0.08745484 0.029419087 -0.013540969
-0.09947892 -0.5239059 0.8666974 0.006687506 -0.08361771 -0.124124795 -0.13290425 -0.019066265
-0.013357555 -0.0653133 -0.7081557 -0.036487766 -0.034010436 -0.06524278 0.82203597 -0.08783002
-0.25454602 0.04564678 -0.33759117 0.01783224 0.06654926 -0.027772835 -0.2442695 0.17163551
0.032310307 -0.013838825 -0.017416054 -0.016123015 0.1656087 0.078674905 0.001576697 0.007106268
-0.046701547 -0.008932102 -0.11589611 0.009145701 -0.7023347 -0.046885725 -0.016862985 -0.32474422
0.2342445 -0.17412299 -0.0724837 0.016350383 -0.54630923 -0.08695103 -0.06183114 -0.16024634
-0.03153037 0.04812046 0.018798465 -0.0046250094 0.027429637 0.0040866407 -0.694899 -0.013362531
0.6966092 -0.22493388 -0.49933568 -0.18499629 0.12069076 -0.07962004 -0.023326825 -0.109798074
-0.020014018 -0.020459335 1.171099 0.008905435 -0.005901467 -0.0041931057 -0.82881194 -0.041634385
0.16993606 -0.012382834 0.008360476 -0.016564138 0.53353184 -0.7997073 -0.020372964 0.16127189
0.81500113 0.026986465 0.14149804 0.71324825 -0.8034588 0.027826112 -0.19338015 0.013440647
0.87936914 -0.10943513 0.017104274 -0.019598117 0.29323924 -0.036674723 -0.42032698 -0.068193406
-0.10928394 -0.013685067 0.35222995 -0.68945485 -0.00461414 -0.1305128 0.62691414 0.011521295
0.029288135 0.015713643 0.11915114 -0.16407052 -0.083773926 0.02036732 -0.28583226 0.8975082
-0.05206771 -0.85547847 0.057370167 0.14248581 0.04767495 0.041840795 1.0714066 -0.13058515
00000000: a6ab c63d f110 06bf 91a2 f9ba ea7a 13bf
00000010: 7039 98bc 6f62 5abb 2038 da3c 8b48 3fbd
00000020: 1593 0bbd 530d 803f 1e1a 19be 02dd 423d
00000030: 6cb7 f73c 3e11 8e3e 04a6 24bc 5e22 f2bc
00000040: 75fb fcbd 8a80 873d baa8 d1bd 5386 e03c
00000050: 6e5a 333d a8f1 023d 59fb cc3f f1c5 4a3e
00000060: ee55 94bc 0a4b ad3d bd91 93be 2db5 d5ba
00000070: 7ad5 073e a14a 863e 783f 11bf 2063 8d3d
00000080: ced4 8abe 9178 c4bd 142f 693d d38f 123d
00000090: 23ed 3fbe 3c40 063d 5fa9 ad3d a872 c13d
000000a0: d405 1bbc a1d2 003e 766f cbbc 3796 603d
000000b0: 9664 1ebf 6e2b 583c a13d 2fbe 2673 e73d
000000c0: 5d16 de3d a4b6 39be ed25 953d d98a ba3d
000000d0: b4fa 0c3f 4f58 c7be 9d94 6f3d 0bd4 9b3f
000000e0: c4b0 243e d10d d4bb 7454 1abd d59c 32bd
000000f0: b056 36ba 82a7 003c 3632 703f f4bb a9bd
00000100: b510 cebe 8a8c 1bbe 5ec5 c9be db93 873d
00000110: 5b90 1b3e 21ae 9cbe eaad 653e 6e1c 913d
00000120: a5f5 b1bd 0317 c3bc 2a01 31be f4e3 043e
00000130: b9b2 a53d 4ab4 353e 16b3 0cbe d223 42bc
00000140: 3cc3 e73c a182 243c 3541 01bd aa2b babe
00000150: 7d7b eb3e 0981 b33d 0c32 e0bc bf70 fdbd
00000160: c715 56bf 6996 bb3b 0ba6 e4be f5cf a7be
00000170: ce14 863d b6ce 59bc 920f 8abc 535d ff3c
00000180: ab8c 21bf bd75 1dbd 767e ed3c a713 42bd
00000190: 31fa adbe da7b ddbd f3c9 8b3f d399 8c3d
000001a0: 681f 6b3e 640a b8bb b0dd 94bb 4e73 bcbe
000001b0: 438e 1e3d 7cc7 10be 2309 fabc 4bd9 41be
000001c0: a4e1 cb3d f2dd c73e ff92 52bd f7d0 74be
000001d0: 8e46 9cbf e513 283c caf9 293c 2dff 5d3f
000001e0: d610 14be d1f7 d4be 3eb8 35be 1b15 233d
000001f0: 2c71 09be ec38 a5bc 4004 803f 7bfa 94be
00000200: 0d06 f13d 3844 51bd 3a76 a43e 2cd6 93be
00000210: 5931 a8bc 861b b3bd 4c00 f13c f1da 5dbc
00000220: 9bbb cbbd b21e 06bf e1df 5d3f de22 db3b
00000230: c33f abbd 2435 febd 0d18 08be db30 9cbc
00000240: a5d9 5abc fbc2 85bd b149 35bf 3274 15bd
00000250: 874e 0bbd 029e 85bd f370 523f 3ae0 b3bd
00000260: db53 82be 1ef8 3a3d c0d8 acbe eb14 923c
00000270: fa4a 883d db83 e3bc c921 7abe 38c1 2f3e
00000280: d057 043d 3dbc 62bc 1dac 8ebc 6a14 84bc
00000290: 5495 293e 4f20 a13d 2ca9 ce3a b2db e83b
000002a0: 1f4a 3fbd f357 12bc f15a edbd dad7 153c
000002b0: 35cc 33bf 3f0b 40bd 3e24 8abc e044 a6be
000002c0: cadd 6f3e 4c4d 32be 5672 94bd 3df1 853c
000002d0: ecda 0bbf 6213 b2bd a642 7dbd 9e17 24be
000002e0: fd25 01bd f619 453d 3dff 993c 648d 97bb
000002f0: 1eb4 e03c 3ae9 853b e7e4 31bf 84ee 5abc
00000300: fb54 323f 1155 66be eda8 ffbe ab6f 3dbe
00000310: b82c f73d d50f a3bd e617 bfbc d0dd e0bd
00000320: 70f4 a3bc 569a a7bc 92e6 953f 1ae8 113c
00000330: 1861 c1bb 5266 89bb 052d 54bf d188 2abd
00000340: b803 2e3e 5fe1 4abc 61fa 083c 84b1 87bc
00000350: 8b95 083f 9eb9 4cbf 34e5 a6bc 7524 253e
00000360: eaa3 503f b812 dd3c dde4 103e 7097 363f
00000370: 7aaf 4dbf 96f3 e33c 7205 46be 2936 5c3c
00000380: 561e 613f 871f e0bd 431e 8c3c 3b8c a0bc
00000390: 7423 963e 3c38 16bd 1935 d7be fca8 8bbd
000003a0: 42d0 dfbd 5537 60bc 7c57 b43e 1d80 30bf
000003b0: 3632 97bb 26a5 05be 727d 203f d0c3 3c3c
000003c0: aced ef3c e6b9 803c 8305 f43d 1a02 28be
000003d0: aa91 abbd 5ed9 a63c 9b58 92be 19c3 653f
000003e0: f344 55bd a300 5bbf fbfc 6a3d cde7 113e
000003f0: cf46 433d 4161 2b3d da23 893f 1db8 05be

encoder.4.bias f4 [20]
-0.05663193 -0.07386223 0.2357503 -0.31255588 -0.009764378 0.5407815 0.00051284535 0.039037675
0.108145386 -0.00799879 -2.7418308 -1.8973312 -1.5339547 -2.4034655 -0.014560559 -2.6311586
-2.324806 -2.1928723 -2.7910423 -0.012145539
00000000: e2f6 67bd 1545 97bd 8768 713e 5307 a0be
00000010: c5fa 1fbc a870 0a3f 7870 063a f8e5 1f3d
00000020: 547b dd3d 5b0d 03bc 287a 2fc0 c0db f2bf
00000030: a158 c4bf 61d2 19c0 698f 6ebc e764 28c0
00000040: 9fc9 14c0 0558 0cc0 70a0 32c0 15fe 46bc

decoder.0.weight f4 [128, 10]
-0.17039296 0.028306779 0.15143599 -0.23934351 -0.011575304 -0.051848784 0.29731366 -0.16985251
-0.026173085 0.0041021258 -0.043958537 0.09904598 -0.43154004 0.21421327 -0.015145919 -0.01788723
-0.015052601 -0.079045326 -0.0259206 -0.013914891 -0.057494536 0.05698665 0.11677071 -0.08090467
-0.009376929 -0.08518485 -0.4210466 0.2596213 0.028933218 0.015298698 0.20370555 0.054638572
-0.020348245 0.061883524 0.014228464 -0.10004178 -0.31864378 -0.17737249 -0.01456192 0.013931863
0.08486762 0.01400268 -0.046909753 -0.06741272 0.011267206 -0.43337378 0.14780885 0.026254624
0.23230413 -0.031844977 0.22957498 0.43920252 -0.023384238 -0.026137732 -0.0043475428 0.056905366
-0.03668815 -0.09175781 -0.40501013 0.0049972706 0.015111099 -0.023747956 0.047198065 0.008418625
0.0051592663 -0.12250036 0.030093074 0.06837562 -0.2568536 0.013323563 0.05378498 0.13197322
0.12642787 -0.30663997 0.010411881 -0.0085454555 0.33018976 0.14051268 0.016635915 0.007054697
0.014335234 0.11085052 -0.0383219 -0.09524798 0.0005637443 -0.21393605 -0.11453229 -0.11424577
0.026941951 -0.0013237575 -0.1100912 0.01685557 -0.1839227 -0.045928456 -0.009339212 -0.12117948
0.17988232 -0.2810481 -0.027029818 -0.015474182 0.4559804 0.028634908 -0.055369318 0.05923222
-0.0034756812 -0.086602025 0.02913613 0.06682333 0.009383497 -0.017354527 -0.10046721 -0.048293408
0.09806966 0.062020265 -0.0050126365 0.098688 0.025658738 -0.17956723 -0.13330448 -0.010740972
0.055355 -0.1959205 0.068819396 0.096583426 0.0018319077 0.28179598 0.07030953 0.10704305
-0.032817468 0.0004595882 -0.12112213 0.13462359 -0.050422393 0.08671079 0.013931633 0.03076248
-0.14113659 0.2759057 -0.07082682 -0.011844703 0.096627094 0.13816115 -0.047505587 -0.32287785
0.01812931 0.030038714 -0.05341923 -0.23861817 0.13170572 -0.0003446322 -0.052551463 0.035166137
0.04601699 0.14764829 -0.018668028 -0.17507571 0.1587433 -0.061706625 -0.20535275 -0.020262297
0.081167996 -0.04351078 -0.14584485 0.2905094 -0.017847452 0.007773189 -0.044801213 0.2678931
-0.028583685 0.0055818586 -0.2251789 -0.08857222 -0.08357828 -0.15183212 0.004706935 0.0012909666
-0.060348187 -0.08968974 0.11448327 -0.0066029667 -0.07865755 -0.029023368 0.123057604 -0.0472937
-0.0033701414 0.13098358 -0.14518379 0.08516274 -0.036242858 -0.0031671869 0.0084965695 0.06882395
-0.15694784 0.0207176 0.008569843 -0.10188222 -0.7516154 -0.050807677 -0.024828902 0.0009322255
0.07033719 0.04683045 0.12790677 0.10088192 -0.018787615 0.07300496 -0.09858528 0.38642114
-0.034721103 -0.01409396 0.20714556 0.05363677 0.07336601 -0.2866611 -0.006570341 -0.09577381
-0.098972745 0.031145185 -0.08515988 -0.0027455 -0.07620509 0.3128484 -0.061401747 -0.03088785
0.0048113787 -0.047893286 0.19889711 0.15768346 0.04079589 -0.026064396 -0.05785289 -0.010057282
0.065694325 -0.10553737 0.00070081884 -0.14913647 0.03788877 0.076566085 0.117603034 -0.0027732612
0.14274566 -0.18038315 0.13951245 -0.10792004 0.0007239084 -0.15348113 0.37087688 -0.10110481
-0.4936809 -0.010028698 -0.19176608 0.1282967 -0.101149894 0.058419205 0.011909594 -0.11891043
00000000: 7e7b 2ebe 9ee3 e73c 0912 1b3e 7716 75be
00000010: 58a6 3dbc 645f 54bd 7f39 983e d1ed 2dbe
00000020: f068 d6bc 206b 863b de0d 34bd 9ed8 ca3d
00000030: d1f2 dcbe b95a 5b3e 9726 78bc 3d88 92bc
00000040: 2f9f 76bc 84e2 a1bd 7057 d4bc 48fb 63bc
00000050: 647f 6bbd d56a 693d 7b25 ef3d 59b1 a5bd
00000060: b1a1 19bc 6575 aebd 6c93 d7be 15ed 843e
00000070: 5b05 ed3c 64a7 7a3c 3098 503e b2cc 5f3d
00000080: 5db1 a6bc 9479 7d3d 811e 693c b4e2 ccbd
00000090: 4725 a3be 22a1 35be 1f95 6ebc 7842 643c
000000a0: 13cf ad3d 7f6b 653c 7124 40bd ae0f 8abd
000000b0: 169a 383c 2be3 ddbe 345b 173e f013 d73c
000000c0: 22e1 6d3e e16f 02bd b415 6b3e 27df e03e
000000d0: 4d90 bfbc cc1e d6bc d575 8ebb 9a15 693d
000000e0: 5046 16bd 85eb bbbd 7d5d cfbe 25c0 a33b
000000f0: 8b94 773c 138b c2bc c252 413d 46ee 093c
00000100: 100f a93b 78e1 fabd c085 f63c 8408 8c3d
00000110: 5182 83be 134b 5a3c a44d 5c3d fd23 073e
00000120: 4f76 013e eaff 9cbe 9896 2a3c 3d02 0cbc
00000130: a20e a93e 8ee2 0f3e 0b48 883c 162b e73b
00000140: 54de 6a3c 9905 e33d 6df7 1cbd 5f11 c3bd
00000150: 3dc8 133a 0d12 5bbe e88f eabd b0f9 e9bd
00000160: 5eb5 dc3c ee81 adba 7f77 e1bd b114 8a3c
00000170: 3b56 3cbe 7a1f 3cbd 7f03 19bc f22c f8bd
00000180: 1233 383e 89e5 8fbe a36d ddbc 6c87 7dbc
00000190: 4376 e93e c193 ea3c f0ca 62bd 7c9d 723d
000001a0: 41c8 63bb 675c b1bd e5ae ee3c acda 883d
000001b0: 3dbd 193c 152b 8ebc c1c1 cdbd 4fcf 45bd
000001c0: bfd8 c83d f608 7e3d 0b41 a4bb ef1c ca3d
000001d0: 4632 d23c 79e0 37be f880 08be e7fa 2fbc
000001e0: edbb 623d 629f 48be 2ff1 8c3d 88cd c53d
000001f0: 9f1c f03a 9047 903e 71fe 8f3d 6339 db3d
00000200: 9c6b 06bd e2f4 f039 e10e f8bd c4da 093e
00000210: b687 4ebd 6d95 b13d 8141 643c 9901 fc3c
00000220: 1c86 10be 8343 8d3e a70d 91bd 4910 42bc
00000230: 6de4 c53d 1e7a 0d3e 3895 42bd 3f50 a5be
00000240: eb83 943c c013 f63c 1fce 5abd 5258 74be
00000250: dddd 063e c0af b4b9 3440 57bd 5e0a 103d
00000260: 507c 3c3d 1d31 173e b1ed 98bc 0c47 33be
00000270: 9b8d 223e 16c0 7cbd fe47 52be 1efd a5bc
00000280: 683b a63d 5c38 32bd 5a58 15be a6bd 943e
00000290: d234 92bc 3cb6 fe3b 7a81 37bd 4929 893e
000002a0: 5528 eabc 06e8 b63b 4c95 66be 5a65 b5bd
000002b0: 172b abbd e179 1bbe a23c 9a3b a735 a93a
000002c0: a92f 77bd 41af b7bd 3476 ea3d b35d d8bb
000002d0: 3617 a1bd 6ac2 edbc a005 fc3d 0ab7 41bd
000002e0: 97dd 5cbb 8f20 063e 0fab 14be cd69 ae3d
000002f0: 6473 14bd 9490 4fbb 3235 0b3c 92f3 8c3d
00000300: efb6 20be f5b7 a93c 8768 0c3c a0a7 d0bd
00000310: de69 40bf b61b 50bd fb65 cbbc 9860 743a
00000320: f20c 903d 49d1 3f3d fef9 023e 2e9b ce3d
00000330: 7ce8 99bc a083 953d 14e7 c9bd fed8 c53e
00000340: b737 0ebd 5aea 66bc f71d 543e 3bb2 5b3d
00000350: eb40 963d 3ec5 92be 044c d7bb 0f25 c4bd
00000360: 39b2 cabd 3024 ff3c 4e68 aebd d9ed 33bb
00000370: 6a11 9cbd aa2d a03e 6680 7bbd 8408 fdbc
00000380: c5a8 9d3b c02b 44bd afab 4b3e c677 213e
00000390: 9719 273d 0085 d5bc 27f7 6cbd 4cc7 24bc
000003a0: bf8a 863d fa23 d8bd 28b7 373a 3bb7 18be
000003b0: 4131 1b3d aece 9c3d dcd9 f03d 9abf 35bb
000003c0: eb2b 123e 5cb6 38be 5adc 0e3e 2f05 ddbd
000003d0: acc4 3d3a 282a 1dbe 93e3 bd3e 0a10 cfbd
000003e0: bec3 fcbe 684f 24bc 545e 44be 3660 033e
000003f0: ad27 cfbd fa48 6f3d 7520 433c 5087 f3bd

decoder.0.bias f4 [128]
-0.6117058 -0.83428645 -0.8158397 -0.60973424 -0.8263774 -0.91852385 0.041834082 -0.7213907
0.033638697 -0.46078387 -0.4503873 -0.040461015 -0.084770195 -0.2663987 -0.6251527 -0.34362
-0.60028416 -0.19510572 0.101204745 -1.30053 -0.53375465 -0.5028507 -0.36086982 0.038631942
-1.0928513 -0.83531696 -1.0843174 -0.83709085 -0.71131766 -0.42650157 -0.63831735 -0.9283932
-0.21738836 -0.36686033 -1.3344537 -0.60605025 -0.2799074 -0.24081263 -0.4168357 -0.55495936
-0.7519664 -0.72407067 0.009684202 -0.31493104 -0.42690858 -0.68189645 -0.48422697 -0.39410856
-0.6575809 -0.06160975 -0.15539043 -0.92273444 -0.044319738 -0.44734782 -0.022938617 -0.7632418
-1.2667047 -0.47832194 -0.6738902 -0.010637062 -0.7119694 -0.417265 -0.035556823 -0.0065627014
-0.30591145 -0.023102038 -0.5739164 -0.7318622 -0.122795194 0.06270691 -0.19208777 -0.78322184
-0.04322411 0.009036519 -0.08971031 -0.26222634 -0.1644746 -0.681164 0.00058987027 -0.62807345
-0.4811442 -0.39039612 -0.27159882 -1.1240287 -0.5195496 0.046754185 -0.6951503 -0.5588895
-0.17025723 -0.10120363 0.04576652 -0.46585166 -0.3013804 -0.16048005 -0.5377431 -0.94023407
-0.50781554 -0.01387112 -0.41188738 -0.078527845 -0.33020538 -0.61924666 -0.16761938 -0.31128228
0.02882321 -0.00053268945 -0.5865099 -0.18879639 -0.01414846 -0.53264844 -0.849819 -0.28519508
-0.41406786 -0.36440018 -0.91730386 -0.9260779 -0.24975374 -0.2128653 -0.053838175 -0.15698862
-0.7505362 -1.5133076 -0.34595066 -0.038916614 -0.5007021 -0.21557698 0.11633146 -0.5831899
00000000: c098 1cbf cc93 55bf dfda 50bf 8b17 1cbf
00000010: 788d 53bf 6124 6bbf 375a 2b3d 10ad 38bf
00000020: bbc8 093d ddeb ebbe 2a99 e6be 73ba 25bd
00000030: ff9b adbd 6965 88be 020a 20bf f6ee afbe
00000040: 39ac 19bf cbc9 47be 6f44 cf3d c477 a6bf
00000050: 25a4 08bf d3ba 00bf eec3 b8be 873c 1e3d
00000060: 8de2 8bbf 55d7 55bf eaca 8abf 964b 56bf
00000070: ea18 36bf 6a5e dabe c468 23bf 2dab 6dbf
00000080: 0e9b 5ebe 1ed5 bbbe 61cf aabf 1c26 1bbf
00000090: 0650 8fbe 9697 76be 7d6b d5be d111 0ebf
000000a0: df80 40bf b25c 39bf 7daa 1e3c a43e a1be
000000b0: c393 dabe c490 2ebf 99ec f7be 99c8 c9be
000000c0: 3957 28bf 815a 7cbd ab1e 1fbe 5338 6cbf
000000d0: 9d88 35bd c60a e5be c4e9 bbbc d163 43bf
000000e0: 6123 a2bf 9de6 f4be 1184 2cbf 1247 2ebc
000000f0: a043 36bf c2a3 d5be 08a4 11bd ee0b d7bb
00000100: 6da0 9cbe 7c40 bdbc 2fec 12bf 525b 3bbf
00000110: 0c7c fbbd 7b6c 803d a8b2 44be 3a81 48bf
00000120: c40b 31bd e80d 143c 0aba b7bd 8842 86be
00000130: 086c 28be c460 2ebf 86a1 1a3a 6cc9 20bf
00000140: 8858 f6be 00e2 c7be 000f 8bbe 2ce0 8fbf
00000150: 3401 05bf 5181 3f3d 5ff5 31bf 6213 0fbf
00000160: e957 2ebe d943 cfbd ad75 3b3d 1c84 eebe
00000170: 884e 9abe e254 24be 88a9 09bf 2eb3 70bf
00000180: 3300 02bf b243 63bc e7e2 d2be 35d3 a0bd
00000190: ae10 a9be f386 1ebf 6aa4 2bbe 6460 9fbe
000001a0: a71e ec3c 2fa4 0bba 8325 16bf d753 41be
000001b0: f1ce 67bc a65b 08bf bd8d 59bf 1705 92be
000001c0: b400 d4be a992 babe 6dd4 6abf 7113 6dbf
000001d0: 72bf 7fbe 5cf9 59be 6b85 5cbd a0c1 20be
000001e0: 2423 40bf 10b4 c1bf 7220 b1be 0767 1fbd
000001f0: 032e 00bf 36c0 5cbe 303f ee3d ef4b 15bf

decoder.2.weight f4 [400, 128]
0.49402478 0.9036518 -0.071986385 0.9934974 -0.15344308 -0.37609324 0.14817442 -0.48459837
-1.9619783 0.3993486 -0.11756656 -0.47496468 0.26290584 -0.41150865 1.0981579 0.4850668
-0.88450724 -0.78462124 0.34362713 0.650574 -0.51892626 0.4352231 0.23029298 -0.2373686
0.21340954 0.69237673 0.67418015 1.5615137 0.028109735 -0.7449016 -0.0902059 0.673125
0.6442467 0.2742612 0.42084816 -0.18765272 0.04592606 -0.7380551 0.5649845 -0.17096217
0.31652048 0.617385 0.43545476 -0.40241462 0.06037349 0.2417342 -0.09757731 -0.63553405
0.24493194 -0.53054 -1.2824589 0.8851858 -0.6175285 -0.045687307 0.21071678 0.2968045
-0.036769543 -0.22172576 0.5002029 -1.0441468 -0.22856793 -0.0065252474 -0.1587511 -0.44994476
-0.5097528 0.5843864 -1.1966255 0.41292566 -0.22677587 -0.5873562 -0.18353234 0.08993863
-0.7114223 0.10179646 -0.26420003 0.54485685 -0.08580594 -0.19038084 -0.7333721 -0.0060780444
0.29002753 0.0055857957 0.5160086 0.7805809 -0.13041441 -0.6266594 -0.14636543 -0.8928444
0.089592665 -0.11184845 0.711754 -1.7534992 -0.26902783 -0.6001121 1.3166554 -1.798446
0.018818727 -0.13481554 0.07343405 -1.2480698 0.14134526 0.7432194 -0.7452406 0.69020456
-0.011034354 0.2332194 0.007834585 0.38141802 -0.6138127 -0.6430439 0.37112314 0.1410376
0.22737943 0.06870268 -0.36197123 0.642614 -0.41022232 -0.47544715 -0.8378401 -0.28900108
-0.38598272 0.33821237 -0.38060522 0.23668185 -0.35810646 -0.24118079 -0.14246668 -0.40325
-0.27220514 -0.6260335 -0.7242993 1.6476846 -0.24543852 -0.3449616 -0.10817679 -0.42374858
-0.339447 0.055580825 -0.43273234 0.20781179 -0.7443374 -0.08019305 0.4677325 0.09583607
-0.86632514 -0.06871309 -0.32320046 0.34568277 0.12695368 -0.4101359 0.11218452 0.23402691
-0.1853568 -1.7818168 1.4708406 -0.64050454 -1.2383711 0.237744 0.5373726 0.05324837
0.15443946 -0.76005256 -0.34693834 0.017663788 0.6508987 -0.2462317 0.113487616 0.21293314
0.52728146 0.21434933 0.19461629 0.0981717 -0.16273326 0.22176895 0.27776477 0.6262344
0.5175109 0.11901084 -0.038117375 -0.005160631 -0.40414703 -0.04099689 0.02925278 0.07943345
-1.6699172 0.17477645 0.23484388 -0.9828437 0.13267012 -0.19936986 -0.3652958 -0.26186332
-1.0111433 -0.14548579 -0.22015521 -0.16506137 -0.27167475 0.24331686 0.061618555 0.60081494
-0.122809306 0.017502766 -0.006131879 -0.40188557 -0.5290859 -0.6863817 0.101939216 0.90557915
-1.0281048 -0.44484806 -0.6828857 1.5795555 -0.54353124 0.08440955 -0.071972586 -0.02727169
0.13992405 -0.420465 -0.30400175 0.12810563 -0.105078556 -0.46806684 -0.5676242 -0.31976217
0.22708566 -1.6446038 0.56900984 0.41051042 0.06081797 0.7463694 -1.1299738 0.5521908
-0.30962613 -0.7174736 0.00799746 -0.33049196 -0.10500574 -1.0111516 -0.32111725 -0.22936246
-0.84365046 -0.49657997 0.29712203 -0.82024014 -0.45407602 -0.40192178 0.37537748 -0.42613092
0.049846776 -0.13236916 -0.09515268 0.062945835 -1.1690098 -2.4312942 -0.5283264 -0.1667514
00000000: d1f0 fc3e b955 673f 996d 93bd d855 7e3f
00000010: 2f20 1dbe 4b8f c0be 09bb 173e 471d f8be
00000020: 1b22 fbbf 6b77 cc3e bdc6 f0bd 922e f3be
00000030: 989b 863e 43b1 d2be 7090 8c3f ad5a f83e
00000040: 116f 62bf f0dc 48bf e5ef af3e 058c 263f
00000050: 5ad8 04bf 90d5 de3e ecd1 6b3e c110 73be
00000060: 0888 5a3e 9a3f 313f 1297 2c3f aedf c73f
00000070: 6346 e63c dfb1 3ebf dfbd b8bd ec51 2c3f
00000080: 5aed 243f f76b 8c3e 6979 d73e 0928 40be
00000090: f71c 3c3d 2ef1 3cbf d3a2 103f b510 2fbe
000000a0: f90e a23e f20c 1e3f edf3 de3e 4a09 cebe
000000b0: 314a 773d 2c89 773e 9dd6 c7bd 5cb2 22bf
000000c0: 70cf 7a3e 78d1 07bf 9d27 a4bf 899b 623f
000000d0: 5916 1ebf 9d22 3bbd 24c6 573e c2f6 973e
000000e0: a99b 16bd 140c 63be 4c0d 003f 9aa6 85bf
000000f0: b60d 6abe bed1 d5bb a68f 22be 295f e6be
00000100: 297f 02bf 599a 153f 062b 99bf fe6a d33e
00000110: ef37 68be fa5c 16bf e7ef 3bbe bf31 b83d
00000120: c61f 36bf aa7a d03d 3a45 87be bd7b 0b3f
00000130: 06bb afbd 32f3 42be 46be 3bbf 552a c7bb
00000140: 7d7e 943e 0d09 b73b 2419 043f 26d4 473f
00000150: 5b8b 05be c06c 20bf d2e0 15be 7391 64bf
00000160: 5c7c b73d cd10 e5bd 8335 363f a972 e0bf
00000170: 04be 89be f2a0 19bf 2a88 a83f 7b33 e6bf
00000180: bb29 9a3c 160d 0abe 9764 963d c0c0 9fbf
00000190: d0bc 103e a043 3e3f 17c8 3ebf 3fb1 303f
000001a0: 6fc9 34bc 11d1 6e3e a25c 003c 3949 c33e
000001b0: d422 1dbf 869e 24bf da03 be3e 296c 103e
000001c0: 27d6 683e feb3 8c3d 4b54 b9be 5a82 243f
000001d0: a908 d2be cf6d f3be b07c 56bf f3f7 93be
000001e0: 879f c5be 2c2a ad3e b0de c2be ba5c 723e
000001f0: bb59 b7be 19f8 76be c9e2 11be c976 cebe
00000200: 795e 8bbe bb43 20bf ae6b 39bf 54e7 d23f
00000210: 3c54 7bbe cf9e b0be cb8b ddbd 93f5 d8be
00000220: ffcb adbe b8a8 633d 188f ddbe 9dcc 543e
00000230: e58c 3ebf 413c a4bd a27a ef3e b445 c43d
00000240: 7cc7 5dbf 73b9 8cbd 887a a5be 55fd b03e
00000250: 2500 023e 55fd d1be ffc0 e53d c0a4 6f3e
00000260: 2cce 3dbe 9312 e4bf 8144 bc3f 1bf8 23bf
00000270: f282 9ebf 2a73 733e 4091 093f f61a 5a3d
00000280: 6125 1e3e ce92 42bf e7a1 b1be a6b3 903c
00000290: 4ca1 263f 2a24 7cbe 326c e83d 250b 5a3e
000002a0: ebfb 063f 647e 5b3e 7e49 473e 3f0e c93d
000002b0: 8ca3 26be 6617 633e 2f37 8e3e e650 203f
000002c0: 987b 043f f5bb f33d f720 1cbd 831a a9bb
000002d0: 5cec cebe 5bec 27bd 87a3 ef3c 01ae a23d
000002e0: d9bf d5bf 99f8 323e ea7a 703e a59b 7bbf
000002f0: adda 073e 9d27 4cbe 0d08 bbbe f312 86be
00000300: 256d 81bf 3afa 14be 5e70 61be d905 29be
00000310: f418 8bbe 0e28 793e bd63 7c3d 02cf 193f
00000320: 7283 fbbd f661 8f3c eeed c8bb f2c3 cdbe
00000330: 2c72 07bf b6b6 2fbf 82c5 d03d 09d4 673f
00000340: f098 83bf 20c3 e3be 99d1 2ebf e02e ca3f
00000350: dd24 0bbf eade ac3d 5d66 93bd e168 dfbc
00000360: 4048 0f3e 3047 d7be 1ea6 9bbe 1f2e 033e
00000370: 6d33 d7bd 75a6 efbe d24f 11bf deb7 a3be
00000380: 2589 683e 6182 d2bf a1aa 113f 6c2e d23e
00000390: 441c 793d 1112 3f3f fba2 90bf 605c 0d3f
000003a0: 5187 9ebe 5aac 37bf c707 033c 3e36 a9be
000003b0: 400d d7bd 6a6d 81bf 7b69 a4be fedd 6abe
000003c0: 7af9 57bf bb3f febe 6120 983e 42fb 51bf
000003d0: a77c e8be b1c8 cdbe 7a31 c03e d52d dabe
000003e0: 222c 4c3d c88b 07be 69df c2bd bfe9 803d
000003f0: 1da2 95bf 539a 1bc0 6640 07bf e1c0 2abe

decoder.2.bias f4 [400]
-0.46414623 0.21496572 -0.48895934 -0.1543308 -0.787035 -0.45743853 -0.6429104 0.03376508
0.0681127 -0.29216248 -0.50199777 -0.56669366 -0.63410544 -0.18687403 -0.41726884 -0.21164826
-0.764496 0.14267895 -0.87005025 -0.27752298 -0.46307033 -0.19333906 -0.49040672 -0.26505014
0.046987645 0.25063816 0.20737615 -0.55779994 -0.5795658 -0.53520423 -0.08349727 0.34210464
-0.4465522 0.1632015 0.4499916 -0.4370436 -0.15081352 -0.16720307 0.0152977975 -0.6441798
-0.7803434 -0.16970606 -0.6526887 0.38674837 -0.06673491 -0.43375146 -0.1051113 0.17107087
-0.62959427 0.014937515 -0.8361298 -0.3985737 -0.09407496 -0.045267593 -0.37032545 -0.67001206
-0.259995 0.09322683 -0.46389884 -0.48873502 0.22806877 -0.2642255 -0.1619433 0.14577839
-0.056311928 -0.117993005 0.14123492 -0.05507652 -0.34701517 -0.72599626 0.111570135 -0.53520954
-0.5907292 -0.3767459 0.11887337 -0.07227494 -0.3536037 -0.3674543 -0.47367653 -0.9496521
-0.81790787 -0.5848252 -0.08817102 -0.80119634 -0.11179078 0.061442286 0.025001006 -0.35898674
-0.5347385 -0.28223124 -0.44270858 0.21914208 -0.31581035 0.06859716 0.078462414 -0.06270222
-0.5845059 -0.29029986 -0.35258564 -0.3645474 -0.29734436 -0.16338769 -0.33845544 -0.38660023
-0.116698064 -0.7756944 -0.78184927 0.05459581 -0.43127114 -0.10144985 -0.5883051 -0.08653263
-0.13604362 0.0014876385 -0.7554977 -0.32151347 -0.17888907 -0.5341795 -0.40752733 -0.6022023
-0.18457891 -0.2257432 -0.22502431 -0.6215077 -0.7785742 -0.4456125 -0.4774305 -0.36238945
-0.036715843 -0.4130305 -0.15941198 -0.32714 -0.34905955 -0.2714458 0.17496647 0.079291716
0.05035501 -0.019944334 -0.21222845 -0.3535737 -0.3105896 -0.47367474 -0.33769712 -0.064148895
-0.7562909 -0.2626107 -0.31236842 -0.047743693 -0.39506087 -0.19914213 -0.6949708 -0.074757926
0.13628022 -0.3341178 0.16695721 -0.12350332 -0.71379083 -0.23830326 -0.36459902 -0.91613233
-0.49180424 -0.27647263 -0.2233627 -0.33471948 -0.10187889 -0.088261575 -0.27526364 -0.26019612
-0.7951673 0.06909063 -0.60313964 -0.07952368 -0.6396431 -0.06115333 -0.099621825 0.03121103
-0.52396685 0.17025831 0.112885304 0.0049205148 0.1651355 0.10778688 0.11769978 -0.9415092
-0.27670416 -0.6915883 -1.4399874 0.1474661 -0.03828571 -0.086108185 -0.49159768 -0.094744526
0.062045064 -0.40407816 0.04767019 0.08137473 0.054877207 0.052285608 -0.532747 -0.42972156
-0.7664547 -0.29082823 -0.51845217 -0.036315795 -0.45419 -0.3579872 0.077375 -0.049392212
-0.2846373 -0.10192892 -0.056035325 -0.6386862 -0.08296115 -0.3161147 -0.06484227 0.14073075
-0.40206036 -0.29467085 -0.22521481 -0.13378987 -0.24968322 -0.07538395 -0.26947868 -0.29478753
-0.09351327 -0.07643175 0.023087041 -0.50891143 0.08690921 -0.6133928 -0.87421435 -0.19673277
-0.41479862 -0.66884404 0.13322781 0.020351633 -0.529491 -0.5994607 0.09225277 0.17161366
-0.14647247 -0.425623 -0.23802762 -0.43986118 -0.31565973 -0.10236384 -0.18374032 -0.1647071
-0.306905 0.076364994 -0.74176216 0.19154023 -0.3901631 0.09495984 -1.0410758 -0.10228551
00000000: 93a4 edbe f91f 5c3e e158 fabe e508 1ebe
00000010: 207b 49bf 6235 eabe c795 24bf 414d 0a3d
00000020: ac7e 8b3d 5296 95be ed82 00bf d612 11bf
00000030: bc54 22bf e85b 3fbe 43a4 d5be 52ba 58be
00000040: 03b6 43bf 6e1a 123e 9dbb 5ebf 7e17 8ebe
00000050: 8e17 edbe adfa 45be 9716 fbbe a7b4 87be
00000060: 1e76 403d a553 803e 6a5a 543e facb 0ebf
00000070: 6d5e 14bf 2503 09bf 9e00 abbd 5728 af3e
00000080: 7da2 e4be 4b1e 273e 4d65 e63e 2ec4 dfbe
00000090: dc6e 1abe 4837 2bbe 9da3 7a3c f8e8 24bf
000000a0: 96c4 47bf 6dc7 2dbe 9b16 27bf e203 c63e
000000b0: 50ac 88bd ac14 debe 9844 d7bd 342d 2f3e
000000c0: 172d 21bf 7bbc 743c 9a0c 56bf da11 ccbe
000000d0: 5faa c0bd 836a 39bd 4c9b bdbe e985 2bbf
000000e0: 111e 85be b5ed be3d 2684 edbe 7a3b fabe
000000f0: dc8a 693e 9148 87be 77d4 25be ee46 153e
00000100: 56a7 66bd 51a6 f1bd e39f 103e eb97 61bd
00000110: f9ab b1be e4da 39bf e27e e43d 7e03 09bf
00000120: 073a 17bf d7e4 c0be e273 f33d e204 94bd
00000130: 8b0b b5be f822 bcbe bb85 f2be 661c 73bf
00000140: 6962 51bf 1bb7 15bf 0293 b4bd 341b 4dbf
00000150: 91f2 e4bd e8aa 7b3d e9ce cc3c 1ccd b7be
00000160: 9fe4 08bf 9d80 90be b3aa e2be c866 603e
00000170: e5b1 a1be ab7c 8c3d e7b0 a03d 066a 80bd
00000180: 2ea2 15bf 2fa2 94be 1b86 b4be f5a5 babe
00000190: 853d 98be 1a4f 27be 084a adbe 77f0 c5be
000001a0: 65ff eebd e893 46bf 4627 48bf db9f 5f3d
000001b0: 92cf dcbe f0c4 cfbd 2a9b 16bf 0538 b1bd
000001c0: 054f 0bbe ddfc c23a 4c68 41bf 6a9d a4be
000001d0: b22e 37be fdbf 08bf 6ca7 d0be ee29 1abf
000001e0: 4102 3dbe 3a29 67be c66c 66be 211b 1fbf
000001f0: a450 47bf 5227 e4be c571 f4be 1c8b b9be
00000200: 5a63 16bd bc78 d3be e53c 23be e57e a7be
00000210: efb7 b2be f2fa 8abe 692a 333e b263 a23d
00000220: 0e41 4e3d 4d62 a3bc 6a52 59be 9d07 b5be
00000230: 9a05 9fbe 7f85 f2be a3e6 acbe 7f60 83bd
00000240: 489c 41bf e974 86be c1ee 9fbe e48e 43bd
00000250: 6b45 cabe eaeb 4bbe 9be9 31bf af1a 99bd
00000260: 0b8d 0b3e 7d11 abbe d5f6 2a3e 4fef fcbd
00000270: ffba 36bf c505 74be b9ac babe a687 6abf
00000280: c4cd fbbe d28d 8dbe 31b9 64be 5a60 abbe
00000290: e1a5 d0bd 7cc2 b4bd 5bef 8cbe 6d38 85be
000002a0: 1690 4bbf 637f 8d3d 5c67 1abf 50dd a2bd
000002b0: a6bf 23bf ea7b 7abd 8706 ccbd 46ae ff3c
000002c0: b122 06bf 3258 2e3e 6930 e73d 453c a13b
000002d0: 4819 293e 5ebf dc3d 950c f13d bf06 71bf
000002e0: 2bac 8dbe ee0b 31bf 8251 b8bf 5a01 173e
000002f0: 7ad1 1cbd 7d59 b0bd b1b2 fbbe 6b09 c2bd
00000300: f722 7e3d 55e3 cebe d141 433d cba7 a63d
00000310: ecc6 603d 6f29 563d 1b62 08bf 7704 dcbe
00000320: 6036 44bf 70e7 94be 48b9 04bf dfbf 14bd
00000330: 978b e8be 194a b7be c976 9e3d 7d4f 4abd
00000340: fbbb 91be 1cc0 d0bd 4c85 65bd f080 23bf
00000350: 89e7 a9bd c9d9 a1be 06cc 84bd b91b 103e
00000360: dbda cdbe 19df 96be b69e 66be 3600 09be
00000370: f5ac 7fbe e662 9abd 1cf9 89be 64ee 96be
00000380: e383 bfbd 4088 9cbd 0921 bd3c 0548 02bf
00000390: 75fd b13d 4f07 1dbf 83cc 5fbf 5174 49be
000003a0: 7c60 d4be 5d39 2bbf df6c 083e 78b8 a63c
000003b0: b98c 07bf 4276 19bf 05ef bc3d 7ebb 2f3e
000003c0: e1fc 15be 42eb d9be 83bd 73be 7c35 e1be
000003d0: 279e a1be 22a4 d1bd 6c26 3cbe faa8 28be
000003e0: a722 9dbe 4065 9c3d 20e4 3dbf 1f23 443e
000003f0: 75c3 c7be 4e7a c23d f941 85bf 117b d1bd
