networks/vae_channel_beta0.01_epoch100_latent_dim40_from_train_py.pt (torch, 890543 bytes, 12 tensors)

encoder.0.weight f4 [400, 128]
0	0xbdeda7f1	-0.11604298
1	0xbee93c8c	-0.45554006
2	0x3d20ecfd	0.03928851
3	0xbd647201	-0.055772785
4	0x3e809515	0.2511374
5	0x3c990bf2	0.018682454
6	0xbe2142af	-0.15748094
7	0x3cd5827b	0.026063194
8	0x3d12fea3	0.03588737
9	0xbe447c7d	-0.19188114
10	0x3e294bb6	0.16532788
11	0xbdd61823	-0.104538225
12	0x3da1d956	0.07902782
13	0x3e8490f3	0.25891837
14	0x3ac9f878	0.0015409132
15	0xbea2f744	-0.31829274
16	0xbe133a90	-0.14377809
17	0x3c9975be	0.018732902
18	0xbd3df027	-0.046371605
19	0x3d7e198b	0.06203608
20	0xbda8291f	-0.08210968
21	0xbddf2782	-0.108962074
22	0xbd20583d	-0.03914665
23	0xbe0c576c	-0.13705224
24	0x3df9d6d7	0.121991806
25	0xbd88c3c5	-0.06677965
26	0x3e08fb7d	0.13377185
27	0xbe0b2660	-0.13588858
28	0x3cb9d67d	0.022685284
29	0x3de8bcaa	0.1136411
30	0x3e2a47ff	0.16629027
31	0xbd4147e9	-0.04718772
32	0x3e8910c1	0.26770595
33	0xbc87bb44	-0.016568787
34	0x3d8ad7c3	0.067794345
35	0x3e636882	0.22207835
36	0xbe45a893	-0.19302587
37	0x3dcb751e	0.09934448
38	0xbcf0e716	-0.029407065
39	0x3cb5f168	0.022209838
40	0xbd5bf623	-0.05370153
41	0x3e385bda	0.18003789
42	0xbdcd429a	-0.10022469
43	0x3d19526c	0.03743212
44	0xbe8d0ec8	-0.2755034
45	0xbd535b94	-0.051601008
46	0xbe190ad7	-0.14945541
47	0x3de22226	0.110416695
48	0x3c49672f	0.012292667
49	0x3def3553	0.11680093
50	0x3df6e1b2	0.12054767
51	0xbe7da47a	-0.24769774
52	0x3e237cd4	0.15965587
53	0x3e5c5fb6	0.21520886
54	0x3d9297d6	0.07157867
55	0x3ce2b815	0.027675668
56	0x3e328260	0.17432547
57	0x3e58f970	0.21188903
58	0xbe3de574	-0.1854456
59	0x3e9d64f2	0.30741078
60	0xbebb2105	-0.3654863
61	0xbe2dc9f4	-0.1697157
62	0x3e606672	0.2191408
63	0x3dbe3f52	0.09289421
64	0x3ecc34a5	0.39883915
65	0xbe1ae48a	-0.15126243
66	0xbe107934	-0.14108735
67	0x3e3335ec	0.17501038
68	0xbdf60720	-0.12013078
69	0xbe2ee79d	-0.17080541
70	0xbca876fd	-0.02056455
71	0xbe3c9a43	-0.18418221
72	0x3e2e5c49	0.17027391
73	0x3cc30a8a	0.023808736
74	0xbd7fbf6a	-0.062438406
75	0xbab98d80	-0.001415655
76	0x3def7a4b	0.116932474
77	0xbd4ffda6	-0.050779007
78	0x3ea34f4d	0.3189644
79	0xbe323ac9	-0.17405237
80	0xbe23c53e	-0.1599321
81	0xbcab8c60	-0.02094096
82	0x3e509ea9	0.20373024
83	0x3cc1f6c4	0.023677237
84	0xbe74a804	-0.23892218
85	0x3e74d2bf	0.23908518
86	0xbe7b72ea	-0.24555555
87	0xbe52b1db	-0.20575659
88	0xbe23a723	-0.15981726
89	0xbe2ae3ca	-0.16688457
90	0x3e8005f1	0.25004533
91	0xbe258cfd	-0.16167064
92	0xbd88869a	-0.06666298
93	0xbddd6f9d	-0.10812304
94	0x3ed5ea0a	0.4178012
95	0x3e01aa07	0.12662517
96	0x3e856094	0.26050246
97	0xbd5fb18c	-0.05461268
98	0x3e1d760b	0.15377061
99	0x3f28ffcb	0.6601531
100	0xbdf699fd	-0.1204109
101	0xbc8533ca	-0.016260047
102	0xbcceeb65	-0.02525873
103	0xbc2ecc1a	-0.010668779
104	0xbdb73879	-0.08946318
105	0x3cb39c90	0.02192524
106	0xbe709e43	-0.23497872
107	0x3db84237	0.089970045
108	0xbbb99829	-0.005663891
109	0xbe05e7b7	-0.13076673
110	0xba9d6bc9	-0.0012010272
111	0x3d44a9d0	0.04801351
112	0xbd9fdfec	-0.078063816
113	0xbe547f88	-0.20751774
114	0x3e6f3ecb	0.23363797
115	0xbdfbd7ac	-0.122969955
116	0x3e32fe8d	0.17479916
117	0x3e4d05b4	0.20021707
118	0xbe737d0c	-0.2377817
119	0xbe574336	-0.21021733
120	0x3dd3f5d9	0.10349626
121	0x3dc7fc5a	0.09764929
122	0xbe1e3ec9	-0.15453638
123	0x3dfaad4b	0.12240084
124	0x3df62583	0.120188735
125	0xbe1a39af	-0.15061067
126	0x3e7c7a96	0.24656138
127	0x3e33014e	0.17480966
128	0x3e5402c6	0.20704183
129	0xbdbd6b13	-0.092489384
130	0x3be7449f	0.007057741
131	0xbc885057	-0.016639872
132	0xbe054b24	-0.13016945
133	0x3dd76887	0.10517984
134	0x3e69bff9	0.22827138
135	0xbdafe05b	-0.08587714
136	0x3bdd8de1	0.006761298
137	0x3e6bcfd9	0.23028506
138	0xbd80dc1f	-0.06291985
139	0x3d6bf5d8	0.0576075
140	0xbd5c7c2b	-0.053829353
141	0xbdd21768	-0.10258371
142	0x3db4416f	0.08801543
143	0xbcd08bc0	-0.025457263
144	0xbd5dad63	-0.054120433
145	0xbea4741c	-0.32119834
146	0xbdd3fcc2	-0.10350944
147	0x3e4fff2c	0.20312184
148	0x3dd2999e	0.102832064
149	0xbe0576c5	-0.13033588
150	0xbd7ef222	-0.062242635
151	0x3e6fd9ec	0.23422974
152	0xbd8745d1	-0.06605113
153	0xbe527f63	-0.20556407
154	0x3e295495	0.16536172
155	0xbdf128b2	-0.1177534
156	0x3e3f6dcb	0.18694226
157	0x3941a5df	0.00018467706
158	0xbe732485	-0.237444
159	0x3ce821c0	0.028336406
160	0xbbc35c7f	-0.005961954
161	0xbe83e357	-0.25759384
162	0x3e19c923	0.15018134
163	0x3e0562ac	0.13025922
164	0xbe10016a	-0.1406304
165	0x3ca0e4ac	0.01964029
166	0xbd891448	-0.066933215
167	0xbe422239	-0.18958367
168	0x3e43a7ec	0.19107026
169	0xbe230141	-0.15918447
170	0xbcb259ae	-0.021771278
171	0x3db4813a	0.088137105
172	0xbd336c6d	-0.043804575
173	0xbda613cb	-0.08109244
174	0x3e76359c	0.24043888
175	0xbdcc4fac	-0.09976134
176	0x3e8cfe4e	0.2753777
177	0xbe413e5d	-0.18871446
178	0xbe2c6ccb	-0.16838376
179	0x3e25f419	0.16206397
180	0x3e46908e	0.1939108
181	0xbdbeeb8a	-0.09322269
182	0xbd750d8f	-0.059827384
183	0x3debd32d	0.11514888
184	0xbdbc58d5	-0.09196631
185	0xbda5c271	-0.080937274
186	0xbdc9fdf2	-0.09862889
187	0x3adce848	0.0016853893
188	0x3e6f8618	0.23390996
189	0xbe4f175c	-0.20223755
190	0xbe47c698	-0.19509351
191	0x3e531adf	0.2061572
192	0x3d95434a	0.07288225
193	0xbe8025ad	-0.25028744
194	0x3c546f63	0.01296601
195	0xbe0b1c7f	-0.13585089
196	0x3e9c391d	0.30512324
197	0x3dfc236f	0.12311446
198	0xbdadb782	-0.08482267
199	0x3d9e8ca3	0.07741668
200	0x3da64040	0.081177235
201	0x3ccbc396	0.024873536
202	0x3c9d787a	0.019222487
203	0xbe043923	-0.12912421
204	0xbd26264e	-0.040563874
205	0x3e1546d0	0.14577794
206	0xbc2dda6d	-0.010611159
207	0x3e604a8a	0.21903434
208	0x3e4dd5c2	0.20101073
209	0xbe89059f	-0.267621
210	0xbcce9e8e	-0.02522209
211	0xbd2ebdd8	-0.042661518
212	0x3cf0c579	0.029391037
213	0x3e2647ab	0.16238277
214	0xbe3f5967	-0.18686448
215	0xbe2fe2db	-0.17176382
216	0x3e38dbde	0.18052623
217	0x3dfa71a1	0.12228704
218	0xbda22bb9	-0.07918496
219	0x3dc5844a	0.09644373
220	0xbdcb1c4f	-0.09917509
221	0x3caea169	0.0213172
222	0x3d37c4a7	0.044865277
223	0x3dd27532	0.102762595
224	0x3dee89d7	0.116473846
225	0x3d03c75c	0.032172546
226	0xbe308717	-0.17239033
227	0xbd9cafc0	-0.07650709
228	0x3d867a9d	0.065663554
229	0x3e0a7eeb	0.13524978
230	0xbe770aed	-0.24125262
231	0xbdc50435	-0.09619943
232	0xbd55f314	-0.05223377
233	0x3d692ac4	0.05692555
234	0x3e0a4bce	0.1350548
235	0xbdca7dd1	-0.09887279
236	0x3d8d37d9	0.06895418
237	0x3dbe83b8	0.09302467
238	0x3c7ffd1d	0.015624312
239	0x3e76df6f	0.2410867
240	0x3deee1dd	0.11664174
241	0xbe98986a	-0.29803783
242	0xbde8750b	-0.11350449
243	0x3e0271e8	0.12738764
244	0x3ce65719	0.028117703
245	0x3da9b24a	0.08285959
246	0x3c9c1155	0.019051233
247	0xbd999aac	-0.075002044
248	0x3dcc916d	0.09988675
249	0x3e0a7c5c	0.13524002
250	0x3ddaee29	0.10689957
251	0xbdd792d3	-0.10526051
252	0x3e1152ab	0.14191692
253	0x3d921502	0.07132913
254	0x3e09cdf9	0.13457479
255	0x3de60f5d	0.11233399

encoder.0.bias f4 [400]
0	0xbe812fa6	-0.25231665
1	0x3e2d7de1	0.1694255
2	0x3d6ed906	0.05831244
3	0x3ddecc49	0.10878808
4	0x3da9c22c	0.082889885
5	0xbe239dbd	-0.15978141
6	0xbd7f6c41	-0.0623591
7	0x3e44d462	0.19221643
8	0xbebcc9fa	-0.36872846
9	0x3e79c0e5	0.2438999
10	0xbeab0201	-0.33399966
11	0x3e5eb09b	0.21747057
12	0xbc461c6e	-0.012091739
13	0x3ebc8ef4	0.36827815
14	0x3e779820	0.24179125
15	0x3e174fca	0.14776531
16	0xbe2ddbd1	-0.16978385
17	0x3d0eb5c5	0.034841318
18	0xbde9a330	-0.11408079
19	0xbd15f6db	-0.036612373
20	0x3e44b76f	0.192106
21	0x3e11de27	0.142449
22	0x3e24dfde	0.16101024
23	0x3ea4a8a9	0.32159927
24	0xbd95e08b	-0.07318219
25	0xbec7a116	-0.38990086
26	0x3d2a4ce0	0.04157722
27	0xbebea9e5	-0.37238994
28	0xbe22d640	-0.15902042
29	0x3dd939cc	0.10606727
30	0x3ea9efcc	0.33190763
31	0x3db6860e	0.08912288
32	0x3e625e28	0.2210623
33	0x3e020eea	0.12701002
34	0x3e11cc9f	0.14238213
35	0x3cc7bcaf	0.024381964
36	0x3e1827ba	0.14858904
37	0x3e2fb2ae	0.17158005
38	0x3e5dc2df	0.21656369
39	0x3df8b004	0.12142947
40	0x3e2beb93	0.16789083
41	0x3e38f959	0.18063869
42	0x3e1cf2fe	0.15327069
43	0x3e8452ee	0.2584452
44	0xbd371ca6	-0.044705056
45	0xbd5f737d	-0.054553498
46	0x3e664419	0.22486915
47	0x3dbd8ab1	0.09254969
48	0x3e032751	0.12807967
49	0x3e6d881d	0.23196454
50	0xbdabdc30	-0.08391607
51	0x3e48fc6e	0.19627544
52	0x3d9d86c3	0.076917194
53	0x3d36de92	0.044645853
54	0xbe0f5c84	-0.14000136
55	0xbecc4462	-0.39895922
56	0xbddd6081	-0.10809422
57	0x3e906159	0.2819927
58	0xbe80ac0f	-0.2513127
59	0x3e42dc25	0.19029291
60	0x3d2119f2	0.039331384
61	0xbe3439ed	-0.17600222
62	0x3db8c566	0.09022026
63	0x3e6122e7	0.2198597
64	0xbe65006d	-0.22363444
65	0xbba1c694	-0.0049370024
66	0x3e66c44c	0.22535819
67	0x3e5125e9	0.20424618
68	0xbcc761a7	-0.024338556
69	0x3d245dfb	0.04012869
70	0x3e54d6d2	0.20785072
71	0x3e883aba	0.26607305
72	0x3e7242b7	0.23658262
73	0xbd189489	-0.03725103
74	0x3df21416	0.11820237
75	0x3e1872f1	0.14887597
76	0x3d89de71	0.067318805
77	0x3e3a285b	0.18179457
78	0xbe2be3d4	-0.16786128
79	0xbe9f347c	-0.3109473
80	0x3d886479	0.06659789
81	0x3de41e65	0.1113861
82	0xbde0972e	-0.10966335
83	0x3e294da8	0.1653353
84	0x3e331595	0.17488702
85	0xbe8d7b95	-0.27633348
86	0x3d6023f5	0.05472179
87	0xbeb3dfa1	-0.35131553
88	0x3de77546	0.11301665
89	0x3e33db2a	0.17564073
90	0xbec2d802	-0.38055426
91	0x3e48992a	0.19589677
92	0xbe162ee3	-0.14666323
93	0x3f7661d1	0.96243006
94	0xbdbcf68e	-0.09226714
95	0xbe9036b6	-0.2816674
96	0x3e5627b4	0.20913583
97	0x3e37b52b	0.17940204
98	0x3cc8165f	0.02442473
99	0x3d209648	0.03920582
100	0xbd234747	-0.039862897
101	0xbd3dfa74	-0.04638143
102	0x3da6b156	0.08139293
103	0xbe832797	-0.25616142
104	0x3e991800	0.29901123
105	0xbd851d45	-0.06499723
106	0x3b6f7169	0.0036536104
107	0x3d20c19c	0.03924714
108	0x3e960ae8	0.29305196
109	0x3e145654	0.14486057
110	0x3e17c43c	0.14820951
111	0xbee6ab20	-0.45052433
112	0x3dd67cdb	0.10473033
113	0xbda590ad	-0.08084235
114	0x3e7ebb55	0.24876149
115	0x3d80dca1	0.062920816
116	0x3d70ea25	0.058817048
117	0xbc24973e	-0.010045825
118	0x3e85f177	0.26160786
119	0x3de5866f	0.11207282
120	0x3e266af8	0.16251743
121	0x3e003a59	0.12522258
122	0xbde667e6	-0.11250286
123	0x3e871a5b	0.26387295
124	0x3db90b56	0.09035365
125	0x3e4432d0	0.19160008
126	0x3d33aee2	0.043867953
127	0x3de9fa98	0.1142475
128	0x3df7b595	0.12095181
129	0x3e90951d	0.28238764
130	0x3e61158f	0.2198088
131	0x3e4d6f23	0.20061927
132	0x3e2447fb	0.16043083
133	0x3e8319e5	0.25605693
134	0x3e8bfccc	0.27341306
135	0x3e413560	0.18868017
136	0x3e1c8002	0.15283206
137	0x3ebf002d	0.37304822
138	0xbef26a2c	-0.47346628
139	0x3d9b3d0b	0.075800024
140	0x3e059e4e	0.1304867
141	0x3e19ef6a	0.15032735
142	0x3e1cf10d	0.15326329
143	0xbe0b1efa	-0.13586035
144	0x3e21a85c	0.1578688
145	0x3d69fbeb	0.057125013
146	0xbe84ee7a	-0.25963193
147	0x3dfe5402	0.12418367
148	0x3e80c8ad	0.25153103
149	0x3dbc942a	0.092079476
150	0xbe4f8e78	-0.20269191
151	0xbd1c699a	-0.038186647
152	0x3e9a5544	0.30143178
153	0x3dab0f36	0.08352511
154	0xbd8ce72a	-0.068800285
155	0x3e62987e	0.22128484
156	0x3e5d1ac5	0.21592243
157	0x3c1794ca	0.009251783
158	0x3d476f95	0.048690397
159	0x3e56a718	0.20962179
160	0x3df72dbd	0.12069271
161	0x3da44802	0.08021547
162	0xbe3d17c3	-0.18466096
163	0x3dcca0b8	0.09991592
164	0xbe993f44	-0.2993108
165	0x3e049b0f	0.12949775
166	0xbdef7677	-0.11692517
167	0x3e0b4b8c	0.13603038
168	0xbe1172a3	-0.14203887
169	0xbe146e00	-0.14495087
170	0x3e5896ad	0.21151228
171	0xbec69953	-0.38788852
172	0x3e296d36	0.16545567
173	0x3dc53833	0.0962986
174	0x3d8be1ca	0.06830175
175	0x3e45019a	0.19238892
176	0x3b36ab89	0.002787324
177	0x3e06ce40	0.13164616
178	0x3e07bf98	0.13256681
179	0x3cd33faf	0.025787203
180	0xbe0fd5b9	-0.14046372
181	0x3e63445c	0.22194046
182	0xbd8f8fef	-0.07009875
183	0x3e45fadf	0.19333981
184	0x3e63a1c2	0.22229674
185	0x3e93137f	0.28725812
186	0x3e244107	0.16040431
187	0x3e710e19	0.23540534
188	0x3d99eb06	0.0751553
189	0x3e08178a	0.1329023
190	0xbe4df184	-0.20111662
191	0x3e05b868	0.13058627
192	0x3e9627d2	0.29327255
193	0x3cee023a	0.029053796
194	0x3e5817d3	0.21102838
195	0x3dee6e5b	0.116421424
196	0x3df499db	0.11943408
197	0xbeae5e2e	-0.34056228
198	0x3d2731d1	0.040818993
199	0x3e73affe	0.23797604
200	0x3cf1e066	0.029525947
201	0x3e3c3c0d	0.18382283
202	0x3e3b8bad	0.18315001
203	0x3e8639f6	0.26216096
204	0x3d9fb5a4	0.07798317
205	0xbd088fd2	-0.033340283
206	0x3e6c8d6c	0.23100823
207	0x3e627ded	0.2211835
208	0x3de178f4	0.11009398
209	0x3caf35ee	0.02138802
210	0xbcadd94e	-0.021221783
211	0x3d839bf6	0.064262316
212	0x3dc29f8b	0.09503087
213	0x3e40415a	0.1877493
214	0x3e82974b	0.25506052
215	0x3e91d8b2	0.28485638
216	0xbea50622	-0.3223124
217	0x3e0571b7	0.1303166
218	0x3e1076d4	0.1410783
219	0x3c3bac0a	0.0114545915
220	0xbb0af445	-0.0021202725
221	0xbdbf5924	-0.09343174
222	0x3dbf9c74	0.09356013
223	0x3d46767f	0.04845285
224	0x3e874990	0.2642331
225	0x3d95301e	0.07284568
226	0xbdb04547	-0.086069636
227	0x3e174727	0.14773236
228	0x3cf02680	0.029315233
229	0x3f1b82e6	0.6074661
230	0xbe1a536e	-0.15070888
231	0x3e9cbd00	0.30612946
232	0x3ea31943	0.3185521
233	0x3da12d46	0.07869963
234	0xbe66e159	-0.22546901
235	0xbea10ed2	-0.3145662
236	0xbdf251d8	-0.11832017
237	0x3e1a19e2	0.15048936
238	0x3dcf46a5	0.10120896
239	0x3e1e0fc1	0.15435697
240	0xbe17565a	-0.14779034
241	0xbc503d01	-0.012709857
242	0x3ea1b8c2	0.31586272
243	0x3ea7bd77	0.32761738
244	0x3e40a185	0.18811615
245	0xbe00ccd3	-0.12578134
246	0x3e0b245b	0.13588087
247	0x3dde7c12	0.10863508
248	0x3d6cd666	0.057821654
249	0xbd479010	-0.048721373
250	0x3e37b9f1	0.17942025
251	0xbe65058c	-0.22365397
252	0x3e5d8ad6	0.21634993
253	0x3e2cf7dc	0.16891426
254	0x3d389997	0.04506835
255	0x3db4d9c2	0.088305965

encoder.2.weight f4 [128, 400]
0	0x3ddc4c1d	0.10756705
1	0xbcb9d533	-0.02268467
2	0x3e3ab775	0.18234046
3	0x3bceaced	0.0063072355
4	0x3d972674	0.07380381
5	0x3d2da072	0.04238934
6	0xbe4c50d6	-0.19952711
7	0xbdf50e92	-0.1196567
8	0x3dbd9620	0.0925715
9	0xbbef149f	-0.0072961594
10	0xbe0fda34	-0.14048082
11	0x3e1f5144	0.15558344
12	0xbe18cdfe	-0.1492233
13	0x3dce9d0e	0.100885496
14	0x3e0777dd	0.13229318
15	0xbcd4d666	-0.02598114
16	0xbd72870f	-0.059210833
17	0xbd7daa94	-0.061930254
18	0x3e2a7355	0.16645558
19	0xbcde295a	-0.027119327
20	0x3d5d0ce1	0.05396736
21	0x3d8268c1	0.063676365
22	0xbe256da2	-0.16155103
23	0x3e30e07a	0.17273131
24	0xbd8dee1d	-0.06930182
25	0x3e8d21e9	0.27564934
26	0xbe7310f6	-0.23736939
27	0x3dadefe6	0.084930226
28	0xbe80c9eb	-0.2515405
29	0x3d4cbf24	0.049986973
30	0xbdfe9995	-0.12431637
31	0x3b734d34	0.0037124874
32	0x3d8c9972	0.06865205
33	0x3e8b0435	0.27151647
34	0x3dcb880a	0.09938057
35	0xbe8bc15c	-0.2729596
36	0xbdd767d7	-0.10517853
37	0x3ddfcc40	0.109276295
38	0x3d54c3e3	0.051944625
39	0x3de18e01	0.11013413
40	0x3e23a223	0.15979819
41	0x3da31b34	0.07964173
42	0x3dbb49c6	0.091449305
43	0xbd1fb068	-0.038986593
44	0xbb8a527e	-0.0042212596
45	0x3cc05f94	0.023483075
46	0xbda6579f	-0.08122181
47	0x3d69f3e2	0.05711735
48	0xbd1cf683	-0.03832103
49	0xbe4f0627	-0.2021719
50	0xbead66e7	-0.3386757
51	0x3d2e45af	0.042546924
52	0xbcb2246c	-0.021745883
53	0xbc74c59b	-0.014939691
54	0x3e00bbb0	0.12571597
55	0x3d441551	0.04787189
56	0xbe2d5013	-0.16925077
57	0x3caa2353	0.020768797
58	0xbd5fa556	-0.054601036
59	0x3e108005	0.14111336
60	0xbdaaa02d	-0.08331332
61	0x3e21002c	0.15722722
62	0x3defb7b2	0.11704959
63	0xbd695530	-0.056966007
64	0x3e1897b1	0.14901616
65	0x3cb9fa7f	0.022702454
66	0x3d8f657c	0.070017785
67	0x3caf98d0	0.021435171
68	0x3da21f7c	0.079161614
69	0x3d305117	0.043046083
70	0x3dcde404	0.10053256
71	0xbda2b332	-0.07944335
72	0xbd86b96f	-0.065783374
73	0x3de79704	0.11308101
74	0x3e47cf8b	0.19512765
75	0xbcc30d65	-0.023810098
76	0xbe0a108b	-0.13482873
77	0x3daa3e13	0.08312621
78	0xbea77e20	-0.32713413
79	0x3dc23d6b	0.09484371
80	0x3d3b1e84	0.0456834
81	0x3d99f17f	0.07516765
82	0x3e51f206	0.20502481
83	0x3d45ab2e	0.048258953
84	0x3c82ea21	0.015980782
85	0x3de5b66a	0.11216433
86	0x3d54dd4b	0.051968854
87	0x3ddd7426	0.10813169
88	0xbe0631a1	-0.1310487
89	0x3cb86ace	0.022511866
90	0xbd71b333	-0.05900879
91	0xbe1d7ad5	-0.15378888
92	0xbda5760a	-0.08079155
93	0x3e180611	0.14846064
94	0xbcbe6e12	-0.023245845
95	0xbd7efac5	-0.06225087
96	0x3d96d73e	0.07365273
97	0x3c49e0ea	0.01232169
98	0x3d844b43	0.064596675
99	0x3e0e708e	0.13910124
100	0xbe05774e	-0.13033792
101	0x3c1dc9e5	0.009630655
102	0x3d9de72e	0.0771011
103	0xbdf0873e	-0.117445454
104	0xbb6f652c	-0.003652881
105	0x3d990591	0.07471765
106	0x3c1baad3	0.009501177
107	0xbe57bb4f	-0.21067546
108	0xbd94e6c9	-0.07270581
109	0x3e174a21	0.14774372
110	0xbbad684b	-0.0052919737
111	0xbe2b7ed1	-0.16747595
112	0x3d629164	0.055314437
113	0x3c898d69	0.016791062
114	0x3e1f1f6e	0.15539333
115	0xbe0efc20	-0.13963366
116	0xbc8bb50d	-0.017054105
117	0x3e61dc74	0.22056752
118	0x3e0cfd74	0.1376856
119	0xbc6ebcd5	-0.014571388
120	0xbabbe4c2	-0.0014335143
121	0xbd4901f7	-0.04907414
122	0x3ea3901e	0.3194589
123	0x3d10b84a	0.035332
124	0x3cbe1522	0.023203436
125	0xbe1444b9	-0.1447934
126	0xbe247874	-0.16061574
127	0x3dd87344	0.1056886
128	0x3e3a8041	0.18212987
129	0xbd5acb36	-0.053416453
130	0x3de1f858	0.11033696
131	0xbc94e5ff	-0.018176077
132	0x3d771591	0.0603233
133	0x3e8ad22f	0.27113482
134	0xbdc2bb75	-0.09508411
135	0xbdc8a788	-0.09797579
136	0x3e0074ae	0.1254451
137	0xbe3a1d52	-0.18175247
138	0x3cb39754	0.021922745
139	0xbd414dc6	-0.04719331
140	0xbdbb0788	-0.09132296
141	0x3d5e1a90	0.05422455
142	0x3de5567e	0.11198138
143	0x3e08915f	0.13336705
144	0xbd906ebc	-0.07052371
145	0xbddbac28	-0.107261956
146	0x3d929691	0.071576245
147	0xbd9734a9	-0.07383091
148	0xb9deebaf	-0.00042518738
149	0x3e019cae	0.12657425
150	0xbdcea0f8	-0.10089296
151	0x3db52549	0.08845002
152	0xbdbd77af	-0.092513435
153	0x3e16dc15	0.14732392
154	0x3c0c5042	0.008564057
155	0xbe767f2b	-0.24071948
156	0x3e258e01	0.16167451
157	0xbe3051ba	-0.17218676
158	0x3dc45fc4	0.09588578
159	0xbe241059	-0.16021861
160	0x3def1458	0.11673802
161	0x3d99890a	0.07496841
162	0xbd4d24d8	-0.050083965
163	0xbcde3249	-0.027123587
164	0x3d368024	0.0445558
165	0xbdaddf36	-0.0848984
166	0x3d66b75f	0.05632722
167	0xbe0b7c80	-0.13621712
168	0xbdb80ec8	-0.08987194
169	0x3e0cbcee	0.13743946
170	0xbc5e3c46	-0.013564175
171	0xbe6c1b69	-0.23057331
172	0x3dc82358	0.09772366
173	0xbd93613f	-0.071962826
174	0xbc8e0577	-0.01733659
175	0xbd476fac	-0.048690483
176	0x3c4230a3	0.011852416
177	0x3d0f0c15	0.03492363
178	0xbd214494	-0.03937204
179	0x3df82829	0.12117035
180	0x3e5cb45d	0.21553178
181	0xbcbe17ec	-0.023204766
182	0xbda177bc	-0.07884166
183	0xbdd644b7	-0.10462325
184	0x3be1e39f	0.0068935896
185	0x3d320ae0	0.043467402
186	0x3e281134	0.16412812
187	0x3a57d848	0.00082338275
188	0x3db991ac	0.09060988
189	0x3e6138c3	0.21994309
190	0x3d0b1e22	0.033964284
191	0x3d4aae2f	0.04948252
192	0x3c020c03	0.007937434
193	0x3d2a2590	0.04153973
194	0x3e7bcf8f	0.24590896
195	0xbe091386	-0.13386354
196	0xbd5111b0	-0.05104226
197	0x3df00754	0.11720148
198	0x3d92108e	0.07132064
199	0xbdf19aa4	-0.117970735
200	0xbca24be7	-0.019811584
201	0xbe7f558a	-0.24934974
202	0x3d79e198	0.06100616
203	0x3e148924	0.1450544
204	0xbd5853f6	-0.052814446
205	0x3e0d39bb	0.13791554
206	0x3c80089a	0.015629102
207	0xbd421625	-0.0473844
208	0xbcab2190	-0.020890027
209	0xbd1e88b5	-0.038704593
210	0xbd3fa2e2	-0.046786197
211	0x3d3d87f4	0.046272233
212	0xbe002367	-0.12513505
213	0x3cb3310f	0.021873979
214	0x3c44db98	0.012015246
215	0xbd9076fc	-0.070539445
216	0xbcee8aa6	-0.029118847
217	0x3e316c98	0.17326581
218	0x3b803713	0.0039128154
219	0x3cfd88d4	0.030949034
220	0xbd227135	-0.039658744
221	0xbcc9c0cc	-0.024628066
222	0xbd4649c1	-0.04841018
223	0x3cc8422d	0.024445618
224	0xbda0467e	-0.07825945
225	0xbca8a666	-0.020587157
226	0xbc015aa9	-0.00789515
227	0xbd823eda	-0.06359644
228	0x3d38b4c9	0.045094285
229	0xbd1629a7	-0.036660817
230	0x3e0f1b38	0.13975227
231	0xbe1f447f	-0.15553473
232	0x3df4a2dd	0.11945126
233	0x3e8241ed	0.25440922
234	0x3db1db21	0.08684374
235	0x3e2a8811	0.16653468
236	0xbe10abea	-0.1412808
237	0x3d7c312d	0.061570335
238	0xbe0ce054	-0.1375745
239	0x3d120eef	0.035658773
240	0x3e9da928	0.30793118
241	0x3d141d2f	0.036160644
242	0x3d2826b9	0.041052554
243	0x3dea6162	0.114443555
244	0x3c4980ac	0.012298744
245	0x3e13ca9c	0.14432758
246	0x3d382475	0.044956643
247	0xbe07908a	-0.13238731
248	0x3d9b2236	0.075748846
249	0x3c5bb813	0.013410586
250	0xbe3f9f26	-0.18713054
251	0xbe0c54dc	-0.13704246
252	0xbd1accd9	-0.037793014
253	0x3de22be4	0.11043528
254	0x3de3df43	0.11126568
255	0xbd4754c9	-0.04866484

encoder.2.bias f4 [128]
0	0x3da6a36b	0.08136638
1	0x3c1ee078	0.009697072
2	0x3da09cb6	0.0784239
3	0x3e3c425b	0.18384688
4	0x3d8be468	0.068306744
5	0x3e0446e7	0.12917672
6	0x3e76fe83	0.24120526
7	0xbc84f96a	-0.016232211
8	0x3dae3ec8	0.08508068
9	0x3efa2b29	0.48861054
10	0x3e32b81c	0.17453045
11	0xbe10b14c	-0.14130133
12	0x3d070a00	0.03296852
13	0x3e15f6dc	0.1464495
14	0xbd352b59	-0.044230793
15	0xbd0eb2b0	-0.03483838
16	0x3e59db0f	0.2127497
17	0x3e8849be	0.2661876
18	0x3d20215f	0.039094325
19	0x3e38f9c4	0.18064028
20	0x3c8da8bd	0.017292375
21	0xbbda5096	-0.0066624386
22	0xbc3522c2	-0.01105565
23	0xbd426f39	-0.04746935
24	0x3dbea786	0.09309296
25	0x3ddb3e8c	0.10705289
26	0xbd73985f	-0.059471484
27	0x3d3aa332	0.04556579
28	0x3dbb3b6b	0.091421925
29	0x3e815902	0.2526322
30	0x3edba8ea	0.4290231
31	0x3db9e80e	0.09077464
32	0xbd92e2ec	-0.07172188
33	0x3d99f972	0.07518281
34	0xbc826aa3	-0.015919989
35	0x3e326474	0.17421132
36	0xbccdb2fd	-0.025109762
37	0xbdb2930c	-0.08719453
38	0x3ddb116b	0.106966816
39	0xbd8b23b8	-0.06793922
40	0x3d2ed62b	0.042684715
41	0xbbea51b4	-0.007150853
42	0x3e442e7a	0.19158354
43	0x3de72dbc	0.1128802
44	0x3e8735bc	0.26408184
45	0x3e82f8f3	0.25580558
46	0x3e83192b	0.2560514
47	0xbe5fdffe	-0.2186279
48	0xbdeadbcd	-0.11467705
49	0x3e6f4c58	0.23368967
50	0x3e08d94f	0.13364147
51	0x3e4eeaef	0.20206808
52	0x3d843741	0.06455851
53	0xbcafe4f7	-0.021471484
54	0x3e76f31f	0.24116181
55	0x3ec77d4f	0.3896279
56	0x3e5567b7	0.20840345
57	0xbdfceba4	-0.123496324
58	0x3d44b2c0	0.04802203
59	0x3d89996d	0.06718717
60	0x3e29a09c	0.16565174
61	0x3e845b2d	0.25850812
62	0x3c230f4a	0.009952376
63	0x3e95e429	0.29275635
64	0xbc9768ce	-0.018482592
65	0x3e12844a	0.14308277
66	0x3e7858ad	0.24252577
67	0x3e8f7634	0.2801987
68	0x3ea09d3c	0.3136996
69	0x3deb1442	0.11478473
70	0x3e205690	0.15658021
71	0x3ccb1423	0.024789875
72	0x3de7eafa	0.11324115
73	0xbca53e6b	-0.020171365
74	0xbb574c60	-0.003285192
75	0x3e7d8370	0.2475717
76	0x3dc1d33e	0.094641194
77	0xbe258960	-0.16165686
78	0xbdf1e72a	-0.11811669
79	0x3e75ad19	0.23991813
80	0x3ea1c8b8	0.3159845
81	0x3e6fbe54	0.23412448
82	0xbee3f9d2	-0.44526535
83	0x3e480315	0.19532426
84	0x3ddee0df	0.108827345
85	0x3d8346cd	0.064099886
86	0x3c8a53e0	0.016885698
87	0x3e510df4	0.20415479
88	0x3de71485	0.11283211
89	0xbe04c468	-0.12965548
90	0x3e48e5ce	0.19618914
91	0x3dbc7b81	0.09203244
92	0x3e8af9b6	0.2714364
93	0x3e77e3a2	0.24207929
94	0x3cda2a3a	0.026631463
95	0x3d53e606	0.05173304
96	0xbe571244	-0.21003062
97	0x3dc36815	0.095413364
98	0x3dfe1b38	0.12407535
99	0x3e8f5dcf	0.28001258
100	0xbdc4da4f	-0.096119516
101	0x3cb24973	0.021763539
102	0x3e310265	0.1728607
103	0x3e083020	0.13299608
104	0xbf274423	-0.65338343
105	0xbd7bd500	-0.06148243
106	0x3d814c32	0.06313361
107	0x3d446283	0.04794551
108	0x3de702fa	0.112798646
109	0x3dece690	0.11567414
110	0xbc6c0308	-0.01440502
111	0x3da3ff4d	0.08007679
112	0xbd94800f	-0.07250988
113	0x3da861af	0.08221757
114	0x3dd24eda	0.10268946
115	0x3c76b21a	0.015057111
116	0x3d57d103	0.052689563
117	0x3e1f313e	0.15546128
118	0x3d36b4cc	0.044606015
119	0xbda60ff9	-0.08108515
120	0x3ea9060b	0.33012423
121	0xbd57c737	-0.05268022
122	0x3dd258bf	0.10270833
123	0x3e51273d	0.20425124
124	0x3e8c398e	0.2738766
125	0x3dead81c	0.11467001
126	0x3e2c839e	0.16847083
127	0x3e966f47	0.29381773

encoder.4.weight f4 [80, 128]
0	0x3db84007	0.08996587
1	0xbd2bd0ca	-0.041947164
2	0xbdc8a869	-0.09797747
3	0xbd80617d	-0.062685944
4	0x3dd91c2f	0.10601079
5	0xbe18747a	-0.14888182
6	0x3cee84bf	0.029116033
7	0xbc97c532	-0.018526647
8	0x3db59cf1	0.08867825
9	0x3e0fe641	0.14052679
10	0xbdb3fb8e	-0.087882146
11	0x3d2661b4	0.04062052
12	0x3d22d6b9	0.039755557
13	0x3d776555	0.060399372
14	0xbde4fca0	-0.11180997
15	0xbd1ebc21	-0.038753632
16	0xbdd23fb5	-0.102660574
17	0x3de3d75f	0.11125063
18	0x3d21b9fe	0.039484017
19	0x3d482c52	0.048870392
20	0x3df010c0	0.11721945
21	0xbe145326	-0.14484844
22	0xbd7cb1f9	-0.061693165
23	0x3cfbfdcf	0.030760674
24	0xbd4f1f90	-0.05056721
25	0xbd69ba5a	-0.057062484
26	0xbd75d2ff	-0.060015675
27	0x3e048327	0.12940656
28	0x3d832da3	0.06405189
29	0x3d93bd03	0.072137855
30	0x3c1c8fd5	0.009555777
31	0xb9d97ea4	-0.0004148382
32	0xbd969f8d	-0.07354651
33	0xbd0b8402	-0.03406144
34	0xbddf9b05	-0.109182395
35	0xbd2a1898	-0.04152736
36	0x3e2cfdcf	0.16893695
37	0xbd7261dd	-0.05917536
38	0xbd243eb2	-0.040098853
39	0xbd7ee404	-0.06222917
40	0x3cf2fd26	0.029661726
41	0x3d13d20e	0.036088996
42	0xbc6331e7	-0.013866878
43	0xbb80cbfa	-0.003930566
44	0xbe05fb68	-0.13084185
45	0xbc877bbe	-0.016538497
46	0xbe3843c3	-0.17994599
47	0x3d6eec2a	0.058330692
48	0xbd8ff963	-0.070299886
49	0x3e2ab6ea	0.16671339
50	0xbd99c789	-0.075087614
51	0x3afcb563	0.0019280132
52	0xbd9b8137	-0.07593005
53	0xbce2d2c5	-0.027688393
54	0xbd57027a	-0.052492596
55	0xbcb74968	-0.02237387
56	0xbd1373b1	-0.035999004
57	0xbc631e95	-0.013862272
58	0x3bb3f975	0.005492384
59	0x3caf727d	0.021416897
60	0x3c0b7aca	0.008513162
61	0xbcd6208e	-0.02613857
62	0xbbf8ca4c	-0.007592475
63	0x3db61f1a	0.08892651
64	0xbd1f97a6	-0.038962983
65	0x3dc394c5	0.0954986
66	0xbded7bc5	-0.11595873
67	0xbd278215	-0.04089554
68	0x3bccef0b	0.006254082
69	0x3d877a6d	0.06615148
70	0x3c85668f	0.016284255
71	0x3dee0612	0.116222516
72	0x3c68fc27	0.014220274
73	0x3d4ea027	0.050445702
74	0xbd9bfdf9	-0.07616801
75	0x3ddf13d7	0.10892456
76	0xbd1e9a70	-0.0387215
77	0x3e161a42	0.14658454
78	0xbd0d37a7	-0.034476902
79	0xbbae7099	-0.0053234813
80	0x3bff45e2	0.007790313
81	0x3e453896	0.19259867
82	0x3d40b366	0.047046088
83	0x3dbed98b	0.09318837
84	0xbd2e906f	-0.04261821
85	0xbe15069a	-0.145533
86	0xbca1947a	-0.01972412
87	0x3ddd43c7	0.10803943
88	0xbb1a5190	-0.002354715
89	0x3e00179f	0.1250901
90	0x3c3ad964	0.011404369
91	0xbd046bc1	-0.032329325
92	0x3d3cbfd8	0.046081394
93	0x3c12aed2	0.008952813
94	0xbd3e660e	-0.046484046
95	0x3caa5644	0.020793088
96	0x3dabd5fc	0.08390424
97	0x3e19b027	0.15008603
98	0xbe262a09	-0.16226973
99	0xbc66c1d2	-0.014084296
100	0xbc7143ac	-0.014725607
101	0x3d77637a	0.060397603
102	0xbbdd1503	-0.0067468896
103	0xbe40cce5	-0.18828161
104	0x3c52595c	0.012838688
105	0x3dfd8509	0.1237889
106	0x3e089ae2	0.13340333
107	0x3e198819	0.14993323
108	0x3d06af2d	0.032881904
109	0xbe20302f	-0.1564338
110	0xbccb59f3	-0.024823165
111	0x3da31a01	0.07963944
112	0xbe0a0273	-0.13477497
113	0x3dff9200	0.12479019
114	0x3c93c581	0.018038513
115	0xbca195d7	-0.01972477
116	0x39c97e48	0.00038431794
117	0xbd8ce19e	-0.068789706
118	0x3b830a4c	0.00399903
119	0xbc09a28c	-0.008400571
120	0x3d8e9be9	0.06963331
121	0xbdf22777	-0.118239336
122	0xbddb3566	-0.10703544
123	0x3d0730d7	0.03300556
124	0x3c4b8d69	0.0124238515
125	0xbd4f32e4	-0.050585642
126	0x3d2927c9	0.041297708
127	0xbdfaefe4	-0.12252787
128	0x3a34e5c2	0.00069006917
129	0x3b3bd4f5	0.0028660868
130	0xba743506	-0.00093157624
131	0x3b37a764	0.0028023357
132	0x39f61087	0.0004693309
133	0xbb3664f2	-0.0027831164
134	0x39af4c9b	0.00033435677
135	0xbb825a65	-0.003978061
136	0x3afdd917	0.0019367066
137	0xbaa5b4a5	-0.0012642337
138	0xbb2fdf30	-0.002683591
139	0x3b8cc7f8	0.004296299
140	0xba87dcdf	-0.0010365507
141	0xb9d0de6f	-0.00039838578
142	0x3972563e	0.00023111046
143	0x3b5085a4	0.0031817937
144	0x3a6f206a	0.00091219565
145	0xbb58d717	-0.0033087188
146	0x39ca49c5	0.00038583405
147	0x39b64b5e	0.00034769898
148	0xba838e36	-0.0010036889
149	0x3b9484d1	0.0045324345
150	0xbb27329a	-0.0025512339
151	0x39edb546	0.00045339222
152	0xbaff66a0	-0.0019485541
153	0x3a3b26e1	0.00071392773
154	0xbb262318	-0.0025350507
155	0x3a2de180	0.00066330284
156	0x3b4dc338	0.0031396877
157	0x3a558d61	0.0008146372
158	0x3a5bf544	0.00083907344
159	0x3b0fdc71	0.0021951462
160	0x38d8f1cc	0.00010344721
161	0x3aabac2a	0.0013097574
162	0xbaacfcbb	-0.0013197878
163	0xba0f595f	-0.00054683344
164	0xbb18c1b1	-0.0023308808
165	0x3a1edb27	0.0006059878
166	0x3b5cb474	0.0033676894
167	0x3abcc7ae	0.0014402771
168	0x3b8b7b18	0.0042566173
169	0xbae24d31	-0.0017265436
170	0xba8e1ab5	-0.00108417
171	0xb98e8e6b	-0.0002719046
172	0xbb01a785	-0.0019783687
173	0xbb697bef	-0.0035626849
174	0xbbff8588	-0.0077979006
175	0x3b3f42f3	0.0029184192
176	0xb98a3524	-0.00026361004
177	0xb7bae448	-2.227923e-05
178	0x3b84e6ea	0.0040558474
179	0x38050f40	3.1723874e-05
180	0x39bc6bb2	0.00035938394
181	0xbabf2651	-0.0014583563
182	0xbbb27981	-0.0054466133
183	0xbb82be5a	-0.003989977
184	0xbaa0462c	-0.0012227944
185	0xbaa6f973	-0.0012739137
186	0x37ff24f8	3.0415584e-05
187	0x38ac15f5	8.205689e-05
188	0xbb1a5d58	-0.0023554172
189	0xbb2f33f0	-0.0026733838
190	0x3a5fd8fb	0.00085391075
191	0x3ad853bb	0.0016504446
192	0x3ae20055	0.0017242531
193	0xba314d3e	-0.0006763524
194	0xba0a16c3	-0.0005267674
195	0xbb31220a	-0.0027028346
196	0x3813ccbe	3.5238212e-05
197	0x3b6fecfc	0.003660976
198	0x397e3370	0.0002424249
199	0x3b5855e7	0.0033010186
200	0x3a7352d6	0.0009282058
201	0xba892176	-0.0010462243
202	0x3b1a6d42	0.0023563658
203	0xba876f39	-0.001033283
204	0xba52e36c	-0.0008044753
205	0x39873bd7	0.0002579379
206	0x38cebef0	9.85841e-05
207	0xb9a04094	-0.00030565693
208	0x3ae2cfec	0.0017304397
209	0x39b0d545	0.00033728234
210	0x3b221e2f	0.002473723
211	0xbb4abc0f	-0.0030934846
212	0xba6a1665	-0.00089297286
213	0xba3c9c10	-0.0007194886
214	0x39430fb9	0.00018602506
215	0xbb8f63b8	-0.004375901
216	0xba896bdc	-0.0010484415
217	0x3a04662b	0.00050506246
218	0x3b611792	0.0034346324
219	0x39e43004	0.00043523323
220	0x3adcdeb7	0.0016851042
221	0xba5d449d	-0.0008440705
222	0xba91f3fc	-0.0011135335
223	0x3a6341d6	0.0008669173
224	0xb82584a8	-3.946261e-05
225	0xba0fbc0f	-0.000548304
226	0x3b75045d	0.0037386634
227	0x3b849f18	0.0040472858
228	0x3a5c3515	0.0008400244
229	0x3b137faa	0.0022506514
230	0xba2762d5	-0.00063852716
231	0xba995195	-0.0011697287
232	0xbab6964d	-0.0013930291
233	0xbac35a22	-0.0014904181
234	0x3ac72126	0.0015192374
235	0xbacfd4d9	-0.001585628
236	0x3b235ed7	0.0024928355
237	0xbb3077f4	-0.0026926966
238	0xba0c69e7	-0.0005356357
239	0xbb1938cb	-0.0023379799
240	0xbb236d6b	-0.0024937044
241	0x3a0649ca	0.000512269
242	0xbaa5981f	-0.0012633837
243	0xbad60c6f	-0.001633061
244	0xbac6ad7d	-0.0015157905
245	0x3a996dc8	0.0011705691
246	0x3a48eb3c	0.0007664447
247	0xba3bd6d1	-0.0007165494
248	0xba8a8a07	-0.00105697
249	0x3b4b0ede	0.0030984203
250	0xbada2913	-0.0016644321
251	0x3acffd74	0.0015868382
252	0x3a8a4fd7	0.0010552359
253	0xbaf364df	-0.0018569491
254	0xb9b20df0	-0.0003396119
255	0x3b16a4d1	0.0022986422

encoder.4.bias f4 [80]
0	0xbd7d68eb	-0.061867636
1	0x3b92463e	0.00446394
2	0x3e219f75	0.15783484
3	0x3deaeda3	0.11471107
4	0xbbef8c7e	-0.007310449
5	0x3a474d5a	0.0007602774
6	0xbaf7dafe	-0.0018909869
7	0xbb9aa440	-0.004719287
8	0xbd9c5726	-0.0763381
9	0x3dd3525a	0.10318442
10	0x3b0a2afa	0.0021082745
11	0x3ddbb24d	0.107273676
12	0xbd51ad92	-0.05119092
13	0xbb82553a	-0.003977445
14	0x3cb8d492	0.022562299
15	0x3d4380e4	0.04773034
16	0xbdfd590b	-0.12370499
17	0xbc129087	-0.008945591
18	0x3a5dd5fb	0.00084623665
19	0x3a008cb7	0.00049037806
20	0x3b90f49a	0.00442369
21	0xba03a58b	-0.0005021921
22	0xbc6a30c7	-0.014293856
23	0x39cdf244	0.0003928115
24	0x3e1a5d26	0.15074596
25	0xbdb99781	-0.090621
26	0x3da4f82f	0.0805515
27	0xbbabe6ff	-0.0052460427
28	0x3b00541e	0.0019581388
29	0xbbf5c5b1	-0.0075003733
30	0x3c516688	0.012780793
31	0xbdd8d37b	-0.10587212
32	0x3d20b934	0.039239123
33	0xbd5e91fd	-0.054338444
34	0xbc0551f6	-0.008137217
35	0xbc27ce41	-0.010242046
36	0xbda9929a	-0.08279915
37	0xbd9b080a	-0.07569893
38	0xbcdb9907	-0.026806368
39	0xbba6c81d	-0.0050897733
40	0xbf4c6266	-0.79837644
41	0x3d258c89	0.040417228
42	0xbe8d11e4	-0.27552712
43	0xbf2599af	-0.6468763
44	0xbf4c44a8	-0.7979226
45	0x3d301f33	0.042998504
46	0x3d321762	0.04347933
47	0x3d32c2f6	0.04364296
48	0xbf27ae54	-0.6550038
49	0xbf458d27	-0.77168506
50	0x3d1bc53a	0.038029887
51	0xbf1d03f2	-0.61334145
52	0xbf998bc9	-1.1995784
53	0x3d2b0643	0.04175402
54	0xbe8a7ef9	-0.27049997
55	0xbeb97e29	-0.36229065
56	0xbf346cb6	-0.7047838
57	0xbf8c8dd1	-1.0980779
58	0xbee752c1	-0.45180324
59	0x3d1ef1a7	0.038804676
60	0x3d288df0	0.041150987
61	0x3d325bf6	0.043544732
62	0xbf1a2db0	-0.60225964
63	0x3d3dd87b	0.04634903
64	0xbfeda9ea	-1.8567479
65	0xbf7ac6ca	-0.9795958
66	0xbf3c080a	-0.73449767
67	0x3d1cc7a5	0.038276333
68	0x3d358977	0.04432055
69	0xbf463d52	-0.7743732
70	0xbf13afeb	-0.57690305
71	0xc00d58ee	-2.2085528
72	0xbf8c2879	-1.0949851
73	0xbf8365da	-1.0265458
74	0xbf803a31	-1.0017759
75	0x3d18759a	0.03722153
76	0xbf769a91	-0.963296
77	0xbee15168	-0.4400742
78	0xbed4336f	-0.4144549
79	0x3d26fc5c	0.040768012

decoder.0.weight f4 [128, 40]
0	0xbce3da0a	-0.02781393
1	0xba09cd9c	-0.00052567734
2	0x3aa40e66	0.0012516498
3	0xbe46c90a	-0.19412628
4	0xbd610ceb	-0.05494396
5	0x3944853f	0.00018741655
6	0xb918a624	-0.00014557742
7	0x3a577c63	0.0008220134
8	0xbc95df23	-0.018294876
9	0xbe34b6bb	-0.17647831
10	0x379b3a30	1.8504536e-05
11	0x3d4197f7	0.047264066
12	0xbcf7e5b4	-0.030260898
13	0xbb03589d	-0.0020041831
14	0x3aef836e	0.0018273422
15	0x3b08738d	0.0020820827
16	0x3e1d984c	0.15390128
17	0xbe4171dd	-0.18891092
18	0x3c5a4d1a	0.0133240465
19	0x3b8f4807	0.0043726
20	0xba6498a2	-0.0008720254
21	0x3a295d6c	0.00064607593
22	0xbc61a172	-0.013771402
23	0xbab20bd7	-0.0013583851
24	0xbcb8f1b6	-0.022576194
25	0x3c7b89d2	0.015352683
26	0x3d007f6b	0.031371515
27	0x3a11e5e5	0.0005565568
28	0x39574ac0	0.00020531844
29	0xbe3c1fd1	-0.18371512
30	0xbbcd49ca	-0.0062649
31	0xbd53afa4	-0.051681176
32	0xbb543aac	-0.0032383604
33	0xbdee9a08	-0.11650473
34	0x3cdbfa31	0.026852699
35	0x3b127ad4	0.0022351043
36	0xbc47b086	-0.012188083
37	0x3b1c7549	0.0023873618
38	0xbc35cf7c	-0.011096831
39	0xbaf96920	-0.0019028522
40	0x3ca7fbbc	0.020505778
41	0xbb1cb4c8	-0.0023911465
42	0xbca33d69	-0.019926744
43	0x3dab3a2a	0.08360703
44	0x3d4731b9	0.048631404
45	0x3a173a5a	0.0005768888
46	0xba0155fb	-0.00049337716
47	0xbacb15f2	-0.0015494211
48	0xbb02f65c	-0.0019983267
49	0x3e0a3d98	0.13500059
50	0x39c7b40a	0.00038090377
51	0x3d43655a	0.04770408
52	0xbd54f878	-0.05199477
53	0x3a4a028f	0.000770607
54	0x3a379b3d	0.00070040283
55	0xbbf7ec8f	-0.007566042
56	0x3b8ee249	0.0043604714
57	0x3b2f4274	0.002674249
58	0xbdbaff3e	-0.09130715
59	0xbb246ab7	-0.002508802
60	0xb91252cb	-0.00013954488
61	0x39e345d6	0.00043348846
62	0xbd455275	-0.04817434
63	0xba79c1ce	-0.00095274753
64	0x3e1b3575	0.15157111
65	0x3d4cfe13	0.05004699
66	0x3dafd278	0.085850656
67	0xba02da78	-0.0004991661
68	0x3a1479a5	0.00056638784
69	0xbd6d0ec6	-0.057875417
70	0xbba2ee6f	-0.004972271
71	0x3e3a49ec	0.18192261
72	0xbd5cd263	-0.053911578
73	0x3e34dbd2	0.1766198
74	0x3db52b97	0.08846205
75	0x3b049542	0.0020230566
76	0x3c602986	0.013681775
77	0xbc727017	-0.014797232
78	0xbd239110	-0.039933264
79	0x3b011a85	0.0019699645
80	0xbd74c52f	-0.05975836
81	0xbb01b0a4	-0.0019789124
82	0x3cf76b14	0.030202426
83	0x3dc6c44c	0.097054094
84	0xbcbc4ebe	-0.022986766
85	0xb9779572	-0.00023611428
86	0xbb208ed0	-0.0024499185
87	0x39eadcce	0.0004479647
88	0x3d1beccb	0.03806762
89	0xbd7b5695	-0.061361868
90	0xbb3e01b3	-0.0028992712
91	0xbcd0107b	-0.025398483
92	0x3d5908f0	0.05298704
93	0x39d2bcee	0.00040195085
94	0xbc781c6e	-0.015143497
95	0x3c91d56d	0.017801965
96	0x3c388097	0.011261127
97	0x3d3edd62	0.046597846
98	0xbd125d2d	-0.03573339
99	0x3aaa3c07	0.001298786
100	0x3b2d29ba	0.0026422576
101	0x3a530a82	0.0008050577
102	0x3cacb0ca	0.021080393
103	0x3b1e1109	0.002411904
104	0x3d2c9f74	0.042144254
105	0x3c07a742	0.008279623
106	0x3db58b27	0.08864432
107	0x39ed33e7	0.00045242833
108	0x3b1238dd	0.0022311725
109	0x3cda83c8	0.026674166
110	0x3cf92674	0.030413844
111	0xbd7ca625	-0.061681885
112	0xbe12a84a	-0.1432201
113	0x3e2136f2	0.15743616
114	0xbcf22fe3	-0.02956385
115	0x3a79bfe2	0.0009527189
116	0x3d288227	0.041139748
117	0xbd0609c6	-0.032724164
118	0xbca855fe	-0.020548817
119	0xb99c3fe0	-0.0002980223
120	0x3d09569c	0.033529863
121	0x3ac44856	0.0014975171
122	0x3ba1db48	0.0049394704
123	0xbd9a8acc	-0.07546005
124	0x3d793826	0.060844563
125	0x3a2d2306	0.0006604645
126	0x3ab3491b	0.0013678403
127	0xbb158710	-0.00228161
128	0x3d85b7fc	0.06529233
129	0xbe9baf61	-0.3040724
130	0x3a2c693d	0.0006576961
131	0xbceb9bb9	-0.028760778
132	0xbd99d717	-0.07511728
133	0xbac75c08	-0.0015209923
134	0x3d02cdf1	0.031934682
135	0x3ccb35f6	0.024806004
136	0x3d7a2b5b	0.061076503
137	0x3c961776	0.018321734
138	0x3dde06b5	0.10841123
139	0x3b8736d7	0.0041264105
140	0xb91b39c1	-0.00014803467
141	0x3af2f078	0.00185348
142	0xbb9d42c1	-0.0047992175
143	0xba26499a	-0.0006343365
144	0xbbe9fd47	-0.0071407887
145	0x3db737fa	0.089462236
146	0x3dce1876	0.10063259
147	0xb8e945e6	-0.000111233254
148	0x3a57b123	0.00082279945
149	0xbd3d840f	-0.04626852
150	0xbc697f0e	-0.014251484
151	0x3d9e7aad	0.07738242
152	0x3d177c37	0.036983695
153	0xbd5d6f63	-0.054061305
154	0xbbfed69e	-0.007777049
155	0xbb2033b1	-0.0024444873
156	0xbcd0abab	-0.025472483
157	0xbca75213	-0.020424878
158	0xbd629020	-0.05531323
159	0x3a364cf0	0.00069542136
160	0xbbd312cb	-0.0064414493
161	0xbb100371	-0.0021974707
162	0xbcbba822	-0.02290732
163	0xbc49d9ee	-0.012320025
164	0x3d8a2853	0.067459725
165	0xb9726b74	-0.00023118948
166	0xb8b1da26	-8.480651e-05
167	0x3b681ef6	0.0035418845
168	0x3d139053	0.03602631
169	0x3dd2e03f	0.10296678
170	0xbb24d12b	-0.0025149088
171	0xbddb3870	-0.10704124
172	0x3d8c3e8f	0.068478696
173	0x39203ff4	0.00015282613
174	0x3cba3230	0.02272901
175	0xbd25dabd	-0.04049181
176	0x3d667fa7	0.056274083
177	0x3dc8b5bf	0.0980029
178	0x3c0b728e	0.008511199
179	0xbaa46704	-0.0012542908
180	0xbab5bc49	-0.0013865317
181	0xba4cb401	-0.0007808805
182	0xbbaf3ebb	-0.005348054
183	0xba994d9b	-0.0011696102
184	0xbde8a165	-0.113589086
185	0x3bdb07f8	0.0066842996
186	0x3d1e2f21	0.038619164
187	0x3b3708f8	0.002792893
188	0x3ab00bca	0.0013431248
189	0x3c1d2ebf	0.009593665
190	0xbc798758	-0.015230022
191	0x3ddd2672	0.107983485
192	0x3d0792f2	0.033099122
193	0x3d0e9e58	0.034818977
194	0x3c2e41e1	0.010635824
195	0xbb1a5aaa	-0.0023552575
196	0xbd1d2cb8	-0.038372725
197	0xbc51c142	-0.012802424
198	0xbcb808b7	-0.022465093
199	0x3af2f979	0.0018537483
200	0xbdb2e05b	-0.08734199
201	0xb9e64aeb	-0.00043924837
202	0xbd154511	-0.03644282
203	0xbcd0cbfd	-0.025487894
204	0xbb0eab89	-0.0021769723
205	0xb9630990	-0.0002165197
206	0xbad17350	-0.00159798
207	0xb97db7d6	-0.00024196444
208	0x3c110b66	0.008852815
209	0xbd836f0d	-0.06417666
210	0x39e90f6c	0.00044452713
211	0xbd34b1a2	-0.044114716
212	0xbd7e8954	-0.062142685
213	0x39433017	0.00018614564
214	0xbcb0889b	-0.021549514
215	0x3a6adeb2	0.0008959576
216	0x3d35dc31	0.044399444
217	0x3d149471	0.036274377
218	0xbc44a4bd	-0.012002167
219	0x39958b93	0.00028523486
220	0xb9917ae0	-0.00027748104
221	0x3927b366	0.00015993192
222	0xbc8f01cc	-0.017456912
223	0x396315bd	0.00021656505
224	0xbc1461f9	-0.009056562
225	0xbd11812e	-0.035523586
226	0xbba24b52	-0.0049528265
227	0xba18586f	-0.00058115175
228	0x392dcdc5	0.00016575221
229	0x3d0234b1	0.03178853
230	0xbd0781b2	-0.03308267
231	0x3d1079fa	0.035272576
232	0x3a252fa9	0.00063013524
233	0x3d1fe93b	0.039040785
234	0x3b211036	0.0024576313
235	0xb915966f	-0.00014265788
236	0xbddb95af	-0.10721909
237	0xbd8c23b1	-0.06842745
238	0xbc98a619	-0.018633889
239	0x3a074fa8	0.0005161711
240	0x3dd9c854	0.10633913
241	0xb89600b9	-7.152692e-05
242	0xbd0803b6	-0.033206664
243	0xbb364dfd	-0.002781748
244	0xbd28e80f	-0.041236933
245	0x3af750d4	0.0018868693
246	0xbabf6bd4	-0.0014604279
247	0xb912fdfe	-0.00014018264
248	0x3c738ec0	0.014865577
249	0xbd5f1392	-0.054462023
250	0x38e5af2c	0.00010952199
251	0x3c5a5c3c	0.013327654
252	0xbce5b325	-0.028039524
253	0x3bbc96b2	0.005755269
254	0xbcfbde6c	-0.030745707
255	0xbcd024cd	-0.025408173

decoder.0.bias f4 [128]
0	0xbcf73de1	-0.030180873
1	0x3ce5f216	0.028069537
2	0x3d8b0007	0.067871146
3	0xbe26cf4f	-0.1629002
4	0x3d436bb4	0.047710136
5	0x3edf7706	0.43645495
6	0xbe0a984c	-0.13534659
7	0xbe4a0148	-0.19727051
8	0xbe1781a5	-0.14795549
9	0xbca5020b	-0.020142576
10	0xbe543e52	-0.20726898
11	0x3d5014fe	0.05080127
12	0xbdeb977d	-0.115035035
13	0x3e1e1ac8	0.15439904
14	0xbdcd1b76	-0.100150034
15	0xbdbd14e0	-0.09232497
16	0xbd05be98	-0.032652467
17	0xbb6aa218	-0.0035802182
18	0x3ea48c90	0.3213849
19	0x3d1ac2c8	0.037783414
20	0xbded3539	-0.11582417
21	0x3de69070	0.11258018
22	0xbe57b350	-0.21064496
23	0xbdff9e0a	-0.124813154
24	0xbe220780	-0.15823174
25	0xbe1fb016	-0.15594515
26	0x3c767afc	0.01504397
27	0xbc61cacc	-0.013781261
28	0x3e04e844	0.12979227
29	0xbde9e2a3	-0.11420181
30	0x3d0b6fb1	0.034042064
31	0x3d0e8023	0.03479017
32	0xbd9df42b	-0.07712587
33	0x3e402800	0.18765259
34	0xbd1c3eaf	-0.038145717
35	0x3c909896	0.017650884
36	0xbe339fc1	-0.1754141
37	0xbe1381fc	-0.14405054
38	0xbe146ed4	-0.14495403
39	0xbdf33ade	-0.118764624
40	0x3e37bc4c	0.17942923
41	0xbe061a63	-0.13096003
42	0x3d2fd0eb	0.04292385
43	0x3cc8ac2b	0.024496159
44	0xbd6e658e	-0.05820232
45	0xbe2e91cf	-0.17047809
46	0xbfe11ac7	-1.7586297
47	0xbdc0fb0c	-0.094228834
48	0xbdb9a38e	-0.09064399
49	0x3e1cdbb4	0.15318185
50	0xbe0fc80a	-0.14041153
51	0xbe4b0233	-0.19825058
52	0xbdd06c17	-0.101768665
53	0xbe41ed57	-0.18938194
54	0x3cb7bf4b	0.022430083
55	0x3d885a1d	0.06657813
56	0xbd96155b	-0.07328292
57	0xbd042df5	-0.03227039
58	0xbd123cec	-0.03570263
59	0x3c6a0433	0.014283228
60	0x3f14153b	0.57844895
61	0x3e1f8519	0.15578116
62	0xbd27dd22	-0.040982373
63	0x3d5f3254	0.054491356
64	0xbcbc1c0c	-0.022962593
65	0x3c47ea2d	0.012201828
66	0x3df53241	0.11972476
67	0xbde09e79	-0.10967726
68	0x3d777832	0.06041736
69	0xbc01a4e8	-0.007912852
70	0xbd0b5176	-0.034013234
71	0x3e3afc7d	0.18260379
72	0xbd45d90f	-0.048302706
73	0x3e3a4b58	0.18192804
74	0xbde7926e	-0.11307226
75	0x3d8cb5ef	0.068706386
76	0x3e7d57b7	0.24740492
77	0xbd93584c	-0.07194576
78	0xbd96c7cc	-0.07362327
79	0xbdbc9fd3	-0.092101716
80	0xbcf0d85d	-0.029400045
81	0xbe1aa160	-0.15100622
82	0xbe164b3d	-0.14677139
83	0xbd99452d	-0.07483897
84	0x3f0ce3d5	0.55035144
85	0x3d95c2b5	0.07312528
86	0x3d0047bd	0.031318415
87	0x3d9691f6	0.073520586
88	0x3e22fb72	0.15916231
89	0xbd63b7c7	-0.055595186
90	0x3d04c663	0.03241576
91	0x3d6f0212	0.058351584
92	0x3e12ceef	0.14336751
93	0xbe1d0ecb	-0.15337674
94	0x3d729ddc	0.059232578
95	0xbd19b866	-0.03752937
96	0xbd0f03fc	-0.03491591
97	0xbd0be6ad	-0.034155536
98	0xbdd9258b	-0.10602864
99	0xb7e67480	-2.7472386e-05
100	0xbdd4d611	-0.103923924
101	0x3d546b6a	0.05186025
102	0xbd547965	-0.051873583
103	0xbdc6b15f	-0.097017996
104	0x3ed74eb7	0.42052242
105	0xbe0d4390	-0.13795304
106	0xbd3f234d	-0.046664525
107	0x3d06640b	0.032810252
108	0xbe405570	-0.18782592
109	0xbdf42b58	-0.1192233
110	0xbd57767b	-0.052603226
111	0x3dbd3350	0.09238303
112	0x3d081225	0.03322043
113	0xbcd855af	-0.026408045
114	0xbe030ac4	-0.12797076
115	0x3d4d7582	0.050160892
116	0x3db9e9e3	0.090778135
117	0xbe40dbf4	-0.18833905
118	0x3cd593e4	0.026071496
119	0xbd3015a7	-0.0429894
120	0x3d0b0f94	0.033950403
121	0x3d9c1eac	0.07623038
122	0xbe19dfc4	-0.15026766
123	0xbdb7f20b	-0.08981713
124	0x3f001fa1	0.5004826
125	0xbe24ab79	-0.16081037
126	0xbd95b513	-0.07309928
127	0xbe207e86	-0.15673265

decoder.2.weight f4 [400, 128]
0	0x3d80b501	0.06284524
1	0x3e84acde	0.25913137
2	0xbd055967	-0.032555964
3	0x3dd668e8	0.10469228
4	0x3de29cb5	0.11065046
5	0xbc20fd0e	-0.009825958
6	0x3d776226	0.060396336
7	0xbde1cfa0	-0.110259295
8	0x3d905a4a	0.07048471
9	0x3c1d825c	0.0096136
10	0x3dd94f40	0.10610819
11	0xbdc281fb	-0.09497448
12	0xbba7a230	-0.00511577
13	0xbd6ae6c8	-0.057348996
14	0xbc95f935	-0.018307308
15	0x3d93346c	0.07187733
16	0x3e0f784d	0.14010735
17	0x3c8f17bf	0.017467378
18	0x3ceceb43	0.028920775
19	0xbdd2c554	-0.102915436
20	0xbd684108	-0.056702644
21	0xbcd2cc03	-0.025732046
22	0x3d3c97d1	0.04604322
23	0xbce22592	-0.027605806
24	0x3ccaf2d1	0.024773987
25	0xbd8496c0	-0.06474066
26	0x3dff78c0	0.12474203
27	0xbe34b7fa	-0.17648306
28	0xbe1df037	-0.15423666
29	0xbd9344f2	-0.07190885
30	0x3c78893f	0.015169441
31	0xbdb51d30	-0.08843458
32	0xbbbe1421	-0.0058007394
33	0xbd2209d8	-0.03956017
34	0x3d453ddf	0.048154708
35	0x3e171df1	0.14757515
36	0xbc428e24	-0.011874709
37	0xbcd7178f	-0.02625635
38	0x3dd77b5c	0.10521576
39	0x3e21374a	0.15743747
40	0x3bf1d78c	0.0073804315
41	0x3d91fbec	0.071281284
42	0x3c2c4a15	0.010515709
43	0xb9326ef5	-0.00017016738
44	0xbdd0b6e8	-0.101911366
45	0x3d87e5d5	0.06635634
46	0xbf6ef63f	-0.9334449
47	0x3d93e0ee	0.07220636
48	0xbbe9d07b	-0.0071354485
49	0x3c13d83c	0.009023722
50	0xbcc2ba56	-0.023770493
51	0x3d55da67	0.052210238
52	0xbd125230	-0.03572291
53	0x3d207ab5	0.039179523
54	0x3d0e7b50	0.03478557
55	0x3d80e8af	0.06294381
56	0x3cf9f789	0.030513542
57	0xbcb5b384	-0.022180326
58	0xbcde4160	-0.027130783
59	0xbd918288	-0.07104975
60	0x3dacbdb2	0.08434619
61	0xbd15d828	-0.036583096
62	0x3d00bfe0	0.031432986
63	0x3d0cb348	0.034350663
64	0xbdb698e1	-0.08915878
65	0xbd10452d	-0.03522222
66	0x3c9de21c	0.019272856
67	0xbe0cf545	-0.13765438
68	0xbc97c6f2	-0.018527482
69	0xbbc46f22	-0.0059946934
70	0x3d968b8f	0.073508374
71	0x3e3493ec	0.17634553
72	0xbdc09ef8	-0.09405321
73	0x3e017230	0.12641215
74	0x3dd940e8	0.10608083
75	0xbe09b40c	-0.13447589
76	0xbc79547b	-0.015217896
77	0x3b834103	0.0040055527
78	0x3e22aabe	0.15885445
79	0xbd73154a	-0.059346475
80	0x3e15e652	0.14638641
81	0xbd0bd520	-0.0341388
82	0x3e230955	0.15921529
83	0x3e4c6d6f	0.1996362
84	0x3dcbe925	0.09956578
85	0x3d9a00b7	0.075196676
86	0x3e7e24a6	0.24818668
87	0x3c0d2c18	0.00861647
88	0xbdfef755	-0.124495186
89	0xbc3455eb	-0.011006813
90	0xbd3c38a3	-0.04595245
91	0x3d3f47b0	0.046699226
92	0x3d849b9a	0.06474991
93	0xbdf719d6	-0.12065475
94	0x3d8778fe	0.06614874
95	0xbe1b136f	-0.15144132
96	0x3d10fbdf	0.035396453
97	0x3d7be390	0.061496317
98	0x3dc47c37	0.095940046
99	0xbd7e50a6	-0.06208863
100	0xbd4644da	-0.048405506
101	0xbc99ffd0	-0.018798739
102	0xbdc5c930	-0.09657514
103	0x3dc1f2e5	0.094701566
104	0x3d6717b0	0.056419075
105	0x3cdf4a8f	0.027257232
106	0xbdb5c6b0	-0.08875787
107	0x3ded9467	0.11600571
108	0xbe9a2429	-0.30105713
109	0x3de40803	0.111343406
110	0x3cd63ccd	0.026152039
111	0xbde09967	-0.10966759
112	0x3c91f147	0.017815245
113	0xbce63ea6	-0.028106045
114	0xbd81a091	-0.06329454
115	0xbdd3f349	-0.10349137
116	0x3e003955	0.1252187
117	0x3d05cf2d	0.03266828
118	0x3d003680	0.031301975
119	0x3e0fd657	0.14046608
120	0x3c1cc8d0	0.009569362
121	0xbe08b7ad	-0.13351317
122	0xbd3062e4	-0.04306306
123	0x3dc0bce0	0.09411025
124	0xbe8b0629	-0.27153137
125	0xbd1b491f	-0.03791153
126	0x3cb93dd4	0.02261249
127	0x3d9631d9	0.073337264
128	0x3ac538fc	0.001504689
129	0x3c318b6a	0.010836462
130	0x3c5c28a3	0.013437423
131	0xbe073996	-0.13205561
132	0xbde7eed7	-0.11324852
133	0xbd831fef	-0.06402575
134	0xbe28d1b7	-0.1648625
135	0xbdb213b7	-0.086951666
136	0x3d829d3d	0.06377647
137	0xbdc25d4c	-0.09490451
138	0x3db21d16	0.08696954
139	0xbca32e6d	-0.019919598
140	0x3d41aaa3	0.047281872
141	0x3e2fcd8e	0.17168257
142	0x3cc394f2	0.023874734
143	0xbdf4da9c	-0.11955759
144	0xbddf04fe	-0.10889624
145	0xbd7a94c2	-0.061177023
146	0xbdf97f11	-0.12182439
147	0xbe19aec8	-0.1500808
148	0xbdf4a560	-0.11945605
149	0xbe3cb3d1	-0.1842797
150	0x3eb86138	0.36011672
151	0x3da26dd5	0.07931105
152	0x3dd3d2c0	0.10342932
153	0x3e42bce8	0.19017375
154	0x3e4d2131	0.20032193
155	0x3e4fa9de	0.20279643
156	0xbdd0f7c6	-0.10203509
157	0x3e38195b	0.17978422
158	0xbb553c89	-0.0032537302
159	0xbccafc19	-0.024778413
160	0xbd62055d	-0.055180896
161	0xbe0b5a0f	-0.13608573
162	0x3da80114	0.08203331
163	0x3d8d987e	0.06913851
164	0xbdfc6415	-0.12323777
165	0x3e3a3500	0.1818428
166	0xbdfd6768	-0.12373239
167	0x3d4813e4	0.048847094
168	0xbc9156e2	-0.017741624
169	0x3e065977	0.13120066
170	0xbec4192f	-0.38300464
171	0x3cb9250f	0.022600679
172	0x3e858629	0.2607892
173	0xbe3d8003	-0.18505864
174	0xbe71e939	-0.23624124
175	0x3c3e657d	0.011620876
176	0x3e1fbf4a	0.15600315
177	0xbe180185	-0.1484433
178	0xbae87b75	-0.0017736988
179	0x3d20d37a	0.03926418
180	0x3bd5d75a	0.006525916
181	0x3d9da77b	0.0769796
182	0x3d33b862	0.043877013
183	0x3e352c58	0.17692697
184	0xbc010e29	-0.007876911
185	0x3e76ab19	0.24088706
186	0xbdb01ace	-0.085988626
187	0xbe000ae1	-0.1250415
188	0x3e4340ac	0.19067639
189	0x3dfd9abe	0.1238303
190	0x3dbd4dce	0.09243356
191	0x3d8be4a6	0.068307206
192	0x3e204740	0.1565218
193	0xbd9168fd	-0.07100103
194	0xbd596763	-0.053077113
195	0xbd9e6ac2	-0.07735206
196	0xbd8013db	-0.06253787
197	0xbe11548d	-0.1419241
198	0x3e4845ab	0.19557826
199	0x3ea49b12	0.3214956
200	0xbe5243c0	-0.20533657
201	0x3d506213	0.05087478
202	0xbd32b301	-0.043627743
203	0xbce29f9f	-0.027664004
204	0x3e128bbc	0.14311117
205	0x3da959fb	0.082691155
206	0x3cd3fc2c	0.02587708
207	0xbcc6beae	-0.024260845
208	0x3e0cc52c	0.1374709
209	0xbeb2e3e4	-0.34939492
210	0x3dcb9caf	0.099419944
211	0x3e877d83	0.26462945
212	0x3e9fc563	0.31205282
213	0x3e5444c8	0.20729363
214	0x3e018781	0.12649347
215	0xbd461bc3	-0.04836632
216	0x3e0a9ef3	0.13537197
217	0xbd85524b	-0.06509837
218	0xbe139aef	-0.14414571
219	0xbe9226ee	-0.28545326
220	0xbdcc56ec	-0.099775165
221	0xbe8f7157	-0.2801616
222	0xbebe4795	-0.37163988
223	0xbe88ffff	-0.2675781
224	0xbe9246de	-0.28569692
225	0x3e13b33d	0.14423843
226	0xbafbbd89	-0.0019206266
227	0x3cd32cc0	0.025778174
228	0xbd1f3aaf	-0.038874324
229	0x3dc15cfb	0.09441563
230	0xbc9eb826	-0.019374918
231	0x3e002102	0.12512591
232	0xbd847afc	-0.0646877
233	0xbba28e38	-0.0049608015
234	0x3e20a293	0.15687017
235	0xbe4ca872	-0.19986132
236	0xbe78787f	-0.24264716
237	0xbd8b414f	-0.06799566
238	0xbd93a189	-0.07208545
239	0x3d733217	0.05937394
240	0xbdd1ce60	-0.10244441
241	0xbd882908	-0.06648451
242	0xbe2641c1	-0.1623602
243	0x3e07ee26	0.1327444
244	0x3e249855	0.16073735
245	0xbdd019c3	-0.10161164
246	0x3e03a879	0.12857236
247	0xbd7d710f	-0.0618754
248	0xbe75370d	-0.23946781
249	0xbda33b50	-0.07970297
250	0xbe6870ca	-0.22699276
251	0xbd6a4089	-0.05719045
252	0xbe35daa5	-0.17759188
253	0xbe0af679	-0.13570584
254	0xbda749d9	-0.08168382
255	0x3d32fc17	0.043697443
