networks/vae_precoder_beta0.01_epoch70_latent_dim20_from_train_py.pt (torch, 348307 bytes, 64 tensors)

encoder.0.0.weight f4 [32, 32]
000000 3b f0 40 be 73 12 cb 3e 74 5d 16 3f 0d d7 ae 3d
       -0.1884164 0.39662513 0.5873635 0.085371114
000010 5d e0 54 3d 0d ec ec bd 9f aa 1d be 2c ad ab bd
       0.051971782 -0.115684606 -0.15397118 -0.08382639
000020 b8 1a 86 bd 08 36 b8 bd e0 b9 8b 3d 6b 27 46 be
       -0.06548065 -0.08994681 0.06822562 -0.19350974
000030 6e fc b4 bd 7d e0 91 3d c4 81 08 be 27 f2 32 3e
       -0.0883721 0.07122896 -0.13330752 0.17475186
000040 c4 9a 84 be 3f 2c 4f 3e 7c 94 53 3e d8 17 4a be
       -0.25899327 0.20231722 0.20662111 -0.19735658
000050 f6 6f 52 3e a6 37 3c 3e d6 6c ea 3d 47 03 43 bf
       0.20550522 0.18380603 0.1144654 -0.76176876
000060 f8 6c 26 be a7 93 80 3e 4c 08 1b 3e ca eb 8f be
       -0.16252506 0.2511265 0.15139884 -0.2810958
000070 26 19 e5 bd 4f 47 ba 3e 7b 3e c2 3d 22 f0 7e be
       -0.11186437 0.3638253 0.094845735 -0.24896291
000080 e7 71 93 be dc 03 9d 3e 14 d1 85 3e 57 3b 11 be
       -0.28797838 0.30667007 0.26136076 -0.14182793
000090 a0 7d a3 be 1e 5c 4d be 7f d0 85 be 3a 1e cf 3d
       -0.31931782 -0.20054671 -0.26135632 0.10113187
0000a0 d1 bd ba 3d 9e c5 c6 3e 82 5b d3 bc e9 83 3e bd
       0.09118236 0.38822645 -0.02580047 -0.046512518
0000b0 4f 1c d4 bd bd 5a 6d be 00 d6 90 be 35 f0 0b be
       -0.10356962 -0.23179145 -0.2828827 -0.1366585
0000c0 5b dd e0 be 59 8b bb 3e f4 45 a2 3e dd 8b 82 3d
       -0.4391888 0.3662975 0.31693995 0.06374333
0000d0 f9 53 c3 bd cf 5a 05 be 8e ea 8b be 7c d7 b2 3e
       -0.09537501 -0.13022922 -0.2732739 0.34930027
0000e0 da 96 99 3e 84 33 98 bd 1c b7 69 be 26 f3 85 3e
       0.29997903 -0.07431701 -0.22823757 0.2616207
0000f0 53 80 34 3e c6 54 0c be 3b 75 84 be e3 01 88 bd
       0.17627077 -0.13704214 -0.2587069 -0.06640985
000100 63 6b 66 3e 1c df 1c 3d e3 c9 9d 3e 14 cd 7f 3e
       0.22501902 0.03829871 0.3081809 0.24980575
000110 01 a6 98 3d 0b f7 24 bf b7 cf b2 be 55 71 ec 3d
       0.07453538 -0.6443946 -0.349241 0.11545054
000120 c8 7a 3b be 00 d2 34 be 4c 38 02 be e8 0a e0 3e
       -0.18308556 -0.17658234 -0.12716788 0.4375832
000130 03 9f 97 3e c3 71 84 be c5 55 b2 bd fc bd dd bd
       0.29613504 -0.25868043 -0.087077655 -0.10827252
000140 9d fb 97 3d db 0e f8 3b 95 1e ef 3e df 56 d4 be
       0.07421038 0.0075701303 0.4670302 -0.41472527
000150 e7 ac 4a be 4c c9 6d be 4b 4b a5 be 96 84 40 3e
       -0.1979252 -0.2322132 -0.32284006 0.18800578
000160 8f 91 b4 3d e2 58 89 bd 23 10 09 be 9a a7 34 be
       0.088168256 -0.06706406 -0.13385062 -0.1764206
000170 23 f8 fa bc e6 4e 2c 3e a3 b8 5e 3d 66 7c 87 3e
       -0.030635899 0.16826972 0.054375302 0.26462096
000180 9f 20 88 be ea e8 aa be 47 9d 2b 3e 82 67 7f 3e
       -0.26587388 -0.33380824 0.16759215 0.24941829
000190 bb 93 76 3e d6 93 38 be 89 39 96 bd 5c 85 97 be
       0.24079792 -0.18025145 -0.07335193 -0.29593933
0001a0 78 97 ae be 94 00 a3 3d 6a 58 8e be 3d 7c 52 3e
       -0.34099936 0.07959095 -0.2780183 0.20555206
0001b0 ea 0e c0 bd ca 79 ea 3e e3 1b 8a 3e 9b 9c 34 be
       -0.09377845 0.45796043 0.269744 -0.17637865
0001c0 f7 0d df 3d 50 ad 30 3e 94 df b8 3d e6 58 dc 3c
       0.108913355 0.17253613 0.09027019 0.026897859
0001d0 20 06 a2 3e fa 07 f3 bd 82 dd 9d be 24 06 72 be
       0.31645298 -0.11866756 -0.3083306 -0.23635155
0001e0 8a 7a c6 be 9f ea 42 3e 89 3d 0a 3d b8 17 de 3e
       -0.38765365 0.19034813 0.03375009 0.4337747
0001f0 7e b9 17 bd 16 18 92 be ae 69 6c 3e e9 f5 65 3d
       -0.037042134 -0.28534 0.23087189 0.05614272
000200 31 34 a4 3e 88 bc 0b bf b7 3c b2 be ab bc aa bd
       0.3207107 -0.5458455 -0.34811947 -0.08336767
000210 5f ec 16 3e 0f ea c2 3e 89 0d 87 3e 40 a0 f3 3d
       0.14738606 0.38069198 0.26377514 0.118958
000220 4d ac d2 3d 6c ae 00 3d a4 c4 4a 3d 59 be c2 3d
       0.1028677 0.03141634 0.049503937 0.09508962
000230 0a ed 52 3e 62 55 80 3d 62 53 ab ba 67 b1 51 3d
       0.20598236 0.062662855 -0.0013071115 0.051194575
000240 4f bc 4f 3e 2a 58 81 be 95 44 1b 3d ae d9 87 3d
       0.20286678 -0.25262576 0.0379072 0.06633316
000250 bd ad 1a be 9d 01 99 bd 7b ca be bd aa a3 26 3f
       -0.15105338 -0.07471011 -0.09315964 0.6509348
000260 e5 d6 a1 3e db 34 74 be 8f d3 a6 bd a2 5c 14 bd
       0.31609264 -0.23848288 -0.0814582 -0.036221154
000270 b5 90 b1 3e 9a d5 ba be 0a 85 8d be aa cc 0b 3e
       0.34680715 -0.3649109 -0.27640563 0.13652292
000280 9e 32 70 be 91 bb 8d be 4a 6a 91 3d 37 61 4a 3e
       -0.23456809 -0.27682164 0.07100351 0.19763647
000290 b8 c8 4a 3e cb b2 8b be 7d 68 ec 39 a0 8e 76 3c
       0.1980313 -0.27284846 0.00045091278 0.015048653
0002a0 10 3e 81 3e e8 90 b7 be d2 6e b0 be 4e bb 2e 3e
       0.25242662 -0.35852742 -0.3445955 0.17063639
0002b0 98 29 c9 3d bb 7f 16 3e 69 88 b8 3d 54 4f 08 be
       0.098223865 0.14697163 0.09010393 -0.13311511
0002c0 77 e5 c0 be 57 ca 9e be b8 88 44 bd ac 0f 0d 3f
       -0.37675068 -0.31013748 -0.047981948 0.5510204
0002d0 09 3f e1 3e da c6 13 be 90 74 85 3d 34 36 cc be
       0.43993405 -0.14431325 0.06516373 -0.39885104
0002e0 b8 83 9a ba 44 ff 55 be 5c 8b ba be 01 19 32 3e
       -0.0011788523 -0.20898157 -0.36434448 0.1739235
0002f0 3e 3c 1b 3e 42 aa 8a bd 9c 57 06 be 4f 0a 95 be
       0.151597 -0.06770755 -0.13119358 -0.29109427
000300 f4 42 af 3e 5b 52 80 3e a0 d9 56 bd 44 b0 c5 be
       0.3423077 0.25062832 -0.052453637 -0.38611042
000310 d2 18 62 be 08 fd 9e 3e 0d ee e8 3d 8a ec 36 bd
       -0.2207978 0.31052423 0.113735296 -0.044659175
000320 0b 1b 94 3d fb 71 2f 3e 87 a6 dd 3e ff 5e 5d be
       0.072317205 0.17133324 0.43291113 -0.2161827
000330 00 3e 09 bc 9e a4 1f be 93 0e 49 bd 45 0c 8d 3e
       -0.008376598 -0.1559014 -0.049086165 0.27548423
000340 8d 3c 80 3e 50 72 a7 3e 75 8e 87 3d 52 84 e2 be
       0.25046197 0.327044 0.066189684 -0.44241577
000350 ec bf bb be 51 99 81 3e 93 96 06 be 62 09 f3 3d
       -0.36669862 0.25312284 -0.13143377 0.11867024
000360 42 95 3e 3e b1 0e d3 3e 38 38 63 3e 32 aa 15 be
       0.18611625 0.41222146 0.22189415 -0.14615706
000370 c1 99 fd bd d0 c5 d0 bd bc 42 ee 3d 5d 1b 45 3e
       -0.12382842 -0.1019398 0.11633822 0.1924872
000380 ed 01 96 be 72 db 08 be df 7a cb be 06 9f 3f 3e
       -0.29298344 -0.13364962 -0.3974218 0.18713006
000390 ed f2 db 3d 54 9e f9 3d 41 55 07 be ba 68 47 3e
       0.10739694 0.12188402 -0.13216116 0.19473544
0003a0 00 3a b7 3d 34 3a 46 3e 41 26 93 3e 0c 22 24 3e
       0.089466095 0.1935814 0.28740123 0.16028613
0003b0 66 c2 fe 3d 0a 65 23 bf f6 c8 e3 be 2f b5 94 3e
       0.12439422 -0.6382605 -0.4448926 0.29044482
0003c0 90 cc 31 3e 93 71 a0 bd 57 98 62 be 99 2b 91 3e
       0.1736319 -0.078341626 -0.22128426 0.28353575
0003d0 11 11 a7 3e bd de 24 3d cc 4a 29 bc 62 69 48 3e
       0.32630208 0.040251482 -0.010332774 0.1957145
0003e0 d8 13 b6 3e f2 4a 22 3e 8e be c0 3b e2 36 b1 bc
       0.35562015 0.15848902 0.005882091 -0.021632615
0003f0 db af 84 3e 26 c1 00 3e 61 9e 20 3e f6 cf 7e be
       0.25915417 0.1257368 0.15685417 -0.24884018

encoder.0.0.bias f4 [32]
000000 5f 34 3e bd 74 d3 4d bd 46 af b2 3d 89 62 22 bd
       -0.046436664 -0.050250486 0.08724837 -0.03964475
000010 5c 69 0b be 88 50 dd 3d 91 64 63 3e 8f 7d 2d 3b
       -0.1361441 0.10806376 0.22206332 0.0026472544
000020 6d fa 2e 3e f9 f7 e6 3d 25 64 26 3e 5c 3c 06 3d
       0.17087717 0.11277766 0.1624914 0.032772407
000030 b1 83 e3 3c b4 4d 7a bd 68 ac 82 3e 4e c3 fb 3d
       0.027772756 -0.06110926 0.2552216 0.12293111
000040 5a d3 89 be f3 1a 93 3e dc 08 c9 be 1c b7 f6 3d
       -0.2691906 0.28731498 -0.39264572 0.12046644
000050 26 a1 eb 3d a3 14 1c be a0 ea 24 3e 06 1a 0e 3e
       0.11505346 -0.15242247 0.16105127 0.13877115
000060 bd 02 74 3e 19 1b 4c be 85 5f 57 3e 6b 72 52 3e
       0.2382917 -0.19932212 0.21032532 0.2055146
000070 75 fd c3 3d 08 2c 29 bd 97 36 89 bd af af fc bc
       0.095698275 -0.041301757 -0.06699865 -0.030845491

encoder.0.1.weight f4 [32]
000000 96 66 92 3f 55 35 7d 3f 64 c9 5a 3f 18 dd 4f 3f
       1.1437557 0.98909503 0.8546355 0.8119674
000010 b0 c6 7f 3f 34 bd 8f 3f ba 37 96 3f 65 d4 39 3f
       0.9991255 1.1229615 1.1735756 0.72589713
000020 4f 7d 3e 3f 2d 6d 8d 3f 1b 53 3b 3f 69 de 5b 3f
       0.74409956 1.1048943 0.73173684 0.85886246
000030 74 79 68 3f 94 ca 5f 3f bb 24 91 3f d0 5b 4e 3f
       0.9081032 0.87418485 1.1339334 0.80608845
000040 e2 bc 4b 3f 7d f6 4a 3f 7a b2 5f 3f 0e 9f 69 3f
       0.7958509 0.7928236 0.8738171 0.91258323
000050 18 58 4e 3f 3a 0e 9e 3f 2d 10 6e 3f 23 91 59 3f
       0.8060317 1.2348092 0.9299343 0.84987086
000060 07 8f 85 3f 03 9f 55 3f 87 1f 8c 3f e6 c2 65 3f
       1.0434273 0.8344576 1.0947121 0.89750516
000070 a0 f1 68 3f 5e 6a 7e 3f 78 4c 71 3f 01 4f 6d 3f
       0.9099369 0.99381053 0.9425731 0.92698675

encoder.0.1.bias f4 [32]
000000 40 c2 f0 bd 8f 70 d8 3e e2 e6 e2 3e f0 19 01 3f
       -0.117558 0.42273375 0.44316775 0.504302
000010 82 1b c7 3e ad e6 83 3e 1c b8 a0 3e 85 e8 3e 3f
       0.38888174 0.2576193 0.31390464 0.74573547
000020 15 2c 04 3f 7b 24 03 3f 44 6f 61 3f b3 6b bf 3e
       0.51629764 0.5122754 0.880604 0.37386855
000030 75 48 95 3e e9 4e 1b 3f 7b 30 00 3f 6e d7 06 3f
       0.29156843 0.6066728 0.50073975 0.5267247
000040 30 9a 11 3f 78 55 9e 3e ff fc 5a 3e 82 bd 36 3f
       0.56875896 0.30924582 0.21385573 0.71382916
000050 91 53 19 3e be b8 13 3d a8 50 d5 3e b2 35 62 3f
       0.14973284 0.036064856 0.41663098 0.8836318
000060 03 1b 06 3f c7 ed 01 3f 6d ca 21 3f 69 f6 d0 3e
       0.52384967 0.50753444 0.631995 0.40812996
000070 bf b8 8b 3e 0a 36 95 3e 4d f6 83 3e e0 b5 03 3f
       0.27289388 0.2914279 0.2577385 0.51449394

encoder.0.1.running_mean f4 [32]
000000 7e 33 e1 3c 6a 97 8d bd 73 35 e5 3c 06 4c 8b bd
       0.027490374 -0.069136456 0.027979588 -0.0680161
000010 c9 08 3c be 03 2a 0d 3d a4 e5 9f 3e 86 e6 0f bd
       -0.18362726 0.034463894 0.3122989 -0.035131954
000020 ab 5e 3a 3e 2b 45 00 3e ea f6 0c 3e a5 b1 49 3d
       0.18200175 0.12526385 0.13766065 0.04924168
000030 49 60 ea 3c 19 9b 88 bc 44 7e 8c 3e b7 3d 38 3e
       0.028610365 -0.016675519 0.27440083 0.17992292
000040 62 1d 99 be 9d 60 9b 3e 10 4c 9f be cd a8 53 3d
       -0.2990523 0.30347148 -0.3111272 0.051674653
000050 f1 93 0e 3e 61 9d 87 bd 00 81 1a 3e c1 fe 53 3d
       0.13923623 -0.066218145 0.15088272 0.051756624
000060 92 a0 1d 3e 39 fc 29 be 5a 32 27 3e 0e 4b 8b 3e
       0.15393284 -0.16600122 0.16327801 0.272057
000070 4f 5d 15 3e 3c f7 74 3c a0 5d 50 3d 88 6c de bc
       0.14586376 0.014951523 0.050870538 -0.027151361

encoder.0.1.running_var f4 [32]
000000 8d ee d6 3d 35 bb 1c 3e d6 62 f6 3d 7d 6b b3 3d
       0.10494719 0.15305789 0.1203057 0.08760736
000010 6b 8d df 3d 7e f5 37 3e 1c 54 34 3e ac 3e b6 3d
       0.10915645 0.17964742 0.1761021 0.088986725
000020 5a b9 67 3d 7a 2e 61 3e 68 96 b8 3d 5b eb d4 3d
       0.05657325 0.21990386 0.09013063 0.10396453
000030 1d 7f b5 3d 35 eb ea 3d a1 99 4f 3e fb 18 5f 3d
       0.088621356 0.114706434 0.20273449 0.054467183
000040 a4 9b c7 3d be 7c ce 3d dd a4 cb 3d 6e d6 04 3e
       0.09746483 0.100823864 0.099435546 0.12972423
000050 38 68 ed 3d 38 16 65 3e 9b 53 d3 3d 72 3f 06 3e
       0.11592144 0.22371757 0.10318681 0.1311014
000060 21 9f de 3d b3 83 d3 3d ba ed 25 3e 94 7f 08 3e
       0.10870195 0.10327854 0.16203967 0.13329917
000070 2d b2 14 3e 0c 65 fa 3d 75 aa e5 3d 27 b0 b8 3d
       0.14521094 0.122263044 0.11214153 0.090179734

encoder.1.0.weight f4 [64, 32]
000000 0f 0e e3 3d d0 9e 01 3e d0 47 f7 3c 55 ec 7f bd
       0.11086666 0.12658238 0.03018561 -0.062481243
000010 91 ba 85 be 30 c5 7e 3b d0 63 8e 3e 50 3a c3 bd
       -0.261189 0.0038874857 0.27810526 -0.095326066
000020 9b 64 11 be 7f 36 f7 3c 15 08 c4 3c b7 08 8a be
       -0.14198534 0.030177353 0.023929635 -0.26959774
000030 ab 8b 48 be 0f 45 e8 bd d5 f9 52 3e 5f 9c d2 3e
       -0.19584529 -0.11341297 0.20603116 0.41134927
000040 0d 4b c0 3b 70 7f 97 bb 98 90 10 bf 13 3e 08 3e
       0.0058683218 -0.004623346 -0.5647063 0.1330493
000050 fd 03 98 be 29 fb 13 3d 32 eb 27 3f e2 51 d1 3d
       -0.29690543 0.036128197 0.65593255 0.10220696
000060 53 f9 40 be ce 36 0e 3d f1 52 da be b2 91 ec bd
       -0.1884511 0.034720235 -0.42641404 -0.11551227
000070 12 be 6b be d1 91 8d be d2 36 02 3e bc fb 83 3e
       -0.23021725 -0.27650312 0.12716225 0.25777996
000080 b7 4d 51 3e d0 ef 76 3e 5b cb f9 3d 77 9c e8 bd
       0.20439802 0.24114919 0.1219699 -0.11357968
000090 f4 89 7d be 22 fc 0e bd 62 15 e9 3b ef 20 42 be
       -0.24759656 -0.03490842 0.0071131447 -0.18957876
0000a0 52 38 11 be 67 0b a6 bd 02 a6 61 3e e4 32 21 3e
       -0.1418164 -0.081076436 0.22035983 0.1574207
0000b0 0d 84 35 bd 82 5c 5e 3d 9a b0 84 3d ff ee 0b be
       -0.044315387 0.05428744 0.064789966 -0.13665389
0000c0 19 53 81 be f6 76 5f be 56 03 9b 3c 88 7b 00 3f
       -0.2525871 -0.21822724 0.01892249 0.50188494
0000d0 3e 3c 2d 3e 11 8c d1 be a8 7e 0f be fd d2 dd 3d
       0.16917512 -0.40927175 -0.1401316 0.108312584
0000e0 5d bb 86 be f3 8b cb 3e e1 2d 56 3f 25 84 94 be
       -0.26314822 0.3975521 0.83663756 -0.29007068
0000f0 d6 2a 41 be 45 48 3e be 59 3c f9 3c 86 52 b0 bd
       -0.18863997 -0.18582256 0.030424284 -0.0860949
000100 0f b0 79 be f1 35 97 3e e8 4a 03 3e e9 02 0d 3e
       -0.24383567 0.29533342 0.12821543 0.13770641
000110 1e 8c 88 be 2f 1e 5a bd 94 63 02 3f c7 a6 69 be
       -0.266694 -0.05325144 0.50933194 -0.22817527
000120 c1 e9 2d 3d ee ac d7 bc e1 18 34 be 31 ee 28 be
       0.042459253 -0.026327576 -0.17587616 -0.16497113
000130 6c a2 50 be 79 f0 4d 3e 99 75 e5 3b 99 b0 79 be
       -0.20374459 0.20111264 0.007002544 -0.24383773
000140 03 21 9b 3d 87 2f 07 be b1 78 19 be b6 17 88 3e
       0.07574656 -0.13201724 -0.14987446 0.2658059
000150 b2 35 09 3e ee e9 27 3e f3 3e 97 3e ae d9 30 be
       0.1339939 0.16397831 0.29540214 -0.17270538
000160 94 26 2e 3e 0e c2 79 3e 80 74 f0 3e 57 f8 a4 bc
       0.17006904 0.24390432 0.46963882 -0.020137949
000170 65 75 23 be 71 6e 84 be e9 6e d7 3e 33 0b 58 3e
       -0.15962751 -0.2586551 0.42076805 0.21098022
000180 ba a9 59 bd c9 dc 8f 3e bf 63 99 be 06 e0 72 be
       -0.05314038 0.28098133 -0.29958913 -0.2371827
000190 73 ae 1a be 25 4b 20 3e b8 44 a0 bd 19 f8 d1 3d
       -0.1510561 0.15653665 -0.07825607 0.10252399
0001a0 dd 08 74 3e 73 ae 1b be ae 18 35 bd 09 4c f2 3e
       0.23831506 -0.15203266 -0.04421299 0.47323635
0001b0 bb 4c 79 be 9f 5a 49 be a3 fa b4 bb d4 6f ad 3c
       -0.24345677 -0.19663475 -0.0055230423 0.021171488
0001c0 be f8 30 3d c8 95 6f bd 47 82 f7 3e d4 ab 2d 3e
       0.04320597 -0.058492452 0.4834158 0.16960078
0001d0 c6 04 83 3e e7 d4 44 3e 4d 3c 38 be 48 28 a2 3e
       0.2558958 0.19221841 -0.17991753 0.31671357
0001e0 e5 53 02 be 2d d8 5d be 05 05 c1 bd 97 ad 08 be
       -0.12727316 -0.21664496 -0.094247855 -0.1334747
0001f0 37 b2 10 3f 80 e2 d8 3e 7d 1a d1 bd b1 4b 04 bd
       0.56521934 0.42360306 -0.1021013 -0.032298747
000200 1d 73 88 3e ba 3f 23 3e 5e 22 44 3e d0 cc 59 3e
       0.26650324 0.15942279 0.19153735 0.21269536
000210 36 64 88 be 11 c9 95 bd 21 19 d1 bc 23 f5 0e 3e
       -0.26638955 -0.07313741 -0.025524678 0.139607
000220 d2 33 aa 3e b3 1d 8f 3f 76 44 0d 3e 27 07 8a 3e
       0.3324266 1.1180938 0.13795647 0.26958582
000230 eb ef 46 3d 9e c8 73 bb 21 83 4c be 66 52 d9 bd
       0.048568647 -0.0037198435 -0.19971897 -0.106114194
000240 cd 66 74 be a4 82 8e bd 3e ba 06 be 3c 40 44 3c
       -0.2386734 -0.069585115 -0.13156983 0.011978205
000250 23 39 b5 3e 2a 0e 9d 3d 6a b5 ed 3d d2 9d ff 3d
       0.35395154 0.07668717 0.116068676 0.12481274
000260 b5 21 b7 3e f5 cc 0c bd fa 29 5d 3c 10 45 1c 3e
       0.35767904 -0.03437515 0.0134987775 0.1526072
000270 3c 18 97 3d 58 96 4b 3e 47 2d 5e 3d f7 0a b8 3e
       0.07377669 0.1988157 0.0542424 0.35945866
000280 3c 37 1c bd 8e 25 d6 be 80 9f 46 3d ad cc 5c 3e
       -0.038138613 -0.41825527 0.048491955 0.21562453
000290 19 6c 20 3e db 59 dc bd 47 81 b2 bc 53 cb 70 3d
       0.15666236 -0.10759326 -0.02179016 0.058787655
0002a0 c9 54 97 3e 80 10 22 be 08 b7 81 be cf 61 dc 3e
       0.29556873 -0.15826607 -0.25334954 0.43043372
0002b0 a7 67 fc be 59 6e 8b 3d 1b 3d 2b be a0 9c 36 be
       -0.4929783 0.068081565 -0.16722529 -0.17833185
0002c0 45 3e 52 be 09 96 c2 3c aa 27 86 3e 04 c4 8c bd
       -0.20531566 0.023753183 0.26202136 -0.068733245
0002d0 52 40 b2 3d 95 ff b6 bd 99 59 85 bc dd 93 6b be
       0.087036744 -0.08935467 -0.016278075 -0.23005624
0002e0 00 b2 fd 3e ae 0c 99 3d a5 71 2c be b3 51 de bd
       0.49549866 0.074731216 -0.16840227 -0.10855427
0002f0 8d 47 17 3d ed 82 a1 3c e3 a5 16 3f 0d 46 14 be
       0.03693347 0.01971575 0.58846873 -0.14479847
000300 98 63 22 3e b5 9f 7b be 43 c5 9e bd 34 81 80 3d
       0.15858305 -0.24572642 -0.077524684 0.062746435
000310 97 39 cb bd 70 03 05 3d a6 23 10 3d 48 5f 13 be
       -0.09923094 0.03247398 0.035190247 -0.14391816
000320 e2 04 f4 bd 7d 7d ec be d7 2c e1 be 42 73 6f 3d
       -0.11914994 -0.4618949 -0.43979523 0.058459528
000330 9d 8a 63 bd 8d d9 75 3e d1 fa 74 3f 3d 77 bf bd
       -0.055552114 0.2400877 0.95695215 -0.09348915
000340 d1 7d 2f be 12 b4 47 3e 26 4f 0a bd 56 47 24 bc
       -0.17137839 0.19502285 -0.033766888 -0.010026773
000350 ac a4 0a 3e 5b b6 b5 3d b0 fe 99 3b b6 7a e6 3b
       0.1353938 0.08872672 0.0046995506 0.0070336713
000360 78 6d e0 3d f9 82 9d bc ae 6d 79 3e 8b 1f b9 be
       0.109583795 -0.019227492 0.24358246 -0.36156878
000370 cd 85 23 3e b0 91 ee 3e fa c8 36 bd f5 97 26 bd
       0.1596901 0.46595526 -0.04462526 -0.04067226
000380 3a 4a 77 3e 07 dc 9d bd ed 37 0b be 64 04 ec 3e
       0.24149409 -0.077079825 -0.13595553 0.460971
000390 4b ab 0b 3d b6 8c 21 be c7 9e a1 be 0d db cb 3e
       0.034098905 -0.15776333 -0.3156645 0.3981556
0003a0 81 4e 8c bc f6 08 7a 3d f9 d8 4b be e0 10 d2 3e
       -0.017127277 0.061043702 -0.19906987 0.410285
0003b0 99 e6 22 bc 33 93 31 be 4f d1 9c be f6 f2 be be
       -0.009942674 -0.17341308 -0.3062844 -0.3729474
0003c0 1a 87 8d 3e 55 d8 38 3e 43 de 6e 3e 54 1a d4 3e
       0.27642137 0.18051274 0.23326974 0.41426337
0003d0 85 2a d6 bd 2d 67 5e be 66 73 d2 3d 6d d4 a5 bc
       -0.10457329 -0.21719046 0.10275917 -0.020242894
0003e0 83 41 33 bd 8f 59 35 be f2 26 f7 3e a9 c5 46 3e
       -0.04376365 -0.17709945 0.482719 0.19411339
0003f0 42 9b 60 3e c7 e0 82 be c9 a4 1c 3e 38 ca b2 bd
       0.21934226 -0.25562117 0.15297236 -0.087299764

encoder.1.0.bias f4 [64]
000000 43 70 cc bd b0 92 6f bd 7a 86 41 be 11 b2 6b be
       -0.0998235 -0.0584895 -0.18898955 -0.23017146
000010 06 00 ba be d6 d0 80 be 85 db 12 3e 31 aa 62 be
       -0.36328143 -0.2515933 0.14341553 -0.22135235
000020 25 fe af be 24 f9 de 3e 15 59 09 bd 95 0d 88 3d
       -0.34373584 0.43549454 -0.03353222 0.066432156
000030 c7 e7 f9 3d cc 37 e0 3e e0 b5 d8 3d b1 2e 5f bd
       0.12202411 0.4379257 0.10581565 -0.054487888
000040 05 2a 07 be 23 e1 79 3d 1d bb 37 bd 08 4e 60 be
       -0.13199623 0.061005723 -0.04485618 -0.21904767
000050 d5 8d 95 3d 7f ca ce 3d 9e 47 76 3e 84 9e a3 be
       0.07302443 0.10097217 0.24050757 -0.31956875
000060 a1 35 6b be 47 39 b9 3d 54 01 25 3d cf 1a 71 be
       -0.22969677 0.09044128 0.04028447 -0.23545383
000070 9b 57 ac 3c 4e b7 26 3c 5a 4d 65 3e bf c5 31 3e
       0.021037867 0.010175539 0.22392789 0.1736059
000080 9f c6 b6 bd e6 68 84 3e 5e 96 4c 3d 7e 2c 14 be
       -0.08924603 0.2586128 0.04994809 -0.14470097
000090 41 a0 70 bc f2 ca 6f bd a7 4d 08 bf 90 a1 d1 be
       -0.014686645 -0.058543153 -0.5324349 -0.40943575
0000a0 0b f8 8f 3e 3d 1c f4 3c 31 c8 80 3b 63 71 8e bd
       0.2811893 0.029798621 0.0039301147 -0.069552206
0000b0 b6 bf ec 3d 8f 4f 0e 3e 62 ae 44 bd 95 a2 a3 3e
       0.115600035 0.13897537 -0.048017867 0.31959978
0000c0 ba 30 80 be dd 59 7f 3c 5a fb c8 be 5d 6f 86 3d
       -0.25037175 0.01558539 -0.39254266 0.065642096
0000d0 00 e9 5c be a4 ed dc bd 36 5d 69 3e 20 12 90 be
       -0.21573257 -0.10787514 0.22789463 -0.28138828
0000e0 05 80 37 be ec ff 64 be e2 50 24 bd 6f d3 ba 3d
       -0.1791993 -0.22363251 -0.0401162 0.09122359
0000f0 08 82 60 be 86 a2 ac 3e 61 8e ed 3d 31 0b 6c 3e
       -0.21924603 0.33717746 0.11599422 0.23051144

encoder.1.1.weight f4 [64]
000000 e7 9a 82 3f f0 26 92 3f 6a cb 48 3f c2 4a 8b 3f
       1.0203522 1.1418133 0.78435385 1.0882189
000010 cd 1e 9a 3f 96 a1 6f 3f be 2e 98 3f 07 c8 68 3f
       1.204065 0.93605936 1.1889265 0.9093022
000020 4c fd 83 3f 13 b1 9a 3f 15 26 63 3f 63 15 7a 3f
       1.0311675 1.2085289 0.88729984 0.97688884
000030 03 8d 71 3f 6d 69 54 3f 10 24 65 3f 82 0b 72 3f
       0.9435579 0.82973367 0.8950815 0.9454881
000040 db 92 75 3f a5 3e 85 3f 04 f5 6d 3f bc a4 82 3f
       0.9592721 1.0409743 0.9295199 1.0206523
000050 9a de 86 3f f4 14 7a 3f 89 43 51 3f 92 f4 7b 3f
       1.0536683 0.9768822 0.81743675 0.9842006
000060 30 4b 76 3f 29 4d 82 3f 70 fb 69 3f 36 e0 60 3f
       0.9620848 1.0179797 0.9139929 0.8784212
000070 9d a6 7a 3f 18 85 6c 3f 20 b6 86 3f e5 fb 55 3f
       0.9791048 0.92390585 1.052433 0.83587486
000080 da ee 9b 3f 8e 8f 72 3f 01 47 90 3f 67 e6 8a 3f
       1.2182267 0.947503 1.1271669 1.0851563
000090 ce 61 89 3f f5 04 4c 3f f1 46 4f 3f 90 48 78 3f
       1.0732973 0.79695064 0.80967623 0.9698572
0000a0 28 9a 8f 3f a7 8b 60 3f d9 06 9c 3f c6 33 5c 3f
       1.121892 0.8771309 1.218959 0.860165
0000b0 e4 dc 7f 3f cb f6 81 3f 9e 15 9f 3f d2 dc 73 3f
       0.9994643 1.015344 1.2428472 0.9525882
0000c0 17 10 94 3f 89 56 68 3f a0 43 5b 3f 65 2d 77 3f
       1.156741 0.9075704 0.8565006 0.9655364
0000d0 5c eb 7a 3f 43 0d 5f 3f 3a cc 88 3f c4 40 5d 3f
       0.9801538 0.8712961 1.0687325 0.8642695
0000e0 c6 ed 84 3f 3e 9c 73 3f 66 73 87 3f 28 2a 7b 3f
       1.0385063 0.9516028 1.0582092 0.981112
0000f0 08 d4 7a 3f 63 e2 66 3f 4f 42 6b 3f 6a f9 6f 3f
       0.97979784 0.9018919 0.91898054 0.9373995

encoder.1.1.bias f4 [64]
000000 f5 39 93 3e 7a ab a3 3e dc c3 4c 3e 01 d1 05 be
       0.28755155 0.31966764 0.1999659 -0.1306801
000010 a3 1f f7 3e 85 2f 96 3e 8f d5 d5 3e d8 ae a2 3e
       0.48266324 0.2933313 0.41764495 0.3177402
000020 61 e2 b3 3d 95 76 e1 3b 8a e7 a8 3e aa 7e e6 3e
       0.08783413 0.006880591 0.3298915 0.45018512
000030 30 48 ae 3e ef 18 07 3e a2 46 8d 3e e9 8f d7 3e
       0.3403945 0.13193105 0.2759295 0.42101982
000040 b8 00 0d 3f 5f 6b 05 3f 7e a0 e5 3e bf 82 06 3f
       0.5507922 0.5211696 0.44849008 0.5254325
000050 21 c7 80 3e 39 8a f8 3b 9e e4 b8 3e 6a 2d 5c 3e
       0.25151923 0.007584837 0.3611192 0.21501699
000060 ff ab b2 3e 7a 18 b0 3e 13 54 e9 3e 4e fd 2a 3e
       0.34896848 0.34393674 0.45571956 0.1669819
000070 09 8a 8b 3e 6e 2a ff 3e 47 d0 71 3e d8 bf 6a 3e
       0.2725375 0.4983706 0.23614608 0.22924745
000080 21 e6 18 bf 02 d6 21 bb 71 0e 86 3e a5 c5 95 3e
       -0.5972615 -0.002469421 0.26182893 0.29252353
000090 5b c1 a8 3e 9a f4 fc 3e d6 49 0c 3e ce ff 43 3e
       0.3296002 0.49405366 0.13700041 0.1914055
0000a0 40 83 40 bd 51 9e 03 3f e6 bd 9a be f0 bb e2 3e
       -0.04700017 0.51413447 -0.30223006 0.4428401
0000b0 cb 3c a6 3e 5c 8f 6b be a3 b1 86 3d 74 b2 68 3d
       0.32468256 -0.23003906 0.0657685 0.05681081
0000c0 5d a9 1f 3d 9f 59 9e 3d 42 df 74 3e ab 46 f8 3e
       0.038979877 0.077319376 0.23913291 0.48491415
0000d0 03 c7 c9 3d 5d ce 87 3e 41 d2 be 3d 07 ff 1c 3e
       0.098524116 0.2652463 0.093174465 0.1533166
0000e0 59 da a3 3e 43 da 77 3e 7b 31 a5 bd 30 ae 16 3e
       0.32002524 0.24204354 -0.08066078 0.14714885
0000f0 de f6 7d 3e 00 2f aa 3e 02 15 96 3e bb 57 97 3e
       0.24801204 0.33238983 0.29312903 0.2955912

encoder.1.1.running_mean f4 [64]
000000 fd d5 a6 be a9 4d a0 3e c6 c0 3f 3f 5d 76 e7 3e
       -0.32585135 0.3130925 0.74903524 0.45207492
000010 a1 2c 01 40 d3 c9 09 bf fa c5 b4 3e f9 88 03 3f
       2.018349 -0.53823584 0.35307294 0.5138088
000020 89 cd 75 3f d7 c8 14 be bb df 21 3f 00 17 bd bf
       0.96016747 -0.1452974 0.6323201 -1.4772644
000030 47 c9 b6 be 02 12 30 bf 37 dc ec 3e de fd 34 3e
       -0.35700437 -0.6877748 0.4626176 0.17674968
000040 01 ec 14 3f 25 62 1d 3f 43 54 f1 be 1d 8c 33 3f
       0.58172613 0.6147788 -0.471346 0.7013567
000050 9c a5 a2 3f ce 6a d3 3f 15 92 e1 bc 65 62 69 bf
       1.270679 1.6516969 -0.027535478 -0.91165763
000060 9f 81 60 3f 8b be c4 3f 6e b1 7e 3d 5d 95 49 3e
       0.87697786 1.5370649 0.06218093 0.19685884
000070 35 aa f6 3e 30 a9 de 3c 03 3a 3e bf 5f 6c 66 3f
       0.48176733 0.027180284 -0.7430727 0.9000911
000080 88 ae 31 3f 41 b5 bb bf b9 56 9b 3e 08 54 8e 3f
       0.6940694 -1.4664689 0.30339602 1.1119394
000090 63 be 06 3f b8 37 29 3f cd 26 60 3f 88 8d 83 3f
       0.5263426 0.66100645 0.87559205 1.0277567
0000a0 fa 9f e4 3f ff eb 21 3f 28 99 11 3f 83 64 b4 3d
       1.7861321 0.63250726 0.5687432 0.088082336
0000b0 30 05 8c 3d 92 67 c5 3f 00 bf f2 be 7c db 04 40
       0.06836927 1.5422232 -0.47411346 2.0758963
0000c0 4a 83 a9 3f 0d ea 19 be ea 26 b0 3f b7 2c 92 3f
       1.3243191 -0.1503069 1.3761876 1.1419896
0000d0 9d 2a c2 3f 46 76 71 bf 74 8d 82 3c 89 f6 76 3f
       1.5169255 -0.94321096 0.01593659 0.9646993
0000e0 ea 5d 0e 3f 52 f3 e5 3f 8e 7b 3d bf 1e 27 91 be
       0.5561205 1.796488 -0.74016654 -0.28350157
0000f0 21 65 98 3e 28 59 4a 3f 26 3a 32 bd 54 c8 99 be
       0.29764655 0.7904229 -0.043512486 -0.3003565

encoder.1.1.running_var f4 [64]
000000 87 f9 b0 3f 4a 0f 03 40 2d e8 78 3f 09 4e 61 3f
       1.382615 2.0478082 0.9722927 0.880097
000010 a4 7c 28 40 e4 0e 8b 3f d2 0b 0a 40 e8 d9 81 3f
       2.6326075 1.0863919 2.1569715 1.0144625
000020 f9 7d 68 3f 0b 5a aa 3f b9 97 91 3f 46 a2 b9 3f
       0.9081722 1.3308729 1.1374427 1.4502647
000030 6f ee 57 3f 9b 23 4e 3f 19 88 5d 3f e7 87 b4 3f
       0.84348196 0.8052308 0.86535794 1.4103974
000040 b1 f8 68 3f 46 c4 f8 3f 9e bb 4f 3f 56 da c4 3f
       0.9100447 1.9434898 0.81145656 1.5379131
000050 00 18 ab 3f 17 1e 19 3f cc 24 6b 3f 57 e6 e3 3f
       1.3366699 0.5981154 0.9185302 1.7804669
000060 9f 29 8d 3f 54 39 b6 3f 3f 79 d2 3f 03 35 7c 3f
       1.1028327 1.4236245 1.6443251 0.9851839
000070 33 00 48 3f 6c ca e4 3f e1 6e 5b 3f b2 a4 5c 3f
       0.78125304 1.7874274 0.8571606 0.86188805
000080 66 48 64 3f eb 52 e5 3f 2f b2 a4 3f e7 ad d5 3f
       0.8917297 1.791593 1.2866877 1.6693696
000090 b6 d9 0f 40 00 5d 73 3f 0a 8a 49 3f d0 64 c8 3f
       2.247663 0.9506378 0.78726256 1.5655766
0000a0 1a 65 7e 3f b2 6a 91 3f ea fa bb 3f 51 31 3b 3f
       0.9937302 1.1360686 1.4685948 0.73122126
0000b0 04 22 9e 3f 8e 8f 20 3f bb 22 32 40 1a 64 74 3f
       1.2354131 0.6271905 2.7833698 0.9546524
0000c0 9f c2 05 40 38 05 98 3f e2 dc b3 3f ad f1 a3 3f
       2.0900037 1.1876593 1.4051783 1.2808129
0000d0 ba 39 7c 3f e1 b2 6d 3f c0 9e 8b 3f 44 6d 60 3f
       0.98525584 0.9285107 1.0907822 0.87666726
0000e0 82 8a 70 3f fe aa 57 3f 90 db ff 3f 72 ce 3a 3f
       0.93961346 0.8424529 1.998888 0.7297126
0000f0 0d 39 75 3f c6 68 a2 3f 8c 7a b8 3f a2 00 a0 3f
       0.9579018 1.2688224 1.4412398 1.2500193

encoder.2.0.weight f4 [128, 64]
000000 0d c2 24 3e e5 e5 1b be 39 e9 8e be c7 be 3b 3e
       0.1608965 -0.15224417 -0.2791231 0.18334495
000010 0b 33 69 3d 62 de 36 bb 38 49 8e be 5d 6c 16 3e
       0.056933444 -0.0027903547 -0.27790236 0.14689775
000020 d4 fb 01 3d bc e7 3c bc 58 4f 55 be e0 17 ee 3e
       0.031734303 -0.011529859 -0.20831048 0.4650259
000030 4e cc 2c be 8c e1 1b 3e 2e db cf 3e 61 64 32 bd
       -0.16874811 0.15222758 0.40596908 -0.04355276
000040 c4 04 15 3e 2e 17 61 be 35 93 0a 3f 3e 5a 82 bf
       0.14552599 -0.21981499 0.5413087 -1.018379
000050 de 4a c9 3d da ea 05 3e 40 a5 cb bc a6 3b 9a 3d
       0.09828733 0.1307787 -0.02485907 0.07530908
000060 f8 29 9b 3d f1 a6 27 be 2c 6b 6e 3a 82 a6 8a bd
       0.07576364 -0.16372277 0.00090949493 -0.0677004
000070 47 ad b3 3e 73 be 0f be aa 14 d9 3d 9c b4 85 3d
       0.35093138 -0.14037494 0.105996445 0.06528589
000080 e9 7c f2 bd f2 ce 5f be 5b ac 12 be 90 53 35 bd
       -0.11840231 -0.21856287 -0.14323561 -0.044269145
000090 94 91 c3 be a9 b4 d2 3d 00 a1 8c 3e 28 49 6b be
       -0.38197005 0.102883644 0.27466583 -0.22977126
0000a0 c7 b0 63 3e dc 5a 41 3d f4 12 a9 be d2 a2 34 3e
       0.22235404 0.04720579 -0.33022273 0.17640236
0000b0 d6 df ee 3d 0b 31 2d 3e 25 84 2e 3e 47 90 38 3d
       0.11663787 0.1691324 0.17042597 0.04505947
0000c0 6e 69 57 be ed 4c a4 3c 88 94 24 3e 6c b0 31 3e
       -0.21036312 0.020056212 0.16072285 0.17352456
0000d0 8c 9e e6 bd 78 9e e1 3e 2a 99 a3 3b 61 48 d0 3d
       -0.11260709 0.44066215 0.004992624 0.10170055
0000e0 b9 18 71 3e ba 82 88 be 1f 9b 4a be 36 d6 6d be
       0.23544587 -0.26662236 -0.19785737 -0.23226246
0000f0 f9 c9 ba bc 51 75 29 3d 52 4f 81 3e 6f 17 43 be
       -0.022801386 0.041371647 0.2525583 -0.19051908
000100 fb 6b 0b 3e d8 f0 88 be 9f 92 01 bf f8 72 db bd
       0.1361541 -0.2674625 -0.5061435 -0.10715288
000110 3e 74 9e 3e 96 9d 93 be 88 c9 b0 bd 83 d2 1a be
       0.3094806 -0.28831166 -0.08632189 -0.15119366
000120 9c cb 2a 3e e6 eb 20 bd a2 15 0f bc 0d 2f ae 3c
       0.16679233 -0.03928747 -0.008733185 0.02126267
000130 61 94 34 bc 27 ba 71 be 6d 69 88 3e fa ac 1e be
       -0.011021704 -0.23606168 0.26642933 -0.15495673
000140 9a 96 55 3e 3d 76 99 be 23 52 ff 3e 66 57 8d be
       0.20858231 -0.2997302 0.49867353 -0.27605742
000150 f0 ad 9a bd 6f 89 0b be 69 6d 7e 3e 7f ef 30 3e
       -0.07552707 -0.13626646 0.24846424 0.1727886
000160 d2 48 1b be 9f ee 88 3e 47 0f 45 3e 2c d5 19 bf
       -0.15164497 0.26744553 0.19244109 -0.600909
000170 0c 9b 79 bd 27 97 e6 bd b1 86 34 3e 1c 14 64 3d
       -0.06093888 -0.11259299 0.17629506 0.05568324
000180 f7 e8 ae be 26 03 34 bd ab b0 ca 3d f5 2e ba bd
       -0.34162113 -0.043948315 0.09896978 -0.090909876
000190 cc 35 22 be 45 3f 91 be 7a 0f 5e be c4 05 8d bd
       -0.15840834 -0.28368583 -0.21685591 -0.06885865
0001a0 11 59 36 bd 44 ff d7 3e 9a 75 98 be a0 c2 33 be
       -0.044518534 0.4218694 -0.29777223 -0.17554712
0001b0 cc 7a e7 bd ac 37 bd 3e 0b d9 b7 be 21 76 d5 bd
       -0.113027185 0.36956537 -0.35907778 -0.10422922
0001c0 e1 6e ad 3e 4d 9c 4b bd bf 2b a6 3e 89 8b 6a be
       0.33873656 -0.049709607 0.3245525 -0.22904791
0001d0 bc 41 35 3d e9 64 ad 3c 7d d6 bd bd 4e fd 9b be
       0.044252142 0.021166282 -0.09269426 -0.30466694
0001e0 3c 02 81 3e f8 a7 6e bc 66 51 75 3e de 64 94 bd
       0.25197017 -0.014566414 0.23956832 -0.072458014
0001f0 dd e6 de bd 97 dd 01 3d 04 8b 55 be 0a 4f cb be
       -0.108838774 0.031705465 -0.20853812 -0.3970874
000200 55 58 c0 3c 4b 27 ad be 8f 18 c1 3e d2 7f 94 be
       0.02347962 -0.3381904 0.3771405 -0.2900377
000210 ea d4 99 3e d6 98 8e 3e 85 06 73 3e c6 61 5b 3e
       0.30045253 0.2785098 0.23732956 0.21424016
000220 37 d3 94 be 2c 12 ca bd 81 98 1f 3e 6c ec 7c be
       -0.29067394 -0.09866747 0.1558552 -0.24699563
000230 0a b8 2f be c4 94 a6 3d ee 20 09 3d 95 35 9b be
       -0.17160049 0.081338435 0.03347867 -0.30314317
000240 e6 7c 8d 3e 89 0f 17 be 90 d7 7f bd ac 6a cb 3c
       0.27634352 -0.1475202 -0.062461436 0.024831139
000250 21 4c b0 3e d1 51 05 be 3b 84 7e 3d a3 e8 3f be
       0.34433082 -0.13019492 0.062137824 -0.18741088
000260 52 d5 62 be cf 02 81 3e 1b 8c 0b be ee 6e 4c 3e
       -0.22151688 0.25197455 -0.13627665 0.19964191
000270 57 87 64 3d 0b 89 b1 3e 87 65 36 3d 76 29 ba 3e
       0.055793133 0.34674868 0.044530418 0.36359757
000280 10 56 d2 3d e6 f9 d1 bc eb 60 12 bf ac 53 5a bd
       0.10270321 -0.025631856 -0.57179135 -0.053302452
000290 9f b8 c3 3e 41 54 03 be 09 80 54 bc 58 fc 82 be
       0.38226792 -0.12825109 -0.012969979 -0.25583148
0002a0 36 60 17 3e 1c 6b 7c 3e 5c e6 ef 3e 96 eb b3 bc
       0.14782795 0.24650234 0.46855438 -0.021962922
0002b0 5f 9d 91 bd 7f f2 62 be b9 63 ee 3d 0e 7e 39 3e
       -0.07110094 -0.22162817 0.11640114 0.18114492
0002c0 a4 8c 0d bf 64 1c bf bd 4d 82 3c 3e 98 dd 67 3d
       -0.55292726 -0.09331587 0.18409081 0.056607813
0002d0 c4 30 1d be b6 a5 20 3d a1 88 f3 3c d5 ac 28 bd
       -0.15350634 0.039220534 0.029728236 -0.04118045
0002e0 47 b0 e1 bb 52 41 99 3e ed b2 53 3d 73 a2 1b bd
       -0.006887469 0.29932648 0.05168431 -0.03799672
0002f0 5e d3 80 bd 2f 80 16 be 11 95 ec be 9b b2 f8 3e
       -0.06290315 -0.14697336 -0.4620748 0.48573765
000300 15 3f 34 be 51 52 88 3e 71 a4 21 3e 20 3e 4e be
       -0.17602189 0.26625302 0.15785386 -0.20140886
000310 de 2c e2 bd 5e 60 41 3e 8e 63 8f bb 2d f6 c3 3d
       -0.11043714 0.18884417 -0.0043758815 0.09568439
000320 d3 18 d6 bd 35 ce de 3e 3b b5 4f bc bd f5 1d 3d
       -0.104539536 0.43516698 -0.012677486 0.038564432
000330 64 ae 03 bf 66 61 b1 be 7b c6 9f 3e e5 9d 40 bd
       -0.51437974 -0.34644622 0.31206116 -0.04702558
000340 40 67 76 3e e6 c4 e9 bc 08 1b 37 be 45 77 12 3f
       0.24062824 -0.028536271 -0.17881405 0.5721324
000350 48 5c a5 be 9e f2 8f be 90 9e 5b 3e 04 53 03 3d
       -0.32296968 -0.2811479 0.21447206 0.03206159
000360 3f b8 29 be 81 58 d6 bd c2 3c 46 be 4b 77 4e be
       -0.1657419 -0.104660995 -0.19359115 -0.20162694
000370 d5 2b ff be 43 66 89 3e 81 85 08 be 2f bc 34 3d
       -0.4983813 0.26835832 -0.13332178 0.04412478
000380 31 ba ae be 2f 64 83 bc 63 a6 ca 3d 26 41 76 3d
       -0.34126428 -0.016038982 0.09895017 0.060120724
000390 da 2b 27 3d 07 d9 a5 bd 78 ea 10 3e 35 07 d5 3e
       0.040813304 -0.08098035 0.14151943 0.4160706
0003a0 b2 d1 4f be 8b 2b 7a bd 70 32 c9 be f6 5d 29 be
       -0.20294836 -0.061076682 -0.39296293 -0.1653975
0003b0 0e ec c8 3e 5a a9 b0 bc 82 30 b6 bd 72 4c 6b 3e
       0.39242595 -0.021565128 -0.08895971 0.2297838
0003c0 cf 9b 2c 3e 3b 9e 16 bf 62 89 27 be 97 0d 99 be
       0.16856311 -0.5883519 -0.16361001 -0.2989318
0003d0 4a 58 72 bd b2 9f 13 be 6b 7b c6 3d 54 b9 e2 3d
       -0.05916623 -0.14416388 0.09691509 0.11070505
0003e0 8b 2d df 3c e6 23 93 3e 35 96 78 be b5 b5 63 3d
       0.027243396 0.28738326 -0.2427605 0.05559321
0003f0 f3 d0 07 bf 2f 40 40 3c a9 72 cd bd 88 68 4c bc
       -0.53053206 0.011734053 -0.10031635 -0.012476094

encoder.2.0.bias f4 [128]
000000 48 e0 92 bd 56 ca 9b bc 40 c4 63 bd c0 ee 92 3c
       -0.071716845 -0.01901738 -0.05560708 0.01793611
000010 68 f6 95 3c 4e 9a 81 be d1 b0 19 be 40 3c 15 3c
       0.018305972 -0.25313038 -0.15008856 0.009108603
000020 87 f9 09 3e e8 c0 63 3d 43 8f 3d 3e bc d4 99 3d
       0.13474093 0.05560389 0.18511681 0.07511279
000030 e7 2c 54 be 14 51 9d 3d 35 48 20 bd 55 93 4b bd
       -0.20720254 0.0768148 -0.039131362 -0.049701054
000040 42 3e 03 3e 5b 04 92 3d cc a6 44 be f4 df ca 3d
       0.12816718 0.07129737 -0.19204253 0.09905997
000050 82 49 95 3e 6c 78 9e 3d fc 0e 29 bd 5f 31 81 be
       0.29157645 0.077378124 -0.041274056 -0.2523298
000060 f8 d3 62 3e 57 86 3c be 87 7e 41 bd b9 08 5b be
       0.22151172 -0.18410622 -0.047239807 -0.21390046
000070 b7 a5 30 be 9a c8 13 3e c2 64 05 3e b8 a3 d9 3b
       -0.17250715 0.14431992 0.13026717 0.0066418312
000080 7f 03 83 be 09 b4 19 3d fd eb c3 3d 2c 43 a1 bd
       -0.25588605 0.03752521 0.095664956 -0.0787414
000090 51 8a a2 bd 4e ef 5c 3d eb d9 10 3e 7b 8c 13 bd
       -0.07936538 0.053939156 0.14145629 -0.036022644
0000a0 96 2e a5 bd a8 bf ad bd 38 bc bb 3c cf 38 25 be
       -0.08065526 -0.08483821 0.022916898 -0.16134952
0000b0 9e b0 da 3d d4 6b 5c bb 05 1d 1f be 3c e5 47 ba
       0.10678218 -0.0033633607 -0.15538414 -0.0007625406
0000c0 89 a9 e9 bd d6 93 2d be 16 0f 42 3e 5a 15 bb bd
       -0.114092894 -0.16950926 0.18951067 -0.09134932
0000d0 e3 3b e0 3d 8b 7e 9d bd 97 fc 2b 3e ef ae 6a bc
       0.109489225 -0.07690152 0.16795574 -0.014323934
0000e0 14 ef cf 3d bb 5e 69 bd a4 a5 06 bc e8 fe f4 3d
       0.101530224 -0.056975108 -0.008218203 0.11962682
0000f0 a8 89 20 be 29 01 2f bd 53 73 c7 bd 6d 5c ff bd
       -0.15677512 -0.042725716 -0.09738793 -0.12468801
000100 ad 80 69 3c 4a 00 69 bc 95 5d 53 be d3 22 02 3d
       0.01425187 -0.01422126 -0.20641167 0.031771492
000110 4e d2 28 3e 0d 43 1b be 85 6d 3c 3e 01 69 1e 3e
       0.16486475 -0.15162297 0.18401153 0.15469743
000120 24 31 07 3d 53 cf c5 bd 45 f4 10 be b6 bd 56 be
       0.03300585 -0.096586846 -0.14155681 -0.20970806
000130 6f 6a 0a 3e f8 13 5a be fa 3e 41 be f8 ce c9 bc
       0.13517164 -0.2129668 -0.1887168 -0.024634823
000140 51 aa 15 bd ca a0 64 bd 4f 50 2d 3e 32 c5 fd bd
       -0.03653938 -0.055817403 0.16925167 -0.12391128
000150 dc 3e db 3d b2 da 2b bd 73 6f c7 3d f6 92 7b bd
       0.10705349 -0.04195661 0.09738054 -0.06141945
000160 4d 59 4a be 17 3a e1 3d 97 3f 94 bd a1 d8 88 3b
       -0.19760628 0.10997408 -0.07238691 0.004176215
000170 24 d8 46 be d0 6f 62 3d 4f 5b 48 3e 79 28 c8 bd
       -0.19418389 0.055282414 0.19566081 -0.097733445
000180 fa 9e 83 be 5a 6b 04 be ce 69 5e 3d d0 a1 0f 3e
       -0.25707227 -0.12931576 0.054300122 0.1402657
000190 ad 08 29 3e 17 b3 f4 3b a7 24 4c be b6 f7 92 3d
       0.16507216 0.0074676382 -0.19935857 0.07176153
0001a0 20 91 91 bd 73 bb 5f 3e 12 be 53 be 58 64 a4 be
       -0.071077585 0.2184885 -0.20677975 -0.32107806
0001b0 b6 d8 e2 3d 16 5b 98 3d 6a fb 02 3e d9 b5 1e bd
       0.110764906 0.07439248 0.1279122 -0.038747642
0001c0 50 97 1c be 51 65 76 3d 2e 18 ce 3c 7f 54 02 be
       -0.15292096 0.060155217 0.025158014 -0.12727545
0001d0 63 5b 3e 3d f9 da 52 be 2d 5a c6 bd 14 a0 85 bd
       0.046473872 -0.20591344 -0.096851684 -0.06524673
0001e0 d7 ca b3 bd 23 be 0c be 9b d2 9f 3d cc 36 a3 bd
       -0.08778923 -0.13744406 0.07803842 -0.07969436
0001f0 12 ce 81 3d 4c a9 30 be 37 7b c0 bd 74 92 b8 3d
       0.06338133 -0.17252082 -0.09398501 0.09012309

encoder.2.1.weight f4 [128]
000000 71 7b 60 3f 18 d5 82 3f 6e f1 7e 3f ef 84 58 3f
       0.87688357 1.0221281 0.9958714 0.8457784
000010 df d3 77 3f 99 eb 6d 3f f2 19 68 3f ae 6c 72 3f
       0.96807665 0.9293762 0.9066459 0.9469708
000020 a9 b7 75 3f c8 74 44 3f 49 cf 8a 3f 08 20 81 3f
       0.9598337 0.76740694 1.0844508 1.00879
000030 1d 4c 6d 3f 45 1e 6e 3f a5 50 81 3f eb 42 64 3f
       0.92694265 0.9301494 1.0102736 0.8916461
000040 28 6f 99 3f 4e f2 57 3f 9d 2f 6d 3f bb f2 89 3f
       1.1987047 0.843541 0.9265078 1.07772
000050 29 f4 8e 3f 98 06 34 3f 79 74 6d 3f 42 2e 93 3f
       1.1168262 0.7032256 0.9275585 1.1498492
000060 e5 6c 63 3f c8 7d 5e 3f 4b 01 61 3f 23 79 8e 3f
       0.88838035 0.86910677 0.878926 1.1130718
000070 f7 6e 5e 3f 63 d1 6c 3f 05 24 42 3f a6 c2 78 3f
       0.8688807 0.92507 0.7583621 0.9717201
000080 0b 40 9b 3f 83 2f 47 3f 6f 0c 5d 3f ed 39 96 3f
       1.2128919 0.7780687 0.863471 1.1736428
000090 6f 18 75 3f 51 a1 7b 3f c8 c6 6a 3f c3 e1 75 3f
       0.9574041 0.98293024 0.91709566 0.9604761
0000a0 bf 1d 88 3f 0d 02 55 3f a8 5e 6b 3f 00 45 86 3f
       1.0634078 0.83206254 0.9194131 1.0489807
0000b0 b6 a3 85 3f 2c bf 6b 3f d2 29 29 3f f5 79 b6 3f
       1.0440586 0.9208858 0.6607944 1.4255968
0000c0 78 86 8b 3f 49 17 88 3f ea 2e 77 3f 1c ea 48 3f
       1.0900412 1.0632106 0.9655596 0.7848222
0000d0 74 77 6a 3f 8d a4 7d 3f 5c e3 86 3f 96 26 82 3f
       0.9158852 0.9907921 1.0538135 1.0168025
0000e0 7e 42 54 3f cc b3 69 3f 2c c0 8d 3f c4 33 78 3f
       0.8291396 0.91289973 1.1074271 0.9695399
0000f0 dc b8 76 3f 2e b5 6e 3f 0c c4 85 3f 29 83 82 3f
       0.96375823 0.9324521 1.0450454 1.0196277
000100 71 ba 52 3f 8b 6e 68 3f 49 84 8e 3f cc 57 81 3f
       0.82315737 0.90793675 1.113412 1.0104918
000110 7b 7f 4f 3f cd 37 74 3f 3f a3 56 3f 87 df 88 3f
       0.81053895 0.95397645 0.83842844 1.0693215
000120 0d bd 61 3f a7 07 47 3f 25 f3 6e 3f 63 a8 66 3f
       0.88179094 0.7774605 0.9333976 0.9010069
000130 26 b3 94 3f 2c b9 6d 3f 95 cc 7c 3f aa 62 82 3f
       1.1617172 0.92860675 0.9874967 1.018636
000140 34 b4 8b 3f 84 65 84 3f 3e ca 8d 3f fb 75 54 3f
       1.0914369 1.034348 1.1077344 0.82992524
000150 38 4c 98 3f ba 7f 78 3f 2e 4a 76 3f 4f e7 9a 3f
       1.189826 0.97069895 0.9620694 1.210184
000160 d5 be 86 3f c4 bc 7e 3f c3 6a 87 3f a9 c8 7d 3f
       1.0526987 0.99506783 1.0579456 0.9913431
000170 53 82 85 3f 8b 05 9c 3f bc cd 7c 3f a5 ff 85 3f
       1.0430397 1.2189192 0.98751426 1.0468642
000180 3b 1a 81 3f ca 97 8b 3f ce f5 77 3f d3 59 5c 3f
       1.008613 1.0905697 0.96859443 0.8607456
000190 d1 47 5a 3f 69 8d 5d 3f ea 6c 82 3f cf 8d 5d 3f
       0.85265833 0.865439 1.0189488 0.8654451
0001a0 cc e6 72 3f 6a 29 80 3f 1f 25 8b 3f 35 6d 81 3f
       0.9488342 1.0012639 1.0870703 1.0111452
0001b0 c4 83 81 3f 55 6d 79 3f 35 4f 83 3f bb ec 68 3f
       1.0118337 0.9743245 1.0258547 0.9098622
0001c0 75 4b 67 3f 00 65 6e 3f 4e 0d 9a 3f 53 de b7 3f
       0.90349513 0.93122864 1.203531 1.4364723
0001d0 f5 9a 82 3f 44 4d 4a 3f 7a 6b 86 3f b4 31 85 3f
       1.0203539 0.7902415 1.0501549 1.0405793
0001e0 eb 44 72 3f f4 9e 8b 3f 93 e7 6d 3f 28 41 4f 3f
       0.9463641 1.0907884 0.9293148 0.80958796
0001f0 5d fa 69 3f a8 b4 45 3f a1 3d 76 3f bc ba 64 3f
       0.9139765 0.77228785 0.9618779 0.89347434

encoder.2.1.bias f4 [128]
000000 be 53 96 3e a2 66 76 be 4b 44 26 3e a9 50 bb 3d
       0.29360765 -0.24062589 0.16236989 0.09146244
000010 a4 b3 4c 3e 5b 40 d5 bc 0c 58 93 3d 78 17 1e bd
       0.19990402 -0.026031664 0.07194528 -0.0385966
000020 bc d4 fe bd 9f 8f a5 3d 87 47 fc be c2 90 36 bc
       -0.124429196 0.08084034 -0.4927332 -0.011142911
000030 12 bf 0e 3d b1 de 0b 3e c6 d5 6a be 72 05 31 3d
       0.034850188 0.13659169 -0.2293311 0.043218084
000040 42 5f fa 3d 4a 4c 31 3e 57 c4 95 3e 79 7e 2c be
       0.122252 0.17314258 0.29251358 -0.1684512
000050 54 d8 da be 84 50 96 3e f8 df 9a 3d 1c 1a 0b be
       -0.4274317 0.29358304 0.0756225 -0.13584179
000060 ef 35 2a bc 6a 3e 4d 3e d9 58 67 3e 2d 59 a6 be
       -0.010388835 0.2004334 0.22592486 -0.3248991
000070 76 d2 23 3b d0 83 65 3c 15 2e c0 3e b8 17 2a 3e
       0.002499727 0.014008477 0.37535158 0.1661061
000080 56 1e 23 3e 9f 04 15 bc 97 f0 67 3e 98 04 a9 bd
       0.15929541 -0.00909534 0.22650371 -0.08252829
000090 9f a4 00 3e 53 89 81 3e d6 45 ed 3c 41 4d 53 3d
       0.12562798 0.25300083 0.028963964 0.051587347
0000a0 c7 67 ed bd 82 b3 b0 3c ee 20 2c 3d 56 cb b2 3d
       -0.115920596 0.021569971 0.04202359 0.087301895
0000b0 a6 c1 fe bd b5 ab 73 3d 78 2b fc 3c 6d f1 e7 bf
       -0.12439279 0.059489924 0.030782446 -1.8120552
0000c0 cf bc cb 3c b8 9c 34 bd 07 7f 80 be 5c 7e a9 bd
       0.024870304 -0.04409477 -0.25096914 -0.08276054
0000d0 73 00 d0 3c 07 c9 05 be 41 33 a5 bd c2 7f a1 3d
       0.02539084 -0.13064967 -0.080664165 0.07885696
0000e0 fe 42 13 be 30 62 2d 3e 0a dc 15 3e 36 3a b9 bc
       -0.14381024 0.16931987 0.1463472 -0.022610765
0000f0 f6 13 bf 3d b0 b4 e5 3e c4 3b 62 be 7c 6d 6d be
       0.09329979 0.44864416 -0.22093111 -0.23186296
000100 8d 79 15 3e 56 2f 2c 3e 8f fb 41 be 5c 43 95 bc
       0.14597149 0.16814932 -0.18943618 -0.018220596
000110 7b 95 e6 3e 40 58 6f 3e ee 58 4b 3d 4f c2 39 be
       0.4503592 0.23373508 0.049645357 -0.18140529
000120 4b 01 3c 3e e3 f3 8d 3d 8e d4 d4 3d 72 de f9 3d
       0.18359868 0.06931283 0.10392104 0.12200631
000130 7a 72 12 3d b5 5c 53 3d 6c 4b b1 be f3 41 44 3d
       0.035753705 0.051602084 -0.34627855 0.047914457
000140 86 05 0f be 44 b6 32 3d 0a cd 03 3e 88 7e 18 3e
       -0.13966951 0.043630853 0.12871185 0.14892018
000150 aa 61 3b bf 44 cf 5b 3d c4 45 61 be 03 f9 6f be
       -0.731959 0.05366446 -0.2199927 -0.23434834
000160 31 00 54 bd fc db 52 be e8 4a 12 3e 13 57 0f 3d
       -0.051757995 -0.2059173 0.14286387 0.03499515
000170 6d 31 b9 bd 66 96 c2 bd 5c 5e 0a be 34 9f fa bd
       -0.0904263 -0.095013425 -0.13512558 -0.12237397
000180 f9 60 bd bd 27 3e 44 be de 5e bc 3d cf 09 b4 3d
       -0.09247012 -0.19164334 0.09197782 0.08790933
000190 24 bc 01 3e 85 59 82 3c 34 dd 40 be b1 44 30 3e
       0.12669426 0.015911827 -0.18834382 0.17213704
0001a0 ef 9c 0d 3e 3d 8b 39 bd 5d 37 56 be a6 ac 8a bd
       0.13829397 -0.045298804 -0.20919557 -0.06771211
0001b0 94 23 73 be 73 93 61 3d 4b 14 e6 bc 7e a1 a4 3c
       -0.2374404 0.05507226 -0.028085848 0.020096537
0001c0 97 aa c1 3d 48 51 c6 3c db 51 07 be 72 41 8a be
       0.094563656 0.02420868 -0.13214819 -0.27003056
0001d0 14 cb ce bc ef 4b 2f bd 85 54 58 3c 3d 99 31 bc
       -0.02524332 -0.042797025 0.013203745 -0.0108397575
0001e0 97 80 d4 3d 94 bc 2b be 16 1a 97 bc 62 eb 94 bd
       0.10376089 -0.16771156 -0.018445056 -0.07271458
0001f0 f7 3c 1f 3d ad a5 a9 bd 17 52 74 bd 42 41 79 3c
       0.0388765 -0.08283553 -0.0596486 0.015213313

encoder.2.1.running_mean f4 [128]
000000 5e c5 d6 3c 9c 45 90 bf f1 75 f5 3e 72 40 36 bf
       0.026217159 -1.1271243 0.47941545 -0.71192086
000010 d0 2d 2b 3f 83 fd 92 3f 9b 3f 33 40 f4 38 1f 40
       0.6686678 1.1483616 2.8007572 2.4878511
000020 c1 18 25 3e 6e cd 9d 3f d0 07 a0 3f 62 9c b2 3e
       0.16122724 1.2328317 1.2502384 0.34884936
000030 58 de 75 be 4c 66 0b 40 f7 90 ab 3f 0a 00 dc 3f
       -0.24010599 2.1781187 1.3403615 1.7187512
000040 6b 7b 23 3f 8d 70 ee be 69 99 21 40 e6 0c f2 3f
       0.63860196 -0.46570244 2.5249884 1.8910186
000050 2c 16 48 3f 32 f9 fb bf 40 da 84 3e c0 76 87 3e
       0.7815883 -1.9685423 0.25947762 0.26457787
000060 89 d1 ce 3f e4 11 e0 3f 7f 24 69 3f a5 c3 76 3e
       1.6157695 1.750546 0.91071314 0.2409807
000070 3a 06 fd 3e b1 59 10 bf 76 8d e2 3f 05 28 f5 3f
       0.49418813 -0.5638686 1.769942 1.9152838
000080 3d 54 ae 3f f5 f8 6a 3e da 9b 12 bf d2 1e fc be
       1.3619457 0.22946532 -0.5726906 -0.49242264
000090 41 a9 4d 40 ab 69 d6 3e 27 81 f3 3e 54 a2 73 3f
       3.2134554 0.41877493 0.47559473 0.9516957
0000a0 49 30 da 3e df 57 03 bf a8 07 0f 3f 2f 37 05 3e
       0.42614964 -0.51305956 0.5587106 0.13009332
0000b0 2d 64 f7 3e b1 5e 69 3f d9 23 22 be 8b 9b 40 40
       0.48318616 0.9116011 -0.15833987 3.0094936
0000c0 1d 67 d5 3d 4d dd 03 40 df 02 86 3f 6e 50 01 40
       0.10420058 2.0603821 1.0469626 2.020534
0000d0 0c b7 d1 bf e9 aa 32 3e 67 52 15 c0 99 89 10 3f
       -1.6383986 0.1744801 -2.3331544 0.5645996
0000e0 31 a5 cd bf 05 f0 9b 3f 96 df 4b 3f b5 f9 96 3e
       -1.6066037 1.2182623 0.7963804 0.29487386
0000f0 c5 b8 f7 be 74 2e d7 3f 69 e9 a2 3b da bd 16 3f
       -0.48383155 1.6811051 0.0049716723 0.5888344
000100 84 db 41 3f c0 6a 77 3f 5d 8d 58 3f 5b 51 78 3f
       0.7572558 0.9664726 0.84590703 0.9699914
000110 a6 64 d7 3f 62 c1 15 c0 28 d6 8c 3f 4b f7 e1 3e
       1.682759 -2.3399282 1.1002855 0.44133982
000120 42 99 93 3f e0 81 2a be 76 5d 86 3e f7 d8 a4 3f
       1.1531146 -0.16651106 0.2624318 1.2878712
000130 39 d6 4e 3f 83 28 9d 3f c1 91 49 3f 83 1a 02 bf
       0.8079563 1.2277988 0.7873803 -0.50821704
000140 bf 9c 23 3f 71 c6 97 3f f6 eb 8f bd 95 7f 5d 3f
       0.6391105 1.1857435 -0.07027428 0.865228
000150 0b dc e5 3f f0 19 8e 3e b3 a5 f2 3f 54 11 fa 3f
       1.7957777 0.27754164 1.8956817 1.9536538
000160 e5 3f 05 3f fc fc 1b bf 07 e6 0d 3f 17 ad af bf
       0.5205062 -0.609329 0.5542912 -1.3724698
000170 f3 0c 90 3f 3e 54 db 3e b0 68 98 be e7 90 bf 3e
       1.1253952 0.4283771 -0.2976737 0.3741524
000180 b5 67 23 3e 3b 3b fc 3e c1 9d 16 3f 9e da 4b 3e
       0.1595753 0.4926394 0.58834463 0.19907615
000190 c9 d5 c6 3f e4 df 5e 3f 24 f7 f7 3e 61 29 3b be
       1.5533992 0.8706038 0.4843074 -0.18277504
0001a0 55 6a c4 3f 55 6e 1f 3f d2 27 46 3f 23 71 53 be
       1.534495 0.6227773 0.7740451 -0.20648627
0001b0 53 64 07 bf 5d 25 c1 3f 49 c6 f5 3f 9c 05 2b 3f
       -0.5288746 1.5089527 1.9201137 0.66805434
0001c0 1b 8f 1e bf 9f 9e d6 3d 46 38 1f 3f 20 a5 36 3e
       -0.6193711 0.10479473 0.6219524 0.17836428
0001d0 af 94 d9 3f ba 3f e2 bf e4 e3 c5 3f e0 19 1f 3f
       1.69985 -1.7675698 1.5460172 0.6214886
0001e0 68 91 a4 3f 47 1e 23 bf 05 18 8d 3f 0b 1b a4 3f
       1.2856874 -0.63718075 1.1022955 1.2820753
0001f0 fe 86 a0 bf f1 e7 f5 3f d7 dd 4d 3e 15 11 95 3f
       -1.2541196 1.9211408 0.20104156 1.1645838
